tests/test_files/graph_swan_models.pt (torch_old, 258667 bytes, 23 tensors)

lin1.0.weight f4 [1700, 7]
0	0xbe392645	-0.18081005
1	0x3e823a73	0.25435218
2	0xbe9caf68	-0.30602574
3	0x3ebf265d	0.37333956
4	0xbe3456ee	-0.17611286
5	0x3e7f1fba	0.24914446
6	0xbea2cf71	-0.3179889
7	0xbc9a19b6	-0.018811088
8	0x3e5de97e	0.21671101
9	0xbdd4d459	-0.103920646
10	0xbe8b0f90	-0.2716031
11	0xbec7dafa	-0.39034253
12	0x3e1cae65	0.15300901
13	0xbe6a4492	-0.2287772
14	0x3eadce5b	0.339465
15	0xbdd730d0	-0.10507357
16	0x3e0f53ac	0.13996762
17	0x3e2c7f4a	0.16845432
18	0x3d325db6	0.0435464
19	0xbe374d76	-0.17900643
20	0x3e968b7a	0.29403287
21	0xbdc0163d	-0.093792416
22	0x3e48345b	0.19551222
23	0x3e00a6aa	0.12563577
24	0xbd813603	-0.0630913
25	0x3e8f2a8b	0.27962145
26	0x3dbbcaff	0.09169578
27	0x3e1813d8	0.1485132
28	0x3e99057e	0.29887003
29	0x3d0d759e	0.034535997
30	0xbe2bf944	-0.16794306
31	0x3e949a3d	0.29023924
32	0xbe1c5bb2	-0.15269354
33	0xbe0e72e4	-0.13911015
34	0x3e0a9bcf	0.13535999
35	0xbda5b16c	-0.08090481
36	0xbe81e3bd	-0.25369063
37	0x3ea131a3	0.31483182
38	0x3e709848	0.2349559
39	0x3eab4924	0.3345424
40	0xbea29798	-0.31756282
41	0xbe7e853f	-0.24855517
42	0xbeb5163c	-0.35368526
43	0x3e6724ea	0.22572675
44	0x3c794960	0.015215248
45	0x3e85a15c	0.2609967
46	0x3ea7e738	0.32793593
47	0xbe7b0631	-0.2451408
48	0xbe377556	-0.17915854
49	0x3e6e4d88	0.23271763
50	0x3e85cf06	0.2613451
51	0xbe360a4d	-0.17777367
52	0xbe8ad98d	-0.27119103
53	0xbe08fce2	-0.13377717
54	0xbe0874d9	-0.13325824
55	0xbda4561d	-0.08024237
56	0x3d6fe318	0.058566183
57	0x3dc5ca74	0.096577555
58	0x3d9e01b0	0.077151656
59	0x3ebfee01	0.3748627
60	0xbe244c34	-0.16044694
61	0xbba5a680	-0.0050552487
62	0xbe2611a2	-0.16217664
63	0xbeafa501	-0.34305575
64	0x3e081fda	0.132934
65	0x3e6597f9	0.22421254
66	0x3e82cead	0.25548306
67	0x3ea5a488	0.3235209
68	0xbe9c0d1d	-0.30478755
69	0xbe97cfc2	-0.29650694
70	0xbe9d6887	-0.3074381
71	0xbea802dd	-0.32814685
72	0xbe4f74e9	-0.20259441
73	0x3e8111e4	0.25208962
74	0x3e844d50	0.25840235
75	0xbad85cfe	-0.0016507206
76	0xbe521ee2	-0.20519593
77	0x3dc081c9	0.093997546
78	0xbe260088	-0.1621114
79	0xbe5eca21	-0.21756794
80	0x3d7f7b36	0.062373362
81	0xbe611bc8	-0.21983254
82	0x3dffc974	0.12489596
83	0xbe8a591a	-0.27021104
84	0xbd8a60a1	-0.06756712
85	0x3e0f3cfe	0.1398811
86	0x3e545260	0.20734549
87	0x3e628a0a	0.2212297
88	0xbeb51dfd	-0.35374442
89	0xbea7a975	-0.32746473
90	0x3e639d1b	0.222279
91	0xbe9d9b8f	-0.30782744
92	0x3cad4010	0.021148711
93	0x3e26df93	0.16296224
94	0x3eb768a2	0.35822016
95	0xbe8f9a20	-0.28047276
96	0x3e9828d3	0.29718646
97	0xbe33586e	-0.17514202
98	0x3ec18682	0.37797934
99	0xbe91f912	-0.28510338
100	0x3dd5564a	0.10416849
101	0x3ea409f2	0.32038838
102	0xbe80bb93	-0.25143108
103	0xbda18faf	-0.078887336
104	0xbd38944c	-0.045063302
105	0xbeac5add	-0.33663073
106	0x3e89ba9a	0.26900178
107	0xbdf55f36	-0.11981051
108	0xbe728a48	-0.23685563
109	0xbea39d4f	-0.31955954
110	0x3ea846d9	0.32866552
111	0x3a51fa5d	0.00080100243
112	0xbc6f8bd3	-0.014620739
113	0x3d162860	0.0366596
114	0xbe88ed7a	-0.2674368
115	0xbeb78110	-0.35840654
116	0x3ebaeba1	0.36507896
117	0xbdcaab3e	-0.09895943
118	0xbb5edaa4	-0.0034004832
119	0x3e328433	0.17433242
120	0x3e96aed9	0.29430273
121	0x3d68d656	0.05684503
122	0x3e8fce80	0.28087234
123	0x3d31c6da	0.04340253
124	0xbe0de002	-0.13854983
125	0x3e80254c	0.25028455
126	0xbe43a5d2	-0.19106224
127	0x3de43218	0.11142367
128	0xbd537110	-0.051621497
129	0xbd9d8ae8	-0.0769251
130	0xbec0cb3a	-0.3765505
131	0xbe8cdc0e	-0.27511638
132	0x3d7a9520	0.061177373
133	0xbc3ead37	-0.011637977
134	0x3e7d5915	0.24741013
135	0xbe213e0b	-0.15746324
136	0x3e9983b8	0.29983306
137	0x3e59cd37	0.2126969
138	0x3e50a181	0.20374109
139	0x3ec15326	0.3775875
140	0xbe8d0c7d	-0.2754859
141	0xbdc93510	-0.09824574
142	0xbcf5b6a0	-0.029994309
143	0x3d8a1efc	0.06744191
144	0xbe32e7f9	-0.17471303
145	0xbe7ba391	-0.24574114
146	0xbe97387f	-0.2953529
147	0xbd3010f0	-0.042984903
148	0x3e894aa8	0.2681477
149	0xbeb81a69	-0.3595765
150	0x3e4a18ff	0.19736098
151	0xbdc196f3	-0.094526194
152	0x3e9c7c27	0.3056347
153	0xbcdf6c6f	-0.027273385
154	0xbcc2b590	-0.023768216
155	0x3de0de28	0.10979873
156	0x3cb5e700	0.022204876
157	0xbea4817b	-0.32130036
158	0x3eb5d3c5	0.3551313
159	0x3e1a20b6	0.1505154
160	0xbe51ec34	-0.2050026
161	0x3e4598b5	0.19296534
162	0x3e87a64c	0.26494062
163	0x3e94c74b	0.29058298
164	0x3e84c33f	0.2593021
165	0x3e170fe7	0.1475216
166	0xbdcb78fc	-0.09935185
167	0x3dfd957c	0.123820275
168	0x3d066740	0.03281331
169	0xbeaafb13	-0.3339468
170	0x3eaacbd7	0.33358642
171	0xbc400aa0	-0.011721283
172	0xbe761aa6	-0.24033603
173	0xbdac4294	-0.08411136
174	0xbeaebfc2	-0.34130675
175	0x3ea4fc6c	0.32223833
176	0xbe627db1	-0.2211826
177	0xbeb6484c	-0.35602033
178	0xbe87ba51	-0.26509336
179	0xbc2ab8b1	-0.01042001
180	0x3e988af5	0.29793516
181	0x3e297c7e	0.16551396
182	0xbe8bbe85	-0.27293792
183	0x3e6017a4	0.21884018
184	0x3dfe3319	0.1241209
185	0xbeaaa76b	-0.33330855
186	0x3e8336ac	0.2562765
187	0x3d3a759c	0.045522317
188	0xbe3321f5	-0.17493422
189	0x3e581798	0.2110275
190	0xbe4b9603	-0.19881444
191	0x3dee90e9	0.11648733
192	0x3dc6f9d7	0.09715622
193	0x3e6b0737	0.22951971
194	0x3e7e282e	0.24820015
195	0xbd9eafc0	-0.077483654
196	0xbe4a0119	-0.19726981
197	0xbd8cfb90	-0.06883919
198	0xbe765a20	-0.24057817
199	0x3e97a55c	0.29618347
200	0xbe8bc897	-0.27301475
201	0xbe83551a	-0.25650865
202	0xbd5cd79c	-0.05391656
203	0x3e339e4d	0.17540856
204	0x3ea06b27	0.3133175
205	0x3e4f8cf3	0.20268612
206	0xbeb6d0ce	-0.3570618
207	0xbe37e907	-0.17959987
208	0xbdd977fc	-0.10618588
209	0xbeacd4b8	-0.33756042
210	0xbe0fce2f	-0.14043497
211	0x3db59c3e	0.088676915
212	0x3e2569ef	0.16153692
213	0x3e8a0fbd	0.26965132
214	0xbea4ad11	-0.3216329
215	0x3e3422db	0.17591421
216	0xbd962a82	-0.073323265
217	0xbeab5eca	-0.33470756
218	0xbec0970d	-0.37615243
219	0x3dd04d5c	0.10171005
220	0xbe58035e	-0.21095034
221	0x3e961da7	0.29319498
222	0xbd81c1c4	-0.06335786
223	0xbe39bb1a	-0.1813778
224	0xbe20843d	-0.15675445
225	0xbde1d824	-0.11027554
226	0xbe4e037c	-0.20118517
227	0xbe01d1ec	-0.12677735
228	0xbd9846bc	-0.074353665
229	0x3e1d90b2	0.15387228
230	0xbeaa7050	-0.33288813
231	0x3e9c92d7	0.3058078
232	0xbeab9345	-0.33510795
233	0xbe66dce0	-0.22545195
234	0xbc93a0b0	-0.018020958
235	0xbd4137ec	-0.047172472
236	0x3d2f8439	0.042850707
237	0xbeb72ab5	-0.3577477
238	0xbd5bd877	-0.053673234
239	0x3eb40b27	0.3516476
240	0xbd9f752a	-0.07786019
241	0xbe15017c	-0.14551347
242	0x3de80601	0.1132927
243	0x3e834dbd	0.25645247
244	0x3d2b97c7	0.041892793
245	0xbe77e085	-0.24206741
246	0xbe4658b6	-0.19369778
247	0xbdf5164d	-0.11967144
248	0x3e2a7064	0.16644436
249	0xbd9d2382	-0.07672788
250	0xbdf030a5	-0.11728028
251	0x3ea97c2d	0.3310255
252	0xbdfb733f	-0.12277841
253	0xbe191f7e	-0.1495342
254	0xbe0a2243	-0.13489632
255	0x3e705988	0.23471653

lin1.0.bias f4 [1700]
0	0xbe291468	-0.1651169
1	0x3e7fdeb1	0.24987294
2	0x3e80fc99	0.25192717
3	0xbeaaad98	-0.33335567
4	0x3eab332d	0.33437482
5	0x3e9fa345	0.31179252
6	0xbe40078a	-0.18752876
7	0xbe0a9013	-0.13531522
8	0xbeaa8eb6	-0.33312005
9	0xbc96f2f2	-0.018426392
10	0xbe8e6006	-0.27807635
11	0x3e2da764	0.16958386
12	0x3e853654	0.26018012
13	0xbd214fdd	-0.039382804
14	0x3ead9a19	0.3390663
15	0xbb2aa08d	-0.0026035637
16	0xbe86050d	-0.26175728
17	0x3e31a155	0.173467
18	0xbe55029f	-0.20801781
19	0xbd94584e	-0.07243405
20	0xbe99e54e	-0.30057758
21	0xbe7831d7	-0.24237762
22	0xbebd9fac	-0.37035882
23	0x3e93744d	0.28799668
24	0x3be526c0	0.0069931448
25	0x3cb9f4b6	0.022699695
26	0x3db625cf	0.0889393
27	0xbc96f058	-0.018425152
28	0xbe53002b	-0.20605533
29	0x3eaadf51	0.33373502
30	0x3e582259	0.21106853
31	0xbe76130b	-0.24030702
32	0xbebc4fac	-0.36779535
33	0x3e7a2bf4	0.2443083
34	0x3cda5a55	0.026654402
35	0x3de6d0ea	0.11270316
36	0x3e31907c	0.17340273
37	0x3e940e76	0.28917283
38	0x3ea27ea4	0.31737244
39	0x3e749d7a	0.23888198
40	0xbd678c10	-0.05653006
41	0x3e8fe458	0.281039
42	0x3e0fb5dd	0.14034219
43	0xbe375042	-0.1790171
44	0xbdab4c53	-0.08364167
45	0x3e918715	0.28423372
46	0x3e8e16df	0.27751824
47	0xbe6ac85b	-0.22927992
48	0xbea4c3d3	-0.32180652
49	0x3e36e6bf	0.1786146
50	0xbe4489a0	-0.19193125
51	0xbe3ecb1d	-0.18632169
52	0xbec0d977	-0.37665913
53	0xbeb8a1ba	-0.36060888
54	0xbe7e3249	-0.2482387
55	0x3e520960	0.20511389
56	0xbe609889	-0.21933188
57	0xbeaf089a	-0.3418625
58	0x3d9345fa	0.07191081
59	0xbeb04d78	-0.34434104
60	0x3dc4ab17	0.09602945
61	0x3e12450e	0.14284155
62	0xbea8e6dc	-0.32988632
63	0x3e0ec4cd	0.13942261
64	0xbd3c29bf	-0.04593825
65	0xbe94149e	-0.2892198
66	0x3d95ffaa	0.07324155
67	0x3e2cacec	0.1686284
68	0xbde2dff0	-0.11077869
69	0x3e45249e	0.1925225
70	0x3c3da61b	0.011575247
71	0x3d8ae5b9	0.06782097
72	0x3db1b558	0.08677167
73	0x3e5d81d1	0.21631552
74	0x3e292d1d	0.16521116
75	0xbe5b1562	-0.21394876
76	0x3de5a9fe	0.11214064
77	0xbe9ed0d0	-0.31018686
78	0xbda68eaa	-0.0813268
79	0x3d9b3631	0.075786956
80	0xbe1e44a1	-0.15455867
81	0xbc18dda3	-0.009330186
82	0x3e9e35dc	0.30900466
83	0xbdcc5748	-0.09977585
84	0x3ebadd79	0.36497095
85	0xbdea711c	-0.11447355
86	0xbea2cffd	-0.31799307
87	0xbdd62dd8	-0.10457963
88	0x3e165713	0.14681654
89	0x3ebc5a33	0.36787567
90	0xbe0e6e42	-0.13909248
91	0xbd4ff06a	-0.050766386
92	0x3d7d7636	0.061880313
93	0x3e1d70cf	0.15375064
94	0xbebd8329	-0.3701413
95	0x3d5a1d13	0.053250384
96	0xbdb5ed44	-0.088831455
97	0x3e990ff0	0.29894972
98	0xbde53467	-0.111916356
99	0xbe355dde	-0.17711589
100	0xbdf3bdc8	-0.11901432
101	0xbddbcacb	-0.10732039
102	0x3eb2aa7d	0.34895697
103	0x3e7252bf	0.23664378
104	0x3d989006	0.07449345
105	0x3dddeea3	0.10836532
106	0xbdd01ef4	-0.10162154
107	0xbea4bc3f	-0.3217487
108	0xbe348663	-0.1762939
109	0xbe1ec9f3	-0.15506725
110	0x3e574650	0.21022916
111	0xbd2769ce	-0.040872388
112	0xbea1cd6a	-0.3160203
113	0x3e831703	0.25603494
114	0x3d468c00	0.04847336
115	0xbe8ad32b	-0.27114233
116	0x3ea030aa	0.31287128
117	0x3cd4d2b5	0.02597938
118	0x3db0dae1	0.08635498
119	0x3c4ac1a0	0.012375265
120	0xbe879bc2	-0.2648602
121	0x3eb8cf8e	0.36095852
122	0x3cad89a0	0.021183789
123	0xbcdd0d00	-0.026983738
124	0x3e994a7e	0.29939646
125	0x3e604d22	0.21904424
126	0x3d79a716	0.06095036
127	0x3e1cc535	0.15309604
128	0xbd7c985a	-0.06166873
129	0xbd34b68b	-0.0441194
130	0xbd7fa877	-0.06241652
131	0xbd8b6008	-0.06805426
132	0xbe4483b0	-0.1919086
133	0x3eae037d	0.33987036
134	0xbac58c3e	-0.0015071703
135	0x3e57bde3	0.2106853
136	0xbe35fd39	-0.17772378
137	0x3d282d54	0.041058853
138	0xbe48b7b3	-0.19601326
139	0xbea7dc7e	-0.3278541
140	0xbd2fdea1	-0.042936925
141	0xbe3ff23c	-0.18744749
142	0xbebc5c7b	-0.36789307
143	0x3e893d8e	0.26804775
144	0xbea2abc7	-0.3177168
145	0x3e27b851	0.16378905
146	0xbe4e9479	-0.20173825
147	0x3e1ffb88	0.15623295
148	0x3b8ae380	0.004238546
149	0x3e3ede49	0.18639483
150	0xbe47aba2	-0.19499066
151	0xbe8ff5b6	-0.2811715
152	0xbebd9363	-0.3702651
153	0x3e716387	0.23573123
154	0x3e44e185	0.19226654
155	0x3e878194	0.26466048
156	0x3d01bcf3	0.031674337
157	0xbebd6fe8	-0.3699944
158	0x3d05f6b8	0.032705992
159	0xbeb07d65	-0.34470668
160	0xbead280b	-0.33819613
161	0x3ea6a389	0.32546642
162	0x3da71228	0.0815776
163	0x3e00d478	0.1258105
164	0xbe6d1578	-0.23152721
165	0x3eac17d4	0.3361193
166	0x3e96bad1	0.29439405
167	0x3ea07a7e	0.31343454
168	0xbdc55e1f	-0.09637093
169	0xbe1482ab	-0.14502971
170	0x3e4c8698	0.19973218
171	0x3e11861c	0.14211315
172	0x3ea167c7	0.31524488
173	0x3eb2c8ec	0.34918916
174	0x3e7b6827	0.2455145
175	0xbe947f72	-0.29003483
176	0xbe772abc	-0.24137396
177	0x3eb6163b	0.35563836
178	0xbebc69a5	-0.3679935
179	0xbe191199	-0.14948119
180	0x3e1a1c6c	0.15049905
181	0x3d984c53	0.07436433
182	0x3ddc1966	0.10747032
183	0x3dcd666c	0.10029301
184	0x3e92fbad	0.28707638
185	0xbeaa0cc4	-0.33212864
186	0xbe7c3546	-0.24629697
187	0xbea533f7	-0.3226621
188	0x3e198b21	0.1499448
189	0x3eba78a0	0.36420155
190	0x3d66a6e7	0.056311514
191	0x3e06f5d3	0.13179712
192	0xbd99e782	-0.0751486
193	0xbd115828	-0.035484463
194	0x3e7668b5	0.2406338
195	0xbc694772	-0.014238225
196	0x3ea4138b	0.3204616
197	0xbdcdc7ac	-0.1004785
198	0xbde15600	-0.11002731
199	0xbeaf8f3b	-0.34288964
200	0xbea009ff	-0.31257626
201	0xbe7742e1	-0.24146606
202	0x3d2d4c70	0.042309225
203	0x3e9b3097	0.3031051
204	0x3e969fc7	0.29418775
205	0xbd46f700	-0.0485754
206	0xbe28baa6	-0.1647745
207	0x3e5e553f	0.21712206
208	0xbebde4df	-0.37088677
209	0x3e3913fb	0.18074028
210	0xbd7f1fe0	-0.062286258
211	0x3e3986fe	0.18117902
212	0xbdba4fe8	-0.09097272
213	0x3e808a40	0.25105476
214	0xbdfcb5da	-0.12339373
215	0x3d8d1f24	0.06890705
216	0x3ebbd296	0.36684102
217	0xbca335bf	-0.01992309
218	0x3e84917f	0.25892255
219	0x3e2271b1	0.15863682
220	0x3e897da9	0.26853684
221	0xbd49b0d8	-0.049240917
222	0xbea5b560	-0.3236494
223	0x3e5e60aa	0.21716562
224	0x38ba14e6	8.873064e-05
225	0x3d9a6c18	0.075401485
226	0xbe4f8303	-0.20264821
227	0xbe31f191	-0.17377307
228	0xbea103a1	-0.3144808
229	0x3e8d39f8	0.2758329
230	0x3e559aa4	0.20859772
231	0x3ec0c78a	0.37652236
232	0x3e69b0fa	0.22821417
233	0x3df43ade	0.119252905
234	0xbda757df	-0.08171057
235	0x3c1bd195	0.0095104175
236	0x3d5ece10	0.054395735
237	0xbeaa70af	-0.33289096
238	0x3d7de666	0.061987303
239	0xbd1b9490	-0.037983477
240	0x3ec227a8	0.3792088
241	0xbe300bbc	-0.17191976
242	0xbe145906	-0.14487085
243	0x3e009755	0.12557729
244	0x3f11731c	0.5681627
245	0xbe2831a1	-0.16425182
246	0xbe83fe3d	-0.25779906
247	0x3e27cb2d	0.16386099
248	0x3e5b51cb	0.2141792
249	0xbe39f32d	-0.1815917
250	0xbe0acdf8	-0.13555133
251	0x3e7c80e8	0.24658549
252	0x3eaed577	0.34147236
253	0x3ec0c69a	0.3765152
254	0x3ea04024	0.31298935
255	0xbe211714	-0.1573146

lin2.0.weight f4 [5000, 7]
0	0xbdca85f8	-0.09888834
1	0x3d22c040	0.039734125
2	0xbe921373	-0.28530464
3	0xbd3355f8	-0.043783158
4	0xbd721ec8	-0.059111387
5	0x3ea517af	0.32244632
6	0xbe85fd00	-0.26169586
7	0xbe311071	-0.17291428
8	0x3e80df91	0.25170568
9	0xbdfc294b	-0.123125635
10	0xbebf4b37	-0.37362072
11	0xbe105ac5	-0.14097126
12	0xbde0140d	-0.109413244
13	0x3e87521c	0.26429832
14	0x3e3ba6ee	0.18325397
15	0x3e337a8e	0.1752722
16	0x3dde7d8c	0.1086379
17	0x3e69188e	0.22763273
18	0x3e454c5e	0.19267413
19	0xbe12f90d	-0.14352818
20	0xbe21eec1	-0.15813734
21	0x3dea6779	0.11445517
22	0x3d01f456	0.031727158
23	0xbe61a676	-0.22036156
24	0xbe96eb37	-0.2947633
25	0x3e730bbb	0.23734944
26	0x3ca45e0a	0.020064373
27	0xbe9ee403	-0.31033334
28	0xbe0080de	-0.12549159
29	0x3e711a15	0.23545106
30	0x3ea7103f	0.32629582
31	0x3d516dc0	0.051130056
32	0xbe9ac674	-0.30229533
33	0xbeb086c6	-0.34477824
34	0x3e1f5a3e	0.15561768
35	0x3e586ac9	0.21134485
36	0xbe8ee863	-0.27911672
37	0xbe802ecb	-0.250357
38	0x3e70f806	0.23532113
39	0xbc8d1573	-0.017222142
40	0x3e9ad0ad	0.30237332
41	0x3d658c84	0.05604221
42	0xbe1fab25	-0.1559263
43	0xbe0ca61d	-0.13735242
44	0x3d65d440	0.05611062
45	0xbd728e98	-0.05921802
46	0x3db30828	0.0874179
47	0xbe4ef83a	-0.20211878
48	0xbe42fd79	-0.19042005
49	0x3d8ec568	0.06971246
50	0x3ea2086b	0.31647047
51	0x3eaa15be	0.33219713
52	0xbd522290	-0.051302493
53	0x3e4ea4ed	0.20180102
54	0xbdee8ad7	-0.11647575
55	0xbe230058	-0.159181
56	0xbde99609	-0.1140557
57	0x3e188d7a	0.14897719
58	0x3e00513f	0.12530993
59	0xbe1dc1df	-0.15405987
60	0xbe3f991e	-0.18710753
61	0x3eb22394	0.3479277
62	0x3b903b4b	0.0044015995
63	0x3d262040	0.0405581
64	0xbd88cb3f	-0.06679391
65	0xbd3c8615	-0.046026308
66	0xbeb2a42a	-0.34890872
67	0xbd2307e2	-0.03980244
68	0x3eac21d7	0.33619568
69	0x3e3cc403	0.18434148
70	0xbe988e46	-0.29796046
71	0x3e024932	0.12723234
72	0xbec0b05e	-0.37634557
73	0xbd8c8ca8	-0.068627656
74	0x3d89a814	0.067215115
75	0xbd3e4e70	-0.046461523
76	0xbeaffeec	-0.34374177
77	0x3eaf4015	0.34228578
78	0x3e866dd9	0.26255682
79	0x3e647bd4	0.22312862
80	0xbe3f6897	-0.18692242
81	0x3c6eb6be	0.014569936
82	0x3da3e537	0.08002704
83	0x3e2a134a	0.1660892
84	0xbe273f42	-0.16332725
85	0xbd1c6820	-0.03818524
86	0xbe531d9d	-0.20616765
87	0xbcc45f70	-0.02397129
88	0xbd606ec0	-0.05479312
89	0xbd1080a0	-0.035278916
90	0x3da48ac4	0.0803428
91	0x3e7fc4cf	0.2497742
92	0x3e5b354e	0.21407053
93	0x3e946581	0.2898369
94	0xbe4ba4f8	-0.1988715
95	0x3e81c252	0.25343567
96	0x3d006f87	0.03135636
97	0xbe3e74e2	-0.18599275
98	0xbebc7c78	-0.36813712
99	0xbeae52ec	-0.3404764
100	0xbeb1c180	-0.3471794
101	0xbd152ca0	-0.03641951
102	0x3e6fb886	0.23410234
103	0xbe8addd6	-0.27122372
104	0xbe96a4a1	-0.29422477
105	0x3e1f9ada	0.15586415
106	0xbdff35cc	-0.12461433
107	0xbe908675	-0.28227583
108	0x3deffd60	0.11718249
109	0x3db42aac	0.087972015
110	0xbe4240ed	-0.1897008
111	0xbea44ca7	-0.3208973
112	0xbd95782f	-0.07298314
113	0xbe003bea	-0.12522855
114	0xbe82f4a5	-0.25577274
115	0x3e89531d	0.26821223
116	0x3d19b41c	0.03752528
117	0x3ebade76	0.3649785
118	0xbd1a341d	-0.037647355
119	0xbda0227c	-0.078190774
120	0x3d84aaed	0.06477914
121	0x3dea8009	0.11450202
122	0xbd9e50fc	-0.0773029
123	0xbe184567	-0.14870225
124	0xbe576201	-0.2103348
125	0xbd4fdadd	-0.050745834
126	0xbe67a21e	-0.22620437
127	0x3ec17c53	0.37790164
128	0x3dc6df68	0.0971058
129	0x3ea39b80	0.31954575
130	0x3e538ff0	0.20660377
131	0xbe7bcaaf	-0.24589036
132	0x3e986952	0.29767853
133	0x3e77d5b8	0.24202621
134	0xbcb17959	-0.021664308
135	0xbe98d4e6	-0.2984993
136	0xbaaa067b	-0.0012971902
137	0x3ea98970	0.3311267
138	0x3df82f42	0.12118389
139	0x3e985c6c	0.29758012
140	0x3e317523	0.1732984
141	0xbdb80713	-0.08985724
142	0x3eb1718c	0.34656942
143	0xbe4e1fad	-0.20129271
144	0xbeaa6a77	-0.3328435
145	0x3eb1dc10	0.34738207
146	0xbdb99e61	-0.090634115
147	0xbb072317	-0.002062028
148	0x3e1b25e2	0.1515117
149	0x3e5bcef1	0.2146566
150	0xbe42ae9e	-0.19011924
151	0xbe9b7790	-0.30364656
152	0x3da4c43a	0.0804524
153	0x3db9a514	0.09064689
154	0x3e50acba	0.2037839
155	0xbeb71548	-0.35758424
156	0xbd5ca7b0	-0.053870857
157	0xbe442e23	-0.19158225
158	0xbe840828	-0.25787473
159	0xbeb4ca66	-0.35310668
160	0x3d6cc5c8	0.057805806
161	0xbeae46f0	-0.34038496
162	0xbe94714f	-0.28992698
163	0x3e95acbd	0.2923335
164	0x3e60bbfe	0.21946713
165	0xbdadeee8	-0.084928334
166	0xbea72d85	-0.32651916
167	0xbe319eaf	-0.17345689
168	0xbe8e9e84	-0.27855313
169	0xbeae5314	-0.3404776
170	0xbeb0cca3	-0.34531125
171	0x3ea27c11	0.3173528
172	0x3cd1d665	0.025614927
173	0xbe94b8de	-0.29047292
174	0x3de504ef	0.11182582
175	0xbebcd064	-0.3687774
176	0x3e8604e0	0.26175594
177	0x3ea113dd	0.31460467
178	0x3daca167	0.084292226
179	0x3e2533b7	0.16133009
180	0x3d863bc7	0.065543704
181	0x3e988422	0.2978831
182	0xbde4d597	-0.111735515
183	0xbeba2c58	-0.36361957
184	0xbc74ae09	-0.014934071
185	0x3e5b48cf	0.21414493
186	0xbe954be1	-0.29159454
187	0xbdecb758	-0.115584075
188	0xbd2b3763	-0.041800868
189	0xbeafef13	-0.34362087
190	0xbe648796	-0.22317347
191	0x3de0ec3f	0.1098256
192	0xbe5a5e94	-0.21325141
193	0xbe899be1	-0.2687674
194	0x3ec12892	0.37726265
195	0xbeb5c98d	-0.35505334
196	0x3e8337b6	0.25628442
197	0xbbae4e0b	-0.005319362
198	0xbeb051d9	-0.34437445
199	0xbd9a1b0b	-0.07524689
200	0x3d05dada	0.032679416
201	0xbe16b105	-0.14715965
202	0x3eac1c71	0.3361545
203	0xbd95556f	-0.07291686
204	0x3ec1d5df	0.37858483
205	0xbe291f4b	-0.16515844
206	0x3d88a503	0.066720985
207	0xbe3e6f1d	-0.18597074
208	0x3e850559	0.25980642
209	0x3e5fa4d5	0.21840222
210	0x3e8e0903	0.2774125
211	0xbe39644a	-0.18104663
212	0x3e9f2a66	0.31087035
213	0x3e86bd58	0.26316333
214	0xbb995e34	-0.0046804193
215	0xbd262635	-0.04056378
216	0xbe6b0451	-0.22950865
217	0x3d9b762c	0.07590899
218	0x3e700baa	0.2344195
219	0xbebd3824	-0.36956894
220	0x3e7f1c9c	0.24913257
221	0xbcc8bc2e	-0.024503794
222	0xbdfef110	-0.12448323
223	0xbdc527be	-0.09626721
224	0xbe9db558	-0.30802417
225	0xbe4c499b	-0.19949953
226	0x3eb7cc6c	0.3589815
227	0xbe140007	-0.14453135
228	0x3e2124f6	0.15736756
229	0x3c7781d0	0.015106633
230	0x3df52e17	0.119716816
231	0xbe98961c	-0.29802024
232	0x3daaf34c	0.083471864
233	0x3e1281a4	0.14307266
234	0xbda83c82	-0.08214666
235	0xbe56d1fb	-0.20978539
236	0x3dc4658e	0.095896825
237	0xbe863ca4	-0.2621814
238	0xbe96b1a6	-0.2943241
239	0x3e4a9bcb	0.19785993
240	0xbda603c2	-0.081061855
241	0x3e04e717	0.12978779
242	0x3eb1a6b9	0.34697512
243	0x3e5441a5	0.20728166
244	0xbe96484d	-0.29352036
245	0x3e721764	0.23641735
246	0x3e9c2087	0.30493566
247	0xbe6bd058	-0.23028696
248	0x3cfa3989	0.030545013
249	0x3e1c1cbe	0.1524534
250	0x3e94f307	0.29091665
251	0x3dcae691	0.09907258
252	0x3dee7f70	0.116454005
253	0x3e8335cc	0.2562698
254	0x3eae3d47	0.34031126
255	0xbe5e589c	-0.2171349

lin2.0.bias f4 [5000]
0	0xbcd09380	-0.025460958
1	0xbe537e3d	-0.20653625
2	0xbe9d5a97	-0.30733177
3	0x3e23b4ef	0.1598699
4	0x3e431b41	0.19053365
5	0xbe724ed8	-0.23662889
6	0xbcc62880	-0.024189234
7	0xbe542e29	-0.20720734
8	0x3e694a30	0.22782207
9	0xbe60028d	-0.21875973
10	0x3e661ff6	0.2247313
11	0x3e941106	0.28919238
12	0xbe00db0c	-0.1258356
13	0xbe60a8df	-0.21939419
14	0xbe1a560e	-0.1507189
15	0x3e3cb6aa	0.18429056
16	0xbdd709dd	-0.10499928
17	0x3ea74236	0.32667702
18	0x3ea21768	0.31658483
19	0x3e04ba7c	0.12961763
20	0x3eb46afe	0.3523788
21	0xbe76da48	-0.24106705
22	0xbebee40e	-0.37283367
23	0xbe9cf1e5	-0.306533
24	0xbe2173c7	-0.15766822
25	0x3ea74e08	0.3267672
26	0x3eb305af	0.34965274
27	0x3ea01f1b	0.31273732
28	0x3e6bfe47	0.23046218
29	0xbde8f833	-0.11375465
30	0x3e104312	0.14088085
31	0xbd0dc967	-0.0346159
32	0x3e0f7bef	0.1401212
33	0x3eadf446	0.33975428
34	0x3e98a202	0.29811102
35	0xbebca574	-0.3684498
36	0x3ec117c3	0.3771344
37	0x3e7e3b03	0.24827199
38	0xbe902518	-0.281533
39	0xbdb55553	-0.08854165
40	0x3ebb7f02	0.36620337
41	0x3e8302ce	0.25588077
42	0x3d4567f6	0.048194848
43	0x3d189678	0.037252873
44	0x3df2d7ab	0.11857542
45	0x3eb32278	0.34987235
46	0xbe190e3f	-0.1494684
47	0xbec02cee	-0.3753428
48	0x3bc85100	0.0061131716
49	0xbdd0487a	-0.10170074
50	0xbe2a0a11	-0.16605403
51	0xbe9323a8	-0.2873814
52	0x3eb12268	0.34596562
53	0xbea2187a	-0.316593
54	0x3e48d8b8	0.19613922
55	0xbe14128e	-0.14460203
56	0xbba57623	-0.0050494834
57	0x3e8efdeb	0.279281
58	0xbe3ab9dc	-0.18234962
59	0xbdb9dd6a	-0.090754345
60	0xbe98bafd	-0.2983016
61	0xbdf675b8	-0.12034172
62	0x3e215632	0.15755537
63	0x3ea8c03c	0.32959163
64	0x3e5468cd	0.20743103
65	0x3e7a3395	0.2443374
66	0xbdcd4db0	-0.10024583
67	0xbe193e6e	-0.14965221
68	0x3e917d1b	0.2841576
69	0x3ec48d59	0.3838909
70	0xbda592a8	-0.08084613
71	0x3e8e5fa1	0.27807334
72	0xbe788dca	-0.24272838
73	0xbe839eb1	-0.2570701
74	0xbe9748b0	-0.29547644
75	0x3d90dd4c	0.07073459
76	0xbe42c17b	-0.1901912
77	0x3d48e683	0.049047958
78	0xbe18381e	-0.14865157
79	0x3e152fd0	0.1456902
80	0xbcab6f87	-0.020927204
81	0xbe28f301	-0.16498949
82	0x3d5d2a55	0.05399545
83	0xbe71f303	-0.23627858
84	0xbeb25604	-0.3483125
85	0xbe954b01	-0.29158786
86	0x3ea4a6de	0.3215856
87	0xbe2963d5	-0.16541989
88	0xbe465fe3	-0.19372515
89	0xbe6dc3ba	-0.23219195
90	0x3e9a7a87	0.30171606
91	0xbea385c8	-0.31938004
92	0xbd1dd921	-0.03853715
93	0xbebf0638	-0.37309432
94	0x3de3bc81	0.11119939
95	0xbe21a93c	-0.15787214
96	0xbe98b8e5	-0.29828563
97	0x3e70351c	0.2345776
98	0xbd9a146c	-0.075234264
99	0x3d649816	0.055809103
100	0x3e38e0e5	0.1805454
101	0x3ccd0828	0.025028303
102	0xbe77a9c3	-0.24185853
103	0xbdc22422	-0.09479548
104	0x3e91b63e	0.28459352
105	0x3e0e146e	0.13874981
106	0x3e3b3c79	0.18284787
107	0xbe55be2f	-0.2087333
108	0x3e33de2a	0.17565218
109	0xbe20164c	-0.15633506
110	0xbe9d48ec	-0.30719697
111	0x3e9970ab	0.2996877
112	0x3e0915c8	0.13387215
113	0xbea84eb2	-0.3287254
114	0xbe2d83ef	-0.1694486
115	0x3e01903f	0.12652682
116	0xbeabb7b2	-0.33538586
117	0x3e1098c5	0.14120777
118	0xbe1a3f5c	-0.15063232
119	0x3e52a72b	0.20571582
120	0x3eaaed38	0.3338411
121	0x3c8e352d	0.01735934
122	0x3b12691a	0.0022340477
123	0x3e5e03be	0.21681115
124	0x3dc92806	0.09822087
125	0x3c5bafd6	0.013408622
126	0xbe4c4913	-0.1994975
127	0xbdaceacb	-0.08443221
128	0xbdce96a2	-0.10087325
129	0x3eac86e9	0.33696678
130	0xbe21b6dd	-0.15792413
131	0xbeb3a5bf	-0.35087392
132	0xbeb4b155	-0.35291544
133	0x3ea1d0a3	0.3160449
134	0x3d42a9a8	0.047525078
135	0xbcdd73ee	-0.027032819
136	0xbc9135b3	-0.017725801
137	0xbea128a8	-0.3147633
138	0x3eb444a6	0.35208625
139	0x3e703c4c	0.23460501
140	0xbeb91a31	-0.36152795
141	0x3e77b073	0.24188404
142	0xbe92bfb6	-0.2866189
143	0xbd1f9f2e	-0.038970165
144	0x3cc793e5	0.024362514
145	0x3e50f139	0.20404519
146	0x3d6e8daf	0.05824059
147	0xbd231c93	-0.039822172
148	0x3d27ed6a	0.0409979
149	0x3da0db9c	0.07854387
150	0x3e90a3f1	0.28250077
151	0xbeae5dd3	-0.34055957
152	0x3e9b9a0d	0.3039097
153	0x3ebc3868	0.36761785
154	0xbe64e7ea	-0.22354093
155	0x3d0a25ef	0.033727583
156	0x3e283e2c	0.16429967
157	0x3d147cd0	0.036251843
158	0xbe9b05a6	-0.30277747
159	0x3e0c8d59	0.13725795
160	0xbd971a70	-0.073780894
161	0x3e4d9910	0.2007792
162	0x3e42e889	0.19034018
163	0xbdde023e	-0.108402714
164	0xbe4d15cb	-0.20027845
165	0x3e9b8323	0.30373487
166	0xbea7fe6d	-0.328113
167	0xbd58ee60	-0.052961707
168	0x3e224b18	0.15848958
169	0xbe8abb48	-0.2709601
170	0xbd293be8	-0.041316897
171	0xbdbdf226	-0.09274702
172	0xbe73363d	-0.23751159
173	0x3e9db56d	0.3080248
174	0x3ec39359	0.38198355
175	0x3e24be4b	0.16088216
176	0xbd9db799	-0.07701034
177	0x3eb1a069	0.34692696
178	0xbe23b3e2	-0.15986589
179	0x3c0ebc09	0.008711823
180	0xbebac505	-0.3647844
181	0x3e5cfffc	0.21582025
182	0x3d187aea	0.037226595
183	0xbd162b4b	-0.03666238
184	0xbebc2bca	-0.36752158
185	0x3dd33827	0.103134446
186	0xbe631555	-0.22176106
187	0x3dcbf45f	0.099587195
188	0x3e2c1fd7	0.16809021
189	0x3d5856a9	0.05281702
190	0xbe3b3fbb	-0.1828603
191	0xbebc1f89	-0.3674281
192	0xbd510d08	-0.05103782
193	0xbe9201dc	-0.28517044
194	0xbc9ca570	-0.019121855
195	0x3e34be07	0.17650615
196	0xbeab8413	-0.33499202
197	0x3e243b03	0.16038136
198	0x3e94f269	0.29091194
199	0xbeb64cd3	-0.35605487
200	0xbea2024a	-0.3164237
201	0x3e08ed34	0.13371736
202	0xbeb320d0	-0.3498597
203	0x3e9679d6	0.29389828
204	0xbdaa0778	-0.08302206
205	0xbdac1c0d	-0.08403788
206	0xbda95108	-0.082674086
207	0xbe94f2c7	-0.29091474
208	0x3d9d168c	0.07670316
209	0x3e8083b1	0.25100473
210	0x3e5df68d	0.21676083
211	0xbe9ede54	-0.31028998
212	0xbe23b765	-0.15987928
213	0x3e99cb36	0.3003785
214	0x3c8241be	0.015900489
215	0x3e9cd187	0.30628607
216	0xbe7a424a	-0.2443935
217	0xbdba380f	-0.090927236
218	0xbdd3a648	-0.1033445
219	0x3d1c1497	0.038105574
220	0xbd7a9c65	-0.061184306
221	0xbdb60750	-0.088881135
222	0x3e583386	0.21113405
223	0x3e5cd72a	0.21566454
224	0xbeb8cdb2	-0.36094433
225	0xbe79a8ff	-0.24380873
226	0xbe22a7f4	-0.15884382
227	0x3ea1c66b	0.31596693
228	0x3db209c4	0.08693269
229	0x3e8762fc	0.26442707
230	0xbd40e368	-0.04709187
231	0xbdb75d09	-0.08953292
232	0xbe0a44f0	-0.1350286
233	0xbd3eb5c6	-0.04656007
234	0xbddbf89d	-0.107407786
235	0x3e954e63	0.29161367
236	0xbe771c17	-0.24131809
237	0x3e308de9	0.17241634
238	0x3e9c7c42	0.3056355
239	0xbe2df892	-0.16989353
240	0x3e94c673	0.29057655
241	0xbe47f597	-0.19527279
242	0x3d038ef9	0.03211877
243	0xbd580958	-0.052743286
244	0xbe51b1b3	-0.20477943
245	0x3eb6f695	0.35735002
246	0x3da37b4b	0.07982501
247	0xbe811fc3	-0.25219545
248	0xbdfafccd	-0.12255249
249	0xbdf348fc	-0.11879155
250	0x3e3e75b4	0.18599588
251	0xbeaec922	-0.34137827
252	0x3e268329	0.16260971
253	0x3ca73393	0.020410335
254	0xbe5daeb3	-0.21648674
255	0x3eaf06e3	0.34184942

conv1.root f4 [17, 100]
0	0xbe4a080f	-0.19729637
1	0xbcaf1a6a	-0.0213749
2	0xbe0f5145	-0.13995846
3	0x3d90fdbf	0.07079648
4	0xbb69175d	-0.0035566904
5	0xbe728107	-0.23682033
6	0xbe2dbde4	-0.16966969
7	0xbe368169	-0.17822804
8	0xbe47f3af	-0.19526552
9	0x3e230fb1	0.15923955
10	0xbd5025a8	-0.05081716
11	0x3e3f8b8a	0.18705574
12	0xbe40b266	-0.18818054
13	0x3e488c3e	0.19584748
14	0xbe0c1403	-0.13679509
15	0x3c703648	0.014661379
16	0x3e40afb5	0.18817027
17	0x3cc00db8	0.023444042
18	0xbe5dd7e3	-0.21664385
19	0x3e4dac13	0.20085172
20	0x3df84292	0.12122072
21	0x3d5572c4	0.052111402
22	0xbe38dd0d	-0.18053074
23	0xbcfe86de	-0.031070169
24	0x3e673e0c	0.22582263
25	0x3e0ff246	0.14057264
26	0xbe2ca4b5	-0.16859706
27	0x3d90a936	0.070635244
28	0x3d8097cb	0.06278952
29	0x3dd2a071	0.10284508
30	0xbe026728	-0.12734663
31	0x3dbf0824	0.093277246
32	0xbc0d5d83	-0.008628252
33	0x3d9924d8	0.074777305
34	0x3e79b9c7	0.24387275
35	0xbe420c1b	-0.1894993
36	0x3d75a85c	0.059975013
37	0xbe3b9856	-0.1831983
38	0xbd085b10	-0.03328997
39	0xbda098e2	-0.0784166
40	0xbe2b06d4	-0.16701823
41	0x3df06ce1	0.11739517
42	0xbe6fa625	-0.23403223
43	0xbe4afc22	-0.19822744
44	0x3e099f33	0.13439636
45	0x3ccae484	0.024767168
46	0xbbfece9b	-0.007776094
47	0x3e505f79	0.2034892
48	0x3c510376	0.012757173
49	0x3d8c4e63	0.068508886
50	0x3eab824e	0.33497852
51	0xbdb33831	-0.08750952
52	0x3e621485	0.2207814
53	0xbd489ede	-0.048979633
54	0x3caeda65	0.021344373
55	0xbe486023	-0.19567923
56	0xbe170f5d	-0.14751954
57	0x3d6e1ec3	0.058134805
58	0xbe1b66cc	-0.15175933
59	0xbe194e2e	-0.1497123
60	0x3df5cc51	0.12001861
61	0xbee4f014	-0.44714415
62	0x3e189712	0.14901379
63	0x3d792645	0.060827512
64	0xbe377a97	-0.17917858
65	0xbee2387b	-0.44183716
66	0xbe0fa3eb	-0.14027373
67	0x3d8d7c0b	0.06908425
68	0xbdcd9046	-0.100372836
69	0xbda4f513	-0.08054557
70	0x3d803846	0.06260733
71	0xbd8bca51	-0.06825698
72	0xbe59bfcf	-0.21264575
73	0x3e74041f	0.23829697
74	0x3e621cc4	0.22081286
75	0xbd09f6ad	-0.033682514
76	0x3c2694ac	0.010167282
77	0xbdf8ebc9	-0.121543474
78	0x3e52b6a0	0.20577478
79	0xbdf78c1c	-0.120872706
80	0xbe5988e8	-0.21243632
81	0x3d85844b	0.065193735
82	0xbcca65ad	-0.024706686
83	0xbdea692f	-0.114458434
84	0x3d9076d6	0.07053916
85	0x3d41ffe4	0.047363177
86	0x3e72bb4e	0.23704264
87	0x3da89ee8	0.08233434
88	0xbce065d0	-0.027392298
89	0x3cd289e4	0.025700517
90	0x3dacb62e	0.084331855
91	0xbe1cf8c6	-0.15329275
92	0xbe08c99b	-0.13358156
93	0xbcc202e4	-0.023683019
94	0xbe497ca7	-0.19676457
95	0xbd1c12b5	-0.038103778
96	0x3e5a8016	0.21337923
97	0x3ba98c85	0.005174222
98	0x3dc4b0ca	0.09604032
99	0x3ccf4a11	0.025303872
100	0x3e3553a4	0.17707688
101	0xbd374fb8	-0.04475376
102	0xbda808f7	-0.08204835
103	0x3e2c138b	0.1680433
104	0xbe3c8b9d	-0.18412633
105	0x3c055b94	0.00813951
106	0xbe02bb79	-0.12766828
107	0x3f2b7a55	0.6698354
108	0x3df7bd1e	0.12096618
109	0xbdee658a	-0.11640461
110	0xbe7a7abe	-0.24460885
111	0x3c0942df	0.00837776
112	0x3e1e36ba	0.15450564
113	0x3d4358b3	0.047692012
114	0x3df14c6a	0.11782153
115	0xbd80740d	-0.06272135
116	0x3e3f2723	0.18667273
117	0x3b12fa49	0.0022427014
118	0x3d3d1495	0.046162207
119	0x3d5c5599	0.05379257
120	0x3e5c97c0	0.21542263
121	0x3d6d3fd7	0.05792221
122	0x3e1fc33b	0.15601818
123	0xbe133c4c	-0.1437847
124	0xbcf1494f	-0.029453902
125	0xbd1319a3	-0.03591312
126	0x3e0369cd	0.12833329
127	0xbcb088ac	-0.021549545
128	0xbcda4ac5	-0.026646981
129	0xbda1a624	-0.07893017
130	0xbe11fde1	-0.14257003
131	0x3decd24a	0.11563547
132	0xbe6b7a8b	-0.22995965
133	0x3df7b56a	0.12095149
134	0x3df592d1	0.11990894
135	0x3dd77ef9	0.10522265
136	0x3d62af4e	0.055342965
137	0xbe05428d	-0.13013668
138	0xbce0760e	-0.027400043
139	0x3cfa3430	0.030542463
140	0xbd54a491	-0.051914755
141	0x3da8d3cd	0.08243523
142	0x3dfda6d0	0.123853326
143	0x3d637928	0.055535465
144	0xbe6b0794	-0.2295211
145	0xbe094d69	-0.13408436
146	0x3dfd7759	0.123762794
147	0xbf822619	-1.0167876
148	0xbdd0b8cc	-0.10191497
149	0xbc470bdb	-0.012148823
150	0xbe4bd734	-0.19906312
151	0x3aa0e0ba	0.0012274005
152	0x3d26eead	0.040754963
153	0x3da56748	0.0807634
154	0xbe6bc1ba	-0.2302312
155	0x3dd80131	0.10547102
156	0x3e5b69c9	0.21427073
157	0x3d95d3d2	0.07315792
158	0x3d74b033	0.05973835
159	0x3ce60de7	0.028082801
160	0xbe03500a	-0.12823501
161	0xbbc979c1	-0.0061485474
162	0x3e5a2976	0.21304879
163	0xbe62cca0	-0.2214837
164	0x3e65a1fd	0.22425075
165	0x3eef0d40	0.46689796
166	0x3d0f4bf7	0.034984555
167	0x3e46fd73	0.1943262
168	0x3e511250	0.20417142
169	0xbcf6d976	-0.03013299
170	0x3d1a81b6	0.03772136
171	0xbe675361	-0.225904
172	0xbdb72198	-0.089419544
173	0x3e61d6a2	0.22054532
174	0x3d114bb1	0.035472576
175	0xbe1dfa12	-0.15427426
176	0xbe248a62	-0.16068414
177	0xbcb11095	-0.021614352
178	0x3d6a1d6f	0.057156976
179	0xbd0d4924	-0.03449358
180	0xbe0a9407	-0.1353303
181	0xbe76a252	-0.24085358
182	0x3e1d7878	0.15377986
183	0xbe6fdfe1	-0.23425247
184	0xbe11378d	-0.14181347
185	0xbde2f4b5	-0.110818304
186	0xbe6979bc	-0.22800344
187	0x3de2d293	0.1107532
188	0x3d4feeb2	0.050764747
189	0xbdbe30cb	-0.0928665
190	0x3e08fe16	0.13378176
191	0x3c5afd8c	0.013366114
192	0xbe58cf41	-0.21172811
193	0xbca1c07c	-0.019745104
194	0x3e416c40	0.1888895
195	0xbd8cdbd0	-0.068778634
196	0xbe415110	-0.18878579
197	0x3e397b83	0.18113522
198	0xbd492103	-0.049103748
199	0xbe333db2	-0.17504004
200	0x3c8d5da0	0.017256558
201	0x3e42e677	0.19033228
202	0xbe5112bb	-0.20417301
203	0x3e6b3a18	0.2297138
204	0xbe542042	-0.2071543
205	0x3d5adc56	0.053432785
206	0xbdcba213	-0.099430226
207	0xbe5a8288	-0.21338856
208	0xbd2c15f5	-0.042013127
209	0x3e4eba79	0.20188321
210	0x3e1601ea	0.14649168
211	0xbe062120	-0.13098574
212	0x3e21ece6	0.15813026
213	0xbe6d26b7	-0.231593
214	0x3cc7b678	0.024379
215	0xbe0790ed	-0.13238879
216	0x3dc9334c	0.09824237
217	0xbe5d8d77	-0.21635996
218	0xbe483bbf	-0.19554041
219	0x3e144942	0.1448107
220	0x3cc1772d	0.023616398
221	0x3e1219b9	0.14267625
222	0x3dcd1a08	0.10014731
223	0xbdfa77f3	-0.1222991
224	0xbdaf6cba	-0.0856566
225	0xbd2a0ad9	-0.04151425
226	0xbe005d16	-0.1253551
227	0x3e26d252	0.16291168
228	0x3e61cfc3	0.22051911
229	0xbccf0744	-0.02527202
230	0xbdeda76a	-0.11604197
231	0xbe11db50	-0.14243817
232	0xbe09a17f	-0.13440512
233	0x3e7532ae	0.23945114
234	0xbe2bdbdf	-0.16783093
235	0x3e344db6	0.1760777
236	0xbe66aee7	-0.22527657
237	0x3e023ab1	0.12717701
238	0x3d599f33	0.05313034
239	0x3e21c47e	0.15797612
240	0x3e325d02	0.17418292
241	0x3e108c15	0.14115937
242	0xbe415d19	-0.1888317
243	0x3d482eb6	0.048872672
244	0x3e95b4db	0.29239544
245	0xbe5a832c	-0.213391
246	0xbe31b659	-0.17354716
247	0x3e180220	0.1484456
248	0x3d7262d8	0.059176296
249	0x3da5aafe	0.08089255
250	0xbeba74cd	-0.36417237
251	0xbd346f35	-0.044051368
252	0xbe20e5e8	-0.15712702
253	0x3e104a42	0.14090827
254	0xbd71fb3f	-0.059077498
255	0xbe20a1e7	-0.15686761

conv1.bias f4 [100]
0	0xbe5ef513	-0.21773176
1	0x3df6967e	0.12040423
2	0xbe58f5d0	-0.2118752
3	0x3e5470a0	0.20746088
4	0x3e1eacc6	0.15495595
5	0xbe3d3ef4	-0.18481046
6	0x3e84cfa4	0.25939667
7	0x3e4f500e	0.20245382
8	0x3e64fc79	0.22361936
9	0xbda87456	-0.08225314
10	0x3d820c93	0.063500546
11	0x3e520f65	0.20513685
12	0x3d85150a	0.064981535
13	0xbdc5af2b	-0.09652551
14	0x3cb233eb	0.021753272
15	0xbe491095	-0.19635232
16	0x3d96fb8c	0.073721975
17	0x3e37a8de	0.17935511
18	0xbdeec7cd	-0.11659203
19	0x3e1161d0	0.14197469
20	0x3dcd32b0	0.100194335
21	0xbdce8a6c	-0.100849956
22	0xbd85979e	-0.06523059
23	0x3ddbd8b8	0.10734695
24	0xbe62f88b	-0.22165124
25	0x3e2bf8f0	0.16794181
26	0x3e2bbba2	0.16770795
27	0x3e09ea9b	0.13468401
28	0xbd0ceed4	-0.03440745
29	0x3e47b7e5	0.19503744
30	0x3e22dbea	0.15904203
31	0x3ddea53d	0.108713605
32	0xbdd024bd	-0.10163257
33	0xbe0e2230	-0.13880229
34	0x3e2f113b	0.17096417
35	0x3e04f67a	0.12984648
36	0x3e817bb4	0.2528969
37	0xbddbb852	-0.10728516
38	0xbe365eb1	-0.1780956
39	0xbe4e5fc5	-0.2015372
40	0x3d46fdbd	0.048581827
41	0x3e5253a1	0.20539714
42	0xbe140d67	-0.14458238
43	0xbd33faaf	-0.043940242
44	0x3e8cc49b	0.27493748
45	0xbdf5c981	-0.120013244
46	0x3e4de1c6	0.20105657
47	0x3de7be57	0.11315601
48	0xbfbba097	-1.4658383
49	0xbcdf26a2	-0.027240101
50	0x3ec9a7e5	0.39385906
51	0xbe4f924f	-0.20270656
52	0x3df07810	0.1174165
53	0xbddc9a04	-0.10771564
54	0xbd61c8cc	-0.055123135
55	0xbde70bed	-0.112815715
56	0x3e5a961a	0.21346322
57	0xbc7608b0	-0.01501672
58	0xbea3b45a	-0.31973535
59	0x3ddf5ea0	0.1090672
60	0x3d512081	0.05105639
61	0x3ea2c9cc	0.31794584
62	0xbe659e3b	-0.22423641
63	0xbe511966	-0.20419845
64	0x3d43e0ab	0.047821682
65	0x3e515bc0	0.20445156
66	0xbd33f493	-0.043934416
67	0x3d8a3de8	0.06750089
68	0x3dc2d48d	0.09513197
69	0x3d848f54	0.0647265
70	0xbe31a814	-0.17349273
71	0x3e582c1e	0.2111058
72	0x3e2635dd	0.16231485
73	0x3f3637d0	0.71178913
74	0x3e51eece	0.20501253
75	0xbd432c80	-0.04764986
76	0x3e241636	0.16024098
77	0xbd887306	-0.06662564
78	0x3e16a1ec	0.14710206
79	0x3d3ebfef	0.04656976
80	0x3e076153	0.1322072
81	0xbdd4bdd3	-0.103877686
82	0x3e5dcf0c	0.21661013
83	0xbec5c657	-0.38627884
84	0xbdf89bfb	-0.12139126
85	0x3e4c9bd8	0.19981325
86	0x3e340a43	0.1758204
87	0x3e1d818d	0.15381451
88	0xbdd20d37	-0.10256427
89	0x3a2e6b82	0.0006653593
90	0x3d5a9e93	0.053373884
91	0x3d2e4bc5	0.04255273
92	0xbda0d316	-0.078527614
93	0x3df2dd16	0.11858575
94	0x3db1da88	0.0868426
95	0xbd3ff62f	-0.04686564
96	0x3ba239c6	0.004950735
97	0x3e3e0f5a	0.18560544
98	0xbe72bd9a	-0.2370514
99	0x3d09b735	0.033621985

conv1.nn.0.weight f4 [1700, 7]
0	0xbe392645	-0.18081005
1	0x3e823a73	0.25435218
2	0xbe9caf68	-0.30602574
3	0x3ebf265d	0.37333956
4	0xbe3456ee	-0.17611286
5	0x3e7f1fba	0.24914446
6	0xbea2cf71	-0.3179889
7	0xbc9a19b6	-0.018811088
8	0x3e5de97e	0.21671101
9	0xbdd4d459	-0.103920646
10	0xbe8b0f90	-0.2716031
11	0xbec7dafa	-0.39034253
12	0x3e1cae65	0.15300901
13	0xbe6a4492	-0.2287772
14	0x3eadce5b	0.339465
15	0xbdd730d0	-0.10507357
16	0x3e0f53ac	0.13996762
17	0x3e2c7f4a	0.16845432
18	0x3d325db6	0.0435464
19	0xbe374d76	-0.17900643
20	0x3e968b7a	0.29403287
21	0xbdc0163d	-0.093792416
22	0x3e48345b	0.19551222
23	0x3e00a6aa	0.12563577
24	0xbd813603	-0.0630913
25	0x3e8f2a8b	0.27962145
26	0x3dbbcaff	0.09169578
27	0x3e1813d8	0.1485132
28	0x3e99057e	0.29887003
29	0x3d0d759e	0.034535997
30	0xbe2bf944	-0.16794306
31	0x3e949a3d	0.29023924
32	0xbe1c5bb2	-0.15269354
33	0xbe0e72e4	-0.13911015
34	0x3e0a9bcf	0.13535999
35	0xbda5b16c	-0.08090481
36	0xbe81e3bd	-0.25369063
37	0x3ea131a3	0.31483182
38	0x3e709848	0.2349559
39	0x3eab4924	0.3345424
40	0xbea29798	-0.31756282
41	0xbe7e853f	-0.24855517
42	0xbeb5163c	-0.35368526
43	0x3e6724ea	0.22572675
44	0x3c794960	0.015215248
45	0x3e85a15c	0.2609967
46	0x3ea7e738	0.32793593
47	0xbe7b0631	-0.2451408
48	0xbe377556	-0.17915854
49	0x3e6e4d88	0.23271763
50	0x3e85cf06	0.2613451
51	0xbe360a4d	-0.17777367
52	0xbe8ad98d	-0.27119103
53	0xbe08fce2	-0.13377717
54	0xbe0874d9	-0.13325824
55	0xbda4561d	-0.08024237
56	0x3d6fe318	0.058566183
57	0x3dc5ca74	0.096577555
58	0x3d9e01b0	0.077151656
59	0x3ebfee01	0.3748627
60	0xbe244c34	-0.16044694
61	0xbba5a680	-0.0050552487
62	0xbe2611a2	-0.16217664
63	0xbeafa501	-0.34305575
64	0x3e081fda	0.132934
65	0x3e6597f9	0.22421254
66	0x3e82cead	0.25548306
67	0x3ea5a488	0.3235209
68	0xbe9c0d1d	-0.30478755
69	0xbe97cfc2	-0.29650694
70	0xbe9d6887	-0.3074381
71	0xbea802dd	-0.32814685
72	0xbe4f74e9	-0.20259441
73	0x3e8111e4	0.25208962
74	0x3e844d50	0.25840235
75	0xbad85cfe	-0.0016507206
76	0xbe521ee2	-0.20519593
77	0x3dc081c9	0.093997546
78	0xbe260088	-0.1621114
79	0xbe5eca21	-0.21756794
80	0x3d7f7b36	0.062373362
81	0xbe611bc8	-0.21983254
82	0x3dffc974	0.12489596
83	0xbe8a591a	-0.27021104
84	0xbd8a60a1	-0.06756712
85	0x3e0f3cfe	0.1398811
86	0x3e545260	0.20734549
87	0x3e628a0a	0.2212297
88	0xbeb51dfd	-0.35374442
89	0xbea7a975	-0.32746473
90	0x3e639d1b	0.222279
91	0xbe9d9b8f	-0.30782744
92	0x3cad4010	0.021148711
93	0x3e26df93	0.16296224
94	0x3eb768a2	0.35822016
95	0xbe8f9a20	-0.28047276
96	0x3e9828d3	0.29718646
97	0xbe33586e	-0.17514202
98	0x3ec18682	0.37797934
99	0xbe91f912	-0.28510338
100	0x3dd5564a	0.10416849
101	0x3ea409f2	0.32038838
102	0xbe80bb93	-0.25143108
103	0xbda18faf	-0.078887336
104	0xbd38944c	-0.045063302
105	0xbeac5add	-0.33663073
106	0x3e89ba9a	0.26900178
107	0xbdf55f36	-0.11981051
108	0xbe728a48	-0.23685563
109	0xbea39d4f	-0.31955954
110	0x3ea846d9	0.32866552
111	0x3a51fa5d	0.00080100243
112	0xbc6f8bd3	-0.014620739
113	0x3d162860	0.0366596
114	0xbe88ed7a	-0.2674368
115	0xbeb78110	-0.35840654
116	0x3ebaeba1	0.36507896
117	0xbdcaab3e	-0.09895943
118	0xbb5edaa4	-0.0034004832
119	0x3e328433	0.17433242
120	0x3e96aed9	0.29430273
121	0x3d68d656	0.05684503
122	0x3e8fce80	0.28087234
123	0x3d31c6da	0.04340253
124	0xbe0de002	-0.13854983
125	0x3e80254c	0.25028455
126	0xbe43a5d2	-0.19106224
127	0x3de43218	0.11142367
128	0xbd537110	-0.051621497
129	0xbd9d8ae8	-0.0769251
130	0xbec0cb3a	-0.3765505
131	0xbe8cdc0e	-0.27511638
132	0x3d7a9520	0.061177373
133	0xbc3ead37	-0.011637977
134	0x3e7d5915	0.24741013
135	0xbe213e0b	-0.15746324
136	0x3e9983b8	0.29983306
137	0x3e59cd37	0.2126969
138	0x3e50a181	0.20374109
139	0x3ec15326	0.3775875
140	0xbe8d0c7d	-0.2754859
141	0xbdc93510	-0.09824574
142	0xbcf5b6a0	-0.029994309
143	0x3d8a1efc	0.06744191
144	0xbe32e7f9	-0.17471303
145	0xbe7ba391	-0.24574114
146	0xbe97387f	-0.2953529
147	0xbd3010f0	-0.042984903
148	0x3e894aa8	0.2681477
149	0xbeb81a69	-0.3595765
150	0x3e4a18ff	0.19736098
151	0xbdc196f3	-0.094526194
152	0x3e9c7c27	0.3056347
153	0xbcdf6c6f	-0.027273385
154	0xbcc2b590	-0.023768216
155	0x3de0de28	0.10979873
156	0x3cb5e700	0.022204876
157	0xbea4817b	-0.32130036
158	0x3eb5d3c5	0.3551313
159	0x3e1a20b6	0.1505154
160	0xbe51ec34	-0.2050026
161	0x3e4598b5	0.19296534
162	0x3e87a64c	0.26494062
163	0x3e94c74b	0.29058298
164	0x3e84c33f	0.2593021
165	0x3e170fe7	0.1475216
166	0xbdcb78fc	-0.09935185
167	0x3dfd957c	0.123820275
168	0x3d066740	0.03281331
169	0xbeaafb13	-0.3339468
170	0x3eaacbd7	0.33358642
171	0xbc400aa0	-0.011721283
172	0xbe761aa6	-0.24033603
173	0xbdac4294	-0.08411136
174	0xbeaebfc2	-0.34130675
175	0x3ea4fc6c	0.32223833
176	0xbe627db1	-0.2211826
177	0xbeb6484c	-0.35602033
178	0xbe87ba51	-0.26509336
179	0xbc2ab8b1	-0.01042001
180	0x3e988af5	0.29793516
181	0x3e297c7e	0.16551396
182	0xbe8bbe85	-0.27293792
183	0x3e6017a4	0.21884018
184	0x3dfe3319	0.1241209
185	0xbeaaa76b	-0.33330855
186	0x3e8336ac	0.2562765
187	0x3d3a759c	0.045522317
188	0xbe3321f5	-0.17493422
189	0x3e581798	0.2110275
190	0xbe4b9603	-0.19881444
191	0x3dee90e9	0.11648733
192	0x3dc6f9d7	0.09715622
193	0x3e6b0737	0.22951971
194	0x3e7e282e	0.24820015
195	0xbd9eafc0	-0.077483654
196	0xbe4a0119	-0.19726981
197	0xbd8cfb90	-0.06883919
198	0xbe765a20	-0.24057817
199	0x3e97a55c	0.29618347
200	0xbe8bc897	-0.27301475
201	0xbe83551a	-0.25650865
202	0xbd5cd79c	-0.05391656
203	0x3e339e4d	0.17540856
204	0x3ea06b27	0.3133175
205	0x3e4f8cf3	0.20268612
206	0xbeb6d0ce	-0.3570618
207	0xbe37e907	-0.17959987
208	0xbdd977fc	-0.10618588
209	0xbeacd4b8	-0.33756042
210	0xbe0fce2f	-0.14043497
211	0x3db59c3e	0.088676915
212	0x3e2569ef	0.16153692
213	0x3e8a0fbd	0.26965132
214	0xbea4ad11	-0.3216329
215	0x3e3422db	0.17591421
216	0xbd962a82	-0.073323265
217	0xbeab5eca	-0.33470756
218	0xbec0970d	-0.37615243
219	0x3dd04d5c	0.10171005
220	0xbe58035e	-0.21095034
221	0x3e961da7	0.29319498
222	0xbd81c1c4	-0.06335786
223	0xbe39bb1a	-0.1813778
224	0xbe20843d	-0.15675445
225	0xbde1d824	-0.11027554
226	0xbe4e037c	-0.20118517
227	0xbe01d1ec	-0.12677735
228	0xbd9846bc	-0.074353665
229	0x3e1d90b2	0.15387228
230	0xbeaa7050	-0.33288813
231	0x3e9c92d7	0.3058078
232	0xbeab9345	-0.33510795
233	0xbe66dce0	-0.22545195
234	0xbc93a0b0	-0.018020958
235	0xbd4137ec	-0.047172472
236	0x3d2f8439	0.042850707
237	0xbeb72ab5	-0.3577477
238	0xbd5bd877	-0.053673234
239	0x3eb40b27	0.3516476
240	0xbd9f752a	-0.07786019
241	0xbe15017c	-0.14551347
242	0x3de80601	0.1132927
243	0x3e834dbd	0.25645247
244	0x3d2b97c7	0.041892793
245	0xbe77e085	-0.24206741
246	0xbe4658b6	-0.19369778
247	0xbdf5164d	-0.11967144
248	0x3e2a7064	0.16644436
249	0xbd9d2382	-0.07672788
250	0xbdf030a5	-0.11728028
251	0x3ea97c2d	0.3310255
252	0xbdfb733f	-0.12277841
253	0xbe191f7e	-0.1495342
254	0xbe0a2243	-0.13489632
255	0x3e705988	0.23471653

conv1.nn.0.bias f4 [1700]
0	0xbe291468	-0.1651169
1	0x3e7fdeb1	0.24987294
2	0x3e80fc99	0.25192717
3	0xbeaaad98	-0.33335567
4	0x3eab332d	0.33437482
5	0x3e9fa345	0.31179252
6	0xbe40078a	-0.18752876
7	0xbe0a9013	-0.13531522
8	0xbeaa8eb6	-0.33312005
9	0xbc96f2f2	-0.018426392
10	0xbe8e6006	-0.27807635
11	0x3e2da764	0.16958386
12	0x3e853654	0.26018012
13	0xbd214fdd	-0.039382804
14	0x3ead9a19	0.3390663
15	0xbb2aa08d	-0.0026035637
16	0xbe86050d	-0.26175728
17	0x3e31a155	0.173467
18	0xbe55029f	-0.20801781
19	0xbd94584e	-0.07243405
20	0xbe99e54e	-0.30057758
21	0xbe7831d7	-0.24237762
22	0xbebd9fac	-0.37035882
23	0x3e93744d	0.28799668
24	0x3be526c0	0.0069931448
25	0x3cb9f4b6	0.022699695
26	0x3db625cf	0.0889393
27	0xbc96f058	-0.018425152
28	0xbe53002b	-0.20605533
29	0x3eaadf51	0.33373502
30	0x3e582259	0.21106853
31	0xbe76130b	-0.24030702
32	0xbebc4fac	-0.36779535
33	0x3e7a2bf4	0.2443083
34	0x3cda5a55	0.026654402
35	0x3de6d0ea	0.11270316
36	0x3e31907c	0.17340273
37	0x3e940e76	0.28917283
38	0x3ea27ea4	0.31737244
39	0x3e749d7a	0.23888198
40	0xbd678c10	-0.05653006
41	0x3e8fe458	0.281039
42	0x3e0fb5dd	0.14034219
43	0xbe375042	-0.1790171
44	0xbdab4c53	-0.08364167
45	0x3e918715	0.28423372
46	0x3e8e16df	0.27751824
47	0xbe6ac85b	-0.22927992
48	0xbea4c3d3	-0.32180652
49	0x3e36e6bf	0.1786146
50	0xbe4489a0	-0.19193125
51	0xbe3ecb1d	-0.18632169
52	0xbec0d977	-0.37665913
53	0xbeb8a1ba	-0.36060888
54	0xbe7e3249	-0.2482387
55	0x3e520960	0.20511389
56	0xbe609889	-0.21933188
57	0xbeaf089a	-0.3418625
58	0x3d9345fa	0.07191081
59	0xbeb04d78	-0.34434104
60	0x3dc4ab17	0.09602945
61	0x3e12450e	0.14284155
62	0xbea8e6dc	-0.32988632
63	0x3e0ec4cd	0.13942261
64	0xbd3c29bf	-0.04593825
65	0xbe94149e	-0.2892198
66	0x3d95ffaa	0.07324155
67	0x3e2cacec	0.1686284
68	0xbde2dff0	-0.11077869
69	0x3e45249e	0.1925225
70	0x3c3da61b	0.011575247
71	0x3d8ae5b9	0.06782097
72	0x3db1b558	0.08677167
73	0x3e5d81d1	0.21631552
74	0x3e292d1d	0.16521116
75	0xbe5b1562	-0.21394876
76	0x3de5a9fe	0.11214064
77	0xbe9ed0d0	-0.31018686
78	0xbda68eaa	-0.0813268
79	0x3d9b3631	0.075786956
80	0xbe1e44a1	-0.15455867
81	0xbc18dda3	-0.009330186
82	0x3e9e35dc	0.30900466
83	0xbdcc5748	-0.09977585
84	0x3ebadd79	0.36497095
85	0xbdea711c	-0.11447355
86	0xbea2cffd	-0.31799307
87	0xbdd62dd8	-0.10457963
88	0x3e165713	0.14681654
89	0x3ebc5a33	0.36787567
90	0xbe0e6e42	-0.13909248
91	0xbd4ff06a	-0.050766386
92	0x3d7d7636	0.061880313
93	0x3e1d70cf	0.15375064
94	0xbebd8329	-0.3701413
95	0x3d5a1d13	0.053250384
96	0xbdb5ed44	-0.088831455
97	0x3e990ff0	0.29894972
98	0xbde53467	-0.111916356
99	0xbe355dde	-0.17711589
100	0xbdf3bdc8	-0.11901432
101	0xbddbcacb	-0.10732039
102	0x3eb2aa7d	0.34895697
103	0x3e7252bf	0.23664378
104	0x3d989006	0.07449345
105	0x3dddeea3	0.10836532
106	0xbdd01ef4	-0.10162154
107	0xbea4bc3f	-0.3217487
108	0xbe348663	-0.1762939
109	0xbe1ec9f3	-0.15506725
110	0x3e574650	0.21022916
111	0xbd2769ce	-0.040872388
112	0xbea1cd6a	-0.3160203
113	0x3e831703	0.25603494
114	0x3d468c00	0.04847336
115	0xbe8ad32b	-0.27114233
116	0x3ea030aa	0.31287128
117	0x3cd4d2b5	0.02597938
118	0x3db0dae1	0.08635498
119	0x3c4ac1a0	0.012375265
120	0xbe879bc2	-0.2648602
121	0x3eb8cf8e	0.36095852
122	0x3cad89a0	0.021183789
123	0xbcdd0d00	-0.026983738
124	0x3e994a7e	0.29939646
125	0x3e604d22	0.21904424
126	0x3d79a716	0.06095036
127	0x3e1cc535	0.15309604
128	0xbd7c985a	-0.06166873
129	0xbd34b68b	-0.0441194
130	0xbd7fa877	-0.06241652
131	0xbd8b6008	-0.06805426
132	0xbe4483b0	-0.1919086
133	0x3eae037d	0.33987036
134	0xbac58c3e	-0.0015071703
135	0x3e57bde3	0.2106853
136	0xbe35fd39	-0.17772378
137	0x3d282d54	0.041058853
138	0xbe48b7b3	-0.19601326
139	0xbea7dc7e	-0.3278541
140	0xbd2fdea1	-0.042936925
141	0xbe3ff23c	-0.18744749
142	0xbebc5c7b	-0.36789307
143	0x3e893d8e	0.26804775
144	0xbea2abc7	-0.3177168
145	0x3e27b851	0.16378905
146	0xbe4e9479	-0.20173825
147	0x3e1ffb88	0.15623295
148	0x3b8ae380	0.004238546
149	0x3e3ede49	0.18639483
150	0xbe47aba2	-0.19499066
151	0xbe8ff5b6	-0.2811715
152	0xbebd9363	-0.3702651
153	0x3e716387	0.23573123
154	0x3e44e185	0.19226654
155	0x3e878194	0.26466048
156	0x3d01bcf3	0.031674337
157	0xbebd6fe8	-0.3699944
158	0x3d05f6b8	0.032705992
159	0xbeb07d65	-0.34470668
160	0xbead280b	-0.33819613
161	0x3ea6a389	0.32546642
162	0x3da71228	0.0815776
163	0x3e00d478	0.1258105
164	0xbe6d1578	-0.23152721
165	0x3eac17d4	0.3361193
166	0x3e96bad1	0.29439405
167	0x3ea07a7e	0.31343454
168	0xbdc55e1f	-0.09637093
169	0xbe1482ab	-0.14502971
170	0x3e4c8698	0.19973218
171	0x3e11861c	0.14211315
172	0x3ea167c7	0.31524488
173	0x3eb2c8ec	0.34918916
174	0x3e7b6827	0.2455145
175	0xbe947f72	-0.29003483
176	0xbe772abc	-0.24137396
177	0x3eb6163b	0.35563836
178	0xbebc69a5	-0.3679935
179	0xbe191199	-0.14948119
180	0x3e1a1c6c	0.15049905
181	0x3d984c53	0.07436433
182	0x3ddc1966	0.10747032
183	0x3dcd666c	0.10029301
184	0x3e92fbad	0.28707638
185	0xbeaa0cc4	-0.33212864
186	0xbe7c3546	-0.24629697
187	0xbea533f7	-0.3226621
188	0x3e198b21	0.1499448
189	0x3eba78a0	0.36420155
190	0x3d66a6e7	0.056311514
191	0x3e06f5d3	0.13179712
192	0xbd99e782	-0.0751486
193	0xbd115828	-0.035484463
194	0x3e7668b5	0.2406338
195	0xbc694772	-0.014238225
196	0x3ea4138b	0.3204616
197	0xbdcdc7ac	-0.1004785
198	0xbde15600	-0.11002731
199	0xbeaf8f3b	-0.34288964
200	0xbea009ff	-0.31257626
201	0xbe7742e1	-0.24146606
202	0x3d2d4c70	0.042309225
203	0x3e9b3097	0.3031051
204	0x3e969fc7	0.29418775
205	0xbd46f700	-0.0485754
206	0xbe28baa6	-0.1647745
207	0x3e5e553f	0.21712206
208	0xbebde4df	-0.37088677
209	0x3e3913fb	0.18074028
210	0xbd7f1fe0	-0.062286258
211	0x3e3986fe	0.18117902
212	0xbdba4fe8	-0.09097272
213	0x3e808a40	0.25105476
214	0xbdfcb5da	-0.12339373
215	0x3d8d1f24	0.06890705
216	0x3ebbd296	0.36684102
217	0xbca335bf	-0.01992309
218	0x3e84917f	0.25892255
219	0x3e2271b1	0.15863682
220	0x3e897da9	0.26853684
221	0xbd49b0d8	-0.049240917
222	0xbea5b560	-0.3236494
223	0x3e5e60aa	0.21716562
224	0x38ba14e6	8.873064e-05
225	0x3d9a6c18	0.075401485
226	0xbe4f8303	-0.20264821
227	0xbe31f191	-0.17377307
228	0xbea103a1	-0.3144808
229	0x3e8d39f8	0.2758329
230	0x3e559aa4	0.20859772
231	0x3ec0c78a	0.37652236
232	0x3e69b0fa	0.22821417
233	0x3df43ade	0.119252905
234	0xbda757df	-0.08171057
235	0x3c1bd195	0.0095104175
236	0x3d5ece10	0.054395735
237	0xbeaa70af	-0.33289096
238	0x3d7de666	0.061987303
239	0xbd1b9490	-0.037983477
240	0x3ec227a8	0.3792088
241	0xbe300bbc	-0.17191976
242	0xbe145906	-0.14487085
243	0x3e009755	0.12557729
244	0x3f11731c	0.5681627
245	0xbe2831a1	-0.16425182
246	0xbe83fe3d	-0.25779906
247	0x3e27cb2d	0.16386099
248	0x3e5b51cb	0.2141792
249	0xbe39f32d	-0.1815917
250	0xbe0acdf8	-0.13555133
251	0x3e7c80e8	0.24658549
252	0x3eaed577	0.34147236
253	0x3ec0c69a	0.3765152
254	0x3ea04024	0.31298935
255	0xbe211714	-0.1573146
