tests/test_files/graph_swan_models.pt (torch, 71395 bytes, 19 tensors)

lin0.weight f4 [10, 17]
0.05789511 0.16525827 0.20628187 -0.060087662 0.23365517 -0.18980029 0.08305055 0.2422901
0.09176972 0.100953795 0.101744235 0.15302436 0.14843301 0.020681616 0.23452547 0.11425333
-0.033033554 -0.036585473 -0.22544539 -0.19253895 0.1134608 0.0016467692 -0.15266825 -0.10239527
-0.005943745 -0.14714803 -0.055952393 -0.07376125 0.0708225 -0.13599811 0.037664313 -0.0124944495
-0.03437251 -0.042353485 -0.077814065 -0.04981535 -0.19194372 0.20067339 -0.03820642 0.23277488
-0.19671828 0.090705045 -0.10955819 -0.19010638 0.16648833 0.18796082 -0.07614706 0.12515093
0.1542122 0.24222605 -0.15133461 0.015905881 0.040164806 -0.08896306 0.1057198 0.0742654
-0.08412184 0.22322088 0.16010693 0.18393438 0.2183379 0.17917864 -0.175428 0.17046037
0.14441408 -0.060209878 0.14616697 -0.112756364 0.07144301 -0.039579425 -0.0052852235 -0.057846334
-0.17223537 0.19511814 0.06686932 -0.014394348 -0.17462227 -0.22901012 -0.19781673 0.22792423
0.02890874 0.21727885 0.098959275 0.16905034 -0.23422603 -0.11570172 0.0720324 0.01661477
0.19250223 0.15325171 0.028339772 0.055987637 0.20125514 0.07563099 -0.008045684 0.08944573
0.094901316 0.16348316 0.041879985 -0.19522896 0.15573423 -0.04625222 0.11922578 0.19843528
-0.08346515 -0.17979419 0.14490019 -0.23588045 0.035044782 -0.11943667 0.22820352 0.031957477
0.06860511 0.20090449 -0.13294184 -0.040124822 0.1961323 0.14142127 -0.024908898 -0.07597381
-0.12240823 0.03466172 0.12689029 0.041649263 -0.052891687 -0.077096626 -0.0836591 -0.03399413
-0.08333065 0.13237637 -0.2100274 -0.15469985 -0.031839397 0.050606646 -0.21692574 0.12766221
-0.19459453 -0.20408452 -0.21573146 0.16804095 -0.17434905 -0.13827018 0.009103505 -0.056854665
-0.20526026 0.11460452 -0.1423809 -0.0010969453 0.09758764 0.1354809 0.05239355 -0.22231248
-0.07194014 0.095183246 0.19306909 -0.18431602 -0.12006892 0.03866266 -0.09752307 -0.14639682
0.19481562 -0.059124094 -0.043647032 0.14711839 0.0029821796 -0.14582378 0.16465822 -0.096022196
0.113474905 -0.08324348
00000000: 6c23 6d3d 7739 293e 8e3b 533e 7b1e 76bd
00000010: 4d43 6f3e 025b 42be 6816 aa3d e51a 783e
00000020: c3f1 bb3d ddc0 ce3d 485f d03d 6bb2 1c3e
00000030: d3fe 173e 7e6c a93c 7227 703e a6fd e93d
00000040: 314e 07bd a6da 15bd 28db 66be ee28 45be
00000050: 235e e83d 68d8 d73a 1155 1cbe 9cb4 d1bd
00000060: bfc3 c2bb f9ad 16be 562e 65bd 2310 97bd
00000070: 630b 913d 1743 0bbe e545 1a3d 85b5 4cbc
00000080: 30ca 0cbd d97a 2dbd fb5c 9fbd 2e0b 4cbd
00000090: e58c 44be 537d 4d3e 567e 1cbd 8a5c 6e3e
000000a0: 8470 49be 91c3 b93d 0b60 e0bd 3fab 42be
000000b0: eb7b 2a3e cd78 403e fdf2 9bbd 9127 003e
000000c0: cee9 1d3e 1b0a 783e 76f7 1abe 0d4d 823c
000000d0: da83 243d 4432 b6bd 9f83 d83d 7518 983d
000000e0: 1248 acbd 0494 643e 12f3 233e 4b59 3c3e
000000f0: f893 5f3e 9b7a 373e 66a3 33be 2a8d 2e3e
00000100: 49e1 133e a29e 76bd cbac 153e cfec e6bd
00000110: b650 923d 091e 22bd ab2f adbb 47f0 6cbd
00000120: 785e 30be 0dcd 473e c8f2 883d 45d6 6bbc
00000130: 2ed0 32be a181 6abe 7890 4abe f864 693e
00000140: 06d2 ec3c 597e 5e3e 29ab ca3d 881b 2d3e
00000150: f3d8 6fbe 06f5 ecbd b985 933d b31b 883c
00000160: 4e1f 453e 04ee 1c3e cf28 e83c 4b53 653d
00000170: d415 4e3e 6ce4 9a3d 0bd2 03bc 532f b73d
00000180: 9f5b c23d 2168 273e 598a 2b3d 1aea 47be
00000190: cb78 1f3e f872 3dbd a52c f43d 9e32 4b3e
000001a0: c7ef aabd f81b 38be b760 143e a58a 71be
000001b0: 1e8b 0f3d 369b f4bd 2fae 693e d8e5 023d
000001c0: d680 8c3d e8b9 4d3e e821 08be ed59 24bd
000001d0: e8d6 483e bdd0 103e bf0d ccbc 2898 9bbd
000001e0: 2bb1 fabd 73f9 0d3d 87ef 013e 6b98 2a3d
000001f0: f4a4 58bd d6e4 9dbd 7655 abbd 6e3d 0bbd
00000200: 43a9 aabd ac8d 073e 6c11 57be a369 1ebe
00000210: 076a 02bd ea48 4f3d c821 5ebe e2b9 023e
00000220: ca43 47be 88fb 50be b5e8 5cbe ed12 2c3e
00000230: 8f88 32be b396 0dbe de26 153c 70e0 68bd
00000240: bf2f 52be c6b5 ea3d 4ccc 11be 60c7 8fba
00000250: 07dc c73d 81bb 0a3e 9e9a 563d e2a5 63be
00000260: 5a55 93bd 6fef c23d e7b3 453e 57bd 3cbe
00000270: b2e6 f5bd bd5c 1e3d 2dba c7bd 0ce9 15be
00000280: bf7d 473e 1b2c 72bd 3bc7 32bd 34a6 163e
00000290: ac70 433b d452 15be 2a9c 283e 49a7 c4bd
000002a0: 8865 e83d 8f7b aabd

lin0.bias f4 [10]
0.0200036 -0.06772447 0.1941413 0.0032653061 0.21734013 -0.11601007 -0.112421826 0.0051263305
0.15505329 -0.12001489
00000000: 97de a33c 20b3 8abd facc 463e bffe 553b
00000010: 698e 5e3e b096 edbd 6a3d e6bd c7fa a73b
00000020: 4ac6 1e3e 5eca f5bd

conv.root f4 [10, 10]
0.17913033 0.003378317 -0.08811751 -0.099286705 0.29031378 0.24972661 0.2343662 0.22093277
-0.23810376 0.14236686 -0.11912828 0.1246576 -0.0013356538 0.213812 -0.24254562 -0.30274707
0.2544504 -0.033675082 0.2862774 -0.20176522 0.008804863 0.31474286 0.036850777 -0.08724964
-0.30211052 0.15466574 0.2205795 0.09155495 0.13958897 -0.3077234 -0.27110618 -0.19755557
-0.016638197 -0.20685834 0.18301992 -0.111798465 0.04035252 0.23556688 0.0033769237 -0.23826458
-0.13902745 -0.06110186 -0.21008646 -0.1875379 0.11568415 -0.19038968 -0.30462936 0.2543794
-0.05114331 -0.2666796 -0.26285815 0.2585085 0.01699057 -0.007206762 0.10369597 0.28409195
-0.09673025 -0.102468684 0.2961523 -0.25568408 -0.037451178 0.06582259 -0.16047895 0.229012
0.12049967 -0.0054831835 0.13922028 0.18566987 0.021034636 -0.021709906 -0.13051987 -0.11808397
-0.08272875 0.09540951 0.2800952 -0.2936709 -0.18770748 -0.03245638 0.22397584 -0.09717354
-0.17801884 -0.03226079 0.1250757 0.22237983 0.25402665 -0.13279642 -0.30464432 0.23395741
-0.31544855 0.04458111 -0.15360263 -0.17990191 -0.1706504 -0.06549033 -0.11502918 -0.1871533
0.30554396 0.19978237 0.10918559 -0.10494883
00000000: f16d 373e c166 5d3b f476 b4bd d456 cbbd
00000010: 02a4 943e 55b8 7f3e b1fd 6f3e 333c 623e
00000020: 79d1 73be 9ec8 113e 87f9 f3bd 7c4c ff3d
00000030: 1b11 afba 88f1 5a3e e15d 78be aa01 9bbe
00000040: 5347 823e e2ee 09bd f492 923e 8b9b 4ebe
00000050: 4642 103c fa25 a13e d7f0 163d f0af b2bd
00000060: 3bae 9abe b260 1e3e 98df 613e 2981 bb3d
00000070: 69f0 0e3e ec8d 9dbe 6ece 8abe 024c 4abe
00000080: d44c 88bc acd2 53be 9369 3b3e 98f6 e4bd
00000090: af48 253d 7238 713e 614f 5d3b a1fb 73be
000000a0: 365d 0ebe f245 7abd e820 57be ef09 40be
000000b0: d0eb ec3d 83f5 42be 61f8 9bbe 043e 823e
000000c0: a67b 51bd 3b8a 88be 5895 86be 3a5b 843e
000000d0: cf2f 8b3c b426 ecbb 8d5e d43d 8074 913e
000000e0: 821a c6bd 1adb d1bd 46a1 973e 06e9 82be
000000f0: 6866 19bd fecd 863d 9854 24be 1f82 6a3e
00000100: 88c8 f63d 47ac b3bb c38f 0e3e 3e20 3e3e
00000110: d450 ac3c f9d8 b1bc 00a7 05be 02d6 f1bd
00000120: b16d a9bd 1066 c33d a368 8f3e 085c 96be
00000130: 6436 40be fbf0 04bd ec59 653e ec02 c7bd
00000140: 924a 36be e423 04bd d813 003e 8ab7 633e
00000150: c80f 823e c9fb 07be 57fa 9bbe 8892 6f3e
00000160: 7982 a1be af9a 363d 024a 1dbe 3538 38be
00000170: fabe 2ebe cb1f 86bd 6b94 ebbd 1da5 3fbe
00000180: 4270 9c3e c093 4c3e b29c df3d 6aef d6bd

conv.bias f4 [10]
0.0009916623 0.0017823388 -0.00011125245 -0.00050935673 -0.0024087299 0.0010186207 -0.0014132075 -0.0009419459
1.51009435e-05 0.0
00000000: aafa 813a 5e9d e93a 3450 e9b8 5a86 05ba
00000010: c8db 1dbb 3d83 853a 603b b9ba ebec 76ba
00000020: 0f5a 7d37 0000 0000

conv.nn.0.weight f4 [128, 6]
0.10734994 0.20770833 0.061096124 -0.038842823 0.0018178768 0.012306069 -0.3039552 0.30817503
-0.3455552 0.0137304105 -0.29615545 0.21419236 -0.04508087 -0.37518722 -0.39832705 0.18184662
0.08082346 -0.29561687 0.08266215 -0.0985766 0.29371026 0.38737014 -0.3987154 0.3430041
0.114348456 -0.19294836 -0.3575925 0.18684842 -0.40134043 0.31541553 -0.056929685 -0.29861656
-0.35783994 0.08446859 -0.0874626 0.14738946 -0.03545366 -0.19330679 -0.012961897 0.024803609
-0.38094768 -0.39691663 -0.018136825 0.39070976 -0.37398002 -0.0861907 -0.30795434 0.23600303
0.016970849 -0.21421091 0.10605617 0.16734937 0.19200137 0.28804132 -0.14679971 0.04567965
0.1886109 -0.36012 0.26076365 -0.041446336 -0.09800745 -0.27687615 -0.2656143 -0.051668443
0.1326503 0.21588065 -0.018029327 -0.29954672 -0.12830433 0.014440979 0.2938149 -0.12971377
0.3583677 0.20340325 0.30757442 -0.041716628 0.11583575 -0.24398814 0.3892208 -0.1753209
0.26749548 -0.25989896 -0.25969377 0.0135872625 0.3228185 0.2935615 -0.13906135 -0.016603189
-0.17154624 -0.043984298 -0.16070384 0.19265062 0.24644203 0.259071 -0.1771658 -0.16318204
0.36102238 0.11774075 -0.20811991 -0.26915595 0.16231762 0.113631785 -0.40763092 -0.33403677
-0.37095776 0.28039142 0.21148676 0.33759424 0.35977912 -0.16957034 0.07617104 -0.30640948
-0.21848369 -0.3358146 0.38923067 -0.039615173 0.07878316 -0.21149462 -0.34291592 -0.07315319
0.26567528 0.10318468 -0.08443859 0.09363873 -0.3875807 -0.15447101 -0.05001789 0.069907635
-0.15496244 -0.08580659 0.2179168 -0.123638384 0.3575313 -0.16029567 0.02314606 0.0024314427
0.19569972 0.40047976 -0.35808095 0.108845815 0.22289823 0.23235285 -0.30228123 -0.32829118
-0.3138468 0.1661017 0.25050277 -0.10369321 0.368461 -0.062595025 0.19552143 -0.14649403
-0.370404 0.15547225 -0.20112778 0.22194123 -0.32266542 0.39760196 -0.26942104 0.263169
0.3167603 -0.23100135 0.37527245 -0.30882385 0.22238876 0.32473114 0.17926882 0.27966508
0.29731873 -0.04285158 -0.29851738 0.19659483 -0.29293996 -0.33155924 0.23439017 0.115325876
0.25642473 0.33072346 -0.13745111 0.33618292 0.26875177 -0.36887515 -0.22939615 -0.0062563308
-0.05716206 -0.22679618 0.09780498 0.38618857 -0.09841157 0.21810433 -0.11290907 -0.10519798
-0.24035847 0.24115872 -0.08027259 -0.019085744 0.15023859 0.0066956375 0.2821392 -0.16837844
-0.1133433 0.22226655 0.13388292 0.14205875 -0.10190929 0.29104748 -0.17671676 -0.25702542
0.28820515 0.24784784 -0.12723455 -0.19153853 0.12238624 0.37116602 0.18722337 -0.2462299
0.14507739 -0.17316394 0.03135283 -0.22552803 0.23805575 -0.15240966 0.25244713 0.3530615
0.27458477 0.3074725 -0.319167 0.2533667 0.15970498 -0.32373828 0.029632876 -0.27469474
-0.24414529 0.029263783 -0.17872836 -0.0406931 -0.026067112 -0.3598777 -0.077958584 -0.117431745
0.22063613 -0.30878696 -0.3889325 0.06947149 0.29817283 -0.34629333 0.16728488 0.1585319
0.3730054 -0.23750415 -0.15499529 0.14088185 0.38648224 0.14082007 -0.15912811 0.19161737
00000000: 49da db3d 7eb1 543e ee3f 7a3d a719 1fbd
00000010: d345 ee3a 659f 493c 04a0 9bbe 1ec9 9d3e
00000020: 9cec b0be 84f5 603c b0a1 97be 3e55 5b3e
00000030: b8a6 38bd 8a18 c0be 86f1 cbbe 0036 3a3e
00000040: c586 a53d 185b 97be c64a a93d 87e2 c9bd
00000050: 3161 963e 6155 c63e 6d24 ccbe 3c9e af3e
00000060: 862f ea3d 4194 45be 5d16 b7be 3155 3f3e
00000070: 7e7c cdbe 257e a13e 1a2f 69bd 45e4 98be
00000080: cc36 b7be defd ac3d 971f b3bd 43ed 163e
00000090: db37 11bd 37f2 45be 235e 54bc f030 cb3c
000000a0: 930b c3be a838 cbbe ae93 94bc 1c0b c83e
000000b0: 4f7a bfbe c084 b0bd 31ac 9dbe c7aa 713e
000000c0: 7306 8b3c 1b5a 5bbe fa33 d93d a25d 2b3e
000000d0: 029c 443e 277a 933e aa52 16be 961a 3b3d
000000e0: 3723 413e a661 b8be d082 853e a2c3 29bd
000000f0: 21b8 c8bd b6c2 8dbe 99fe 87be 4aa2 53bd
00000100: 7bd5 073e d10f 5d3e 3db2 93bc 305e 99be
00000110: 3662 03be db99 6c3c e86e 963e b0d3 04be
00000120: f97b b73e f148 503e 657a 9d3e 0edf 2abd
00000130: 4b3b ed3d 07d8 79be f347 c73e 5287 33be
00000140: 2bf5 883e 7a11 85be 95f6 84be 1c9d 5e3c
00000150: 7748 a53e b14d 963e 1966 0ebe 6903 88bc
00000160: d1a9 2fbe e128 34bd 8c8f 24be 3446 453e
00000170: 4d5b 7c3e f4a4 843e f46a 35be 3119 27be
00000180: edd7 b83e 1022 f13d 631d 55be cfce 89be
00000190: 9736 263e c8b7 e83d 00b5 d0be de06 abbe
000001a0: 2dee bdbe 778f 8f3e fc8f 583e 27d9 ac3e
000001b0: f834 b83e d9a3 2dbe 90ff 9b3d b4e1 9cbe
000001c0: 30ba 5fbe e4ef abbe 3e49 c73e 8543 22bd
000001d0: 1159 a13d 0c92 58be ad92 afbe 57d1 95bd
000001e0: 9706 883e 7d52 d33d 24ee acbd aac5 bf3d
000001f0: fa70 c6be a62d 1ebe 8fdf 4cbd bc2b 8f3d
00000200: 79ae 1ebe 5ebb afbd 9525 5f3e 1f36 fdbd
00000210: 580e b73e 8c24 24be ce9c bd3c d758 1f3b
00000220: 8265 483e af0b cd3e 6356 b7be 8eea de3d
00000230: 6f3f 643e e8ed 6d3e 9bc4 9abe c815 a8be
00000240: 87b0 a0be 9016 2a3e e641 803e 1b5d d4bd
00000250: eca6 bc3e d231 80bd c536 483e 8802 16be
00000260: 98a5 bdbe 1e34 1f3e 71f4 4dbe 9044 633e
00000270: 6734 a5be 7c92 cb3e 8ef1 89be 16be 863e
00000280: 682e a23e 9e8b 6cbe b623 c03e 291e 9ebe
00000290: e1b9 633e 2943 a63e 3f92 373e 4330 8f3e
000002a0: 293a 983e 2385 2fbd 45d7 98be 2850 493e
000002b0: 3afc 95be 22c2 a9be fa03 703e f92f ec3d
000002c0: 1a4a 833e 9654 a93e fcbf 0cbe 2b20 ac3e
000002d0: d599 893e 34dd bcbe d3e6 6abe e801 cdbb
000002e0: c422 6abd 423d 68be fa4d c83d 82ba c53e
000002f0: 018c c9bd be56 5f3e df3c e7bd 0a72 d7bd
00000300: 8820 76be 50f2 763e f565 a4bd b559 9cbc
00000310: 25d8 193e 1467 db3b 8d74 903e 666b 2cbe
00000320: 8820 e8bd d899 633e 9b18 093e d977 113e
00000330: d1b5 d0bd 2d04 953e 3df5 34be d698 83be
00000340: a08f 933e d3cb 7d3e c649 02be ad22 44be
00000350: a3a5 fa3d 7909 be3e 7cb7 3f3e b123 7cbe
00000360: 2b8f 143e e351 31be d36b 003d d2f0 66be
00000370: e3c4 733e 4711 1cbe c040 813e 7ac4 b43e
00000380: 6096 8c3e 096d 9d3e db69 a3be 48b9 813e
00000390: b489 233e 06c1 a5be a5c0 f23c caa4 8cbe
000003a0: 3901 7abe 9aba ef3c 9104 37be cfad 26bd
000003b0: b28a d5bc e441 b8be c0a8 9fbd 0e80 f0bd
000003c0: 70ee 613e 5319 9ebe 2922 c7be 1247 8e3d
000003d0: 1caa 983e 5c4d b1be ba4c 2b3e 3056 223e
000003e0: 90fa be3e 4a34 73be 16b7 1ebe 5543 103e
000003f0: 00e1 c53e 2333 103e 7bf2 22be 5837 443e

conv.nn.0.bias f4 [128]
0.39977878 -0.122391805 0.14819445 0.01796615 -0.2818801 0.28011528 0.105072245 -0.3667376
-0.033036668 0.029960956 0.31015658 0.19223393 0.32334736 -0.0116693955 0.11487309 0.24347113
0.27155536 0.36555913 -0.34055847 0.20051998 -0.08119171 0.11254588 0.21602134 -0.25364393
0.16401957 0.30279383 0.31574458 0.39056852 -0.35770127 0.14569232 0.38664195 -0.2190145
0.1231794 0.038707305 0.025043901 -0.034954756 0.2627262 -0.40381584 0.15448464 -0.34782046
0.3230496 -0.10514454 -0.32342243 0.30523187 -0.061979912 -0.37596738 -0.27334282 0.33792642
-0.011056913 0.0046645803 -0.08872329 -0.2749011 0.39538988 0.2015946 0.25507262 -0.16812338
-0.30173633 0.27629438 -0.24338764 -0.14033568 -0.08487206 -0.09048102 0.21403413 0.11480521
0.04322328 -0.13772896 0.31825462 0.15883607 -0.15294828 -0.36000592 0.16348968 0.07308133
-0.28171778 0.12746193 0.009441361 0.09823107 0.074657336 0.40057102 -0.18743517 0.28947598
0.17428106 0.0865916 -0.2464088 0.34247825 -0.048847917 0.28503355 0.2446214 -0.23089813
-0.17820925 -0.26393726 -0.10412985 0.12734914 -0.33066812 0.29890725 0.19735914 0.058314778
-0.3662904 -0.18410777 -0.3038372 -0.017983204 -0.337102 -0.3117501 0.08679717 0.38545105
0.22220083 -0.1794195 -0.09030953 0.36157623 0.2709206 -0.21861807 -0.12773797 -0.18793646
-0.27786088 0.28910932 0.19903462 0.39863113 -0.13206844 -0.08339105 0.22896576 0.051017858
0.18528834 -0.27397773 0.39865002 0.3151948 -0.28062898 -0.24231777 0.03094336 -0.0053439355
00000000: ceaf cc3e 8ea8 fabd 49c0 173e bf2d 933c
00000010: 9752 90be 456b 8f3e 1e30 d73d 08c5 bbbe
00000020: 7551 07bd ae70 f53c d8cc 9e3e f9d8 443e
00000030: c98d a53e fe30 3fbc 9542 eb3d 7f50 793e
00000040: 4e09 8b3e 912a bb3e ae5d aebe 1c55 4d3e
00000050: d747 a6bd 747e e63d b334 5d3e 9edd 81be
00000060: bff4 273e cb07 9b3e 46a9 a13e 99f8 c73e
00000070: 9f24 b7be 5e30 153e eff5 c53e 5645 60be
00000080: 7b45 fc3d 8d8b 1e3d de28 cd3c b82c 0fbd
00000090: 0c84 863e f3c0 cebe 3931 1e3e 8615 b2be
000000a0: c266 a53e 0556 d7bd a097 a5be 5a47 9c3e
000000b0: a6de 7dbd cc7e c0be 97f3 8bbe b104 ad3e
000000c0: 0e28 35bc 56d9 983b 8eb4 b5bd d6bf 8cbe
000000d0: 8b70 ca3e d16e 4e3e e198 823e 8928 2cbe
000000e0: 2f7d 9abe 7576 8d3e 9c3a 79be 28b4 0fbe
000000f0: 67d1 adbd 1d4e b9bd c32b 5b3e fe1e eb3d
00000100: e50a 313d d208 0dbe 45f2 a23e eca5 223e
00000110: 799e 1cbe b252 b8be d769 273e aaab 953d
00000120: 503d 90be 6185 023e f0af 1a3c 5f2d c93d
00000130: f2e5 983d a517 cd3e 01ef 3fbe 3236 943e
00000140: bc76 323e f056 b13d 9752 7cbe 4f59 af3e
00000150: c114 48bd ebef 913e 087e 7a3e 8f70 6cbe
00000160: 7c7c 36be c922 87be 0842 d5bd d067 023e
00000170: 554d a9be 5f0a 993e 8418 4a3e 7adb 6e3d
00000180: 6a8a bbbe bf86 3cbe 8d90 9bbe 8351 93bc
00000190: a298 acbe b69d 9fbe b7c2 b13d d759 c53e
000001a0: 9d88 633e bfb9 37be 34f4 b8bd 8520 b93e
000001b0: 1bb6 8a3e 6add 5fbe becd 02be 6a72 40be
000001c0: c843 8ebe 2306 943e bbcf 4b3e 6119 cc3e
000001d0: f33c 07be edc8 aabd 0076 6a3e 1af8 503d
000001e0: 3abc 3d3e cf46 8cbe db1b cc3e 3661 a13e
000001f0: 9aae 8fbe 2622 78be ee7c fd3c 2e1c afbb

conv.nn.2.weight f4 [100, 128]
0.005572233 -0.08193732 -0.05791597 0.010878169 0.008571804 -0.02014076 -0.06244908 0.043040488
-0.06294727 -0.057253703 -0.022596553 0.07357722 0.08645465 -0.050114717 -0.020783743 0.012837699
-0.013949522 0.03760786 -0.027977176 0.014426818 0.08063798 -0.017176531 0.027341308 -0.07051656
0.01713563 0.03760041 -0.08785843 -0.06338281 -0.052306958 0.043998357 0.00094139593 -0.0025282945
-0.024994545 0.04465345 0.0040135244 0.07080239 -0.003147234 -0.08034619 -0.051800054 0.039421167
-0.06455336 0.035297453 0.04561037 -0.061728284 0.05224089 -0.015197658 0.026534285 0.041663766
0.02546851 -0.008987055 -0.03680384 -0.06952331 -0.07063952 0.023116205 0.07256519 0.028188014
-0.059745874 -0.0783578 -0.04913803 0.04310949 0.034654874 -0.072801925 0.01842568 0.034566622
-0.0419905 -0.061209116 0.042060208 0.068199046 0.017292341 -0.08706388 0.008382232 -0.066863425
0.086506955 0.0026767373 0.07864139 -0.022732673 -0.07890247 0.0106141325 0.024680972 0.035652522
0.002423286 -0.060384132 0.038041767 -0.025908113 0.050003763 -0.037499238 -0.083814524 0.023745812
-0.041153908 -0.06604874 -0.021364072 0.07815307 0.053855363 -0.06402485 -0.0052646594 -0.07025254
-0.06566252 -0.07630132 0.07386074 -0.019304723 -0.009097249 0.029694699 0.054287277 -0.07766233
0.08496172 0.06854392 -0.04185508 -0.008604055 -0.08674464 0.061826266 0.015807068 0.027915535
-0.06307741 0.018494979 0.012227454 0.0010426085 -0.08079139 0.0080483835 0.02372911 -0.077326976
-0.06799842 0.028041057 0.039792344 -0.08527603 -0.06162961 -0.062890165 -0.06009377 -0.040141206
-0.08198131 0.020723743 -0.038020723 0.08732372 0.08684095 -0.050298255 -0.07737013 -0.07337357
0.025133913 -0.019494833 -0.011634342 -0.011903772 -0.060362358 0.011880256 -0.08577268 0.016999235
-0.019121164 -0.06500649 -0.039799992 -0.07006542 0.028196894 0.040439468 -0.03027719 -0.0064178267
-0.08388611 0.021188017 0.07659995 -0.07833532 0.010256351 0.004867422 0.061082948 -0.0011929771
-0.026904503 0.039789848 0.074462146 0.010424342 -0.039224952 -0.041105926 0.054215193 -0.04975473
-0.07771248 -0.044716984 -0.06863119 0.052103166 0.06753678 -0.046059098 -0.084350996 -0.056384444
-0.0849795 -0.01736219 -0.081311435 -0.05817219 -0.07584153 0.041747842 0.025248967 0.003386012
0.07595782 0.014307607 -0.05078071 0.029844332 -0.0802995 -0.02853001 0.0050673867 0.03214386
-0.046094254 -0.0774338 -0.003197636 -0.025595883 0.06945451 0.009857966 0.07446015 0.08073028
0.023202421 -0.048757207 -0.050137013 0.06268346 0.010488022 -0.0127111245 0.034039658 0.017104683
0.06495506 -0.046193577 0.021899112 0.06273723 0.01660541 0.06161995 -0.0072631612 -0.06801414
-0.06528758 -0.062345654 0.026578866 -0.009446621 0.049524136 0.050274443 -0.006647245 -0.008944508
0.053627826 0.028891526 -0.056970738 0.083012156 0.07299648 0.012271059 0.06082807 -0.04045277
0.07711824 0.07759223 0.004272361 0.03957536 0.060437128 0.084838815 0.027100198 -0.065214925
0.0044217627 0.025275104 0.012173255 -0.05636913 -0.03516963 -0.020752057 0.054799017 0.0063144993
0.084141776 -0.08416451 -0.085470155 0.08566657 -0.031003818 0.011015448 0.009897336 0.009370318
00000000: 4797 b63b c1ce a7bd 4c39 6dbd 593a 323c
00000010: c070 0c3c 3cfe a4bc 9bca 7fbd 394b 303d
00000020: 80ea 80bd dc82 6abd 681c b9bc a7af 963d
00000030: 230f b13d 1745 4dbd ab42 aabc 3655 523c
00000040: 898c 64bc b30a 1a3d 6430 e5bc 765e 6c3c
00000050: 8625 a53d ccb5 8cbc e1fa df3c fc6a 90bd
00000060: 0560 8c3c e302 1a3d 1fef b3bd d9ce 81bd
00000070: d23f 56bd 9f37 343d 03c8 763a beb1 25bb
00000080: 5cc1 ccbc 89e6 363d e283 833b d800 913d
00000090: d341 4ebb 8b8c a4bd 4b2c 54bd 1778 213d
000000a0: 8d34 84bd 1094 103d f0d1 3a3d ccd6 7cbd
000000b0: 8bfa 553d 99ff 78bc 6e5e d93c a0a7 2a3d
000000c0: 56a3 d03c 713e 13bc a0bf 16bd 3d62 8ebd
000000d0: 74ab 90bd 325e bd3c 0f9d 943d 8dea e63c
000000e0: 17b8 74bd 0e7a a0bd f544 49bd 9493 303d
000000f0: 45f2 0d3d 2d19 95bd 74f1 963c bb95 0d3d
00000100: 3bfe 2bbd 69b6 7abd 5347 2c3d f1ab 8b3d
00000110: aba8 8d3c 8c4e b2bd a155 093c b1ef 88bd
00000120: 8f2a b13d 336c 2f3b bd0e a13d df39 babc
00000130: 9e97 a1bd e6e6 2d3c c02f ca3c 6108 123d
00000140: fecf 1e3b 5a55 77bd afd1 1b3d 403d d4bc
00000150: bfd0 4c3d cd98 19bd f3a6 abbd 9486 c23c
00000160: 0091 28bd 9044 87bd b503 afbc b70e a03d
00000170: 7197 5c3d 761f 83bd 2a83 acbb 90e0 8fbd
00000180: 127a 86bd de43 9cbd 4d44 973d f024 9ebc
00000190: a10c 15bc 4c42 f33c 565c 5e3d 6d0d 9fbd
000001a0: 6900 ae3d c160 8c3d 3b70 2bbd 06f8 0cbc
000001b0: 2ca7 b1bd 8a3d 7d3d d37d 813c 1faf e43c
000001c0: bb2e 81bd c882 973c a955 483c 23a8 883a
000001d0: f575 a5bd 5edd 033c 8d63 c23c 9b5d 9ebd
000001e0: c142 8bbd 5cb6 e53c 4cfd 223d 33a5 aebd
000001f0: 546f 7cbd 8fcc 80bd e324 76bd 1b6b 24bd
00000200: d1e5 a7bd d7c4 a93c 9ebb 1bbd c7d6 b23d
00000210: abd9 b13d 8b05 4ebd 3b74 9ebd e244 96bd
00000220: a3e5 cd3c a1b3 9fbc f89d 3ebc 0a08 43bc
00000230: 853e 77bd 68a5 423c 96a9 afbd fb41 8b3c
00000240: fda3 9cbc 1f22 85bd 5105 23bd 757e 8fbd
00000250: 2cfd e63c dba3 253d df07 f8bc a24c d2bb
00000260: 7bcc abbd 7e92 ad3c 6fe0 9c3d 456e a0bd
00000270: 410a 283c e57e 9f3b 1d32 7a3d ab5d 9cba
00000280: d566 dcbc aefa 223d 9c7f 983d dcca 2a3c
00000290: 58aa 20bd b05e 28bd c010 5e3d 9ecb 4bbd
000002a0: b927 9fbd 2829 37bd 828e 8cbd 216a 553d
000002b0: b950 8a3d 77a8 3cbd 37c0 acbd 60f3 66bd
000002c0: bb09 aebd 273b 8ebc 9c86 a6bd f645 6ebd
000002d0: ce52 9bbd c9ff 2a3d ecd6 ce3c dbe7 5d3b
000002e0: c68f 9b3d 746a 6a3c 6fff 4fbd 1a7c f43c
000002f0: 1074 a4bd c4b7 e9bc 520c a63b 48a9 033d
00000300: 54cd 3cbd 9d95 9ebd 6e8f 51bb 75ae d1bc
00000310: 2b3e 8e3d 4e83 213c 907e 983d eb55 a53d
00000320: 0113 be3c a3b5 47bd 785c 4dbd 3060 803d
00000330: f4d5 2b3c 5242 50bc 2b6d 0b3d 1f1f 8c3c
00000340: 2907 853d 7a35 3dbd c465 b33c 607c 803d
00000350: 1208 883c 3365 7c3d d0ff edbb ff4a 8bbd
00000360: 7fb5 85bd 285e 7fbd ecbb d93c 00c6 1abc
00000370: d2d9 4a3d 93ec 4d3d 22d1 d9bb fc8b 12bc
00000380: daa8 5b3d ecad ec3c 265a 69bd 4702 aa3d
00000390: 2e7f 953d 8d0c 493c db26 793d ceb1 25bd
000003a0: 2bf0 9d3d ade8 9e3d 29ff 8b3b c619 223d
000003b0: ec8c 773d f9bf ad3d 3c01 de3c 678f 85bd
000003c0: 6fe4 903b bc0d cf3c 5572 473c 51e3 66bd
000003d0: 080e 10bd 3800 aabc ef74 603d dce9 ce3b
000003e0: 8652 ac3d 715e acbd fa0a afbd f471 af3d
000003f0: b8fb fdbc 237a 343c 7028 223c f685 193c

conv.nn.2.bias f4 [100]
-0.02083172 0.01521423 0.06420919 -0.024779422 0.050782323 0.012581085 -0.07259888 -0.05321823
-0.062353395 -0.04856281 0.049276486 -0.022407522 -0.052600615 -0.019489706 0.00941433 -0.048567683
-0.044211168 0.046400074 0.04538805 -0.085953034 -0.023912853 0.07021395 -0.03204153 0.07299886
-0.076884076 -0.028519562 0.03932249 -0.061937787 -0.05753898 0.07760119 0.020194968 -0.034052726
0.060317546 -0.0820058 0.009312346 -0.060619622 -0.0066453954 0.029794542 -0.04796874 -0.08608465
-0.007403374 -0.074636646 0.062013682 0.040755592 -0.07323898 0.009644483 -0.048040867 -0.05267307
0.015479877 0.03702848 0.017456174 0.0039229244 0.053241704 -0.03487994 -0.04061508 -0.042712387
0.0028570746 -0.02688971 -0.023113955 -0.050146613 -0.08130276 0.017455846 -0.044019565 -0.023576945
0.059156857 -0.025681527 0.04854342 -0.007265615 -0.037985884 0.07196255 -0.05795629 -0.07825906
0.0074908 0.03243265 -0.03726183 -0.061454087 0.012430145 0.00028523413 -0.03561594 0.038301066
-0.011994637 0.03699267 0.06296512 0.07916656 -0.00969195 0.048658494 -0.07760634 0.08559794
-0.043482218 -0.011763723 -0.024758738 -0.00894197 0.038963344 0.055377346 -0.048855454 -0.060705908
-0.03965192 0.054108184 -0.040577445 0.06265572
00000000: 49a7 aabc 1b45 793c 1c80 833d 37fe cabc
00000010: 2001 503d e520 4e3c b9ae 94bd 5cfb 59bd
00000020: 4666 7fbd cce9 46bd 24d6 493d fb8f b7bc
00000030: be73 57bd e0a8 9fbc 903e 1a3c e8ee 46bd
00000040: c516 35bd 010e 3e3d d2e8 393d 2508 b0bd
00000050: e3e4 c3bc 55cc 8f3d fb3d 03bd 6d80 953d
00000060: 6675 9dbd dba1 e9bc 9f10 213d 7ab2 7dbd
00000070: fead 6bbd 5fed 9e3d eb6f a53c df7a 0bbd
00000080: 880f 773d a8f2 a7bd cf92 183c 484c 78bd
00000090: 9ec1 d9bb af13 f43c df7a 44bd 264d b0bd
000000a0: 0198 f2bb 19db 98bd 0f02 7e3d 56ef 263d
000000b0: 51fe 95bd e503 1e3c 80c6 44bd b8bf 57bd
000000c0: 4f9f 7d3c 2dab 173d 4000 8f3c e08b 803b
000000d0: f913 5a3d 45de 0ebd 005c 26bd 2ff3 2ebd
000000e0: c23d 3b3b cf47 dcbc 7a59 bdbc 8966 4dbd
000000f0: 1082 a6bd 90ff 8e3c dc4d 34bd 7024 c1bc
00000100: 764e 723d 1162 d2bc 77d5 463d 6514 eebb
00000110: 1697 1bbd 1a61 933d 9363 6dbd 4946 a0bd
00000120: 6375 f53b 19d8 043d dc9f 18bd 48b7 7bbd
00000130: cfa7 4b3c 7a8b 9539 05e2 11bd 94e1 1c3d
00000140: 2785 44bc a085 173d dbf3 803d 1422 a23d
00000150: fcca 1ebc 214e 473d 13f0 9ebd f94d af3d
00000160: 691a 32bd a1bc 40bc d6d2 cabc 5781 12bc
00000170: 0798 1f3d 5bd3 623d a81c 48bd c2a6 78bd
00000180: 0d6a 22bd 8ba0 5d3d 8934 26bd a451 803d

gru.weight_ih_l0 f4 [30, 10]
0.23403133 0.28256568 -0.17821449 0.049029533 -0.22904906 0.054762788 0.055716936 0.21977042
0.102914646 -0.16750948 -0.11931696 -0.08988992 0.13642414 0.024348196 0.16128023 0.057652198
0.113468446 0.10880857 -0.17036451 -0.15311274 -0.16156343 -0.20567033 -0.038460564 0.24255358
0.09032775 0.18524444 0.12139298 -0.03613874 -0.1883194 -0.22142218 0.081216924 -0.3073439
0.26279575 0.010752154 -0.098579004 0.07730677 -0.23917527 0.15673025 -0.31039995 0.27647328
-0.17133439 0.14832741 -0.08604768 -0.26008967 -0.22585025 0.10668508 -0.2861432 0.13804054
-0.065025635 0.007863541 0.058359 0.032588035 -0.12551033 -0.23162287 -0.29047823 1.7098111e-05
-0.008855717 0.1434572 -0.14017533 -0.24908207 0.28295377 0.12344354 -0.01284719 -0.014880495
0.16811153 -0.0063935043 0.2472464 0.1416312 0.30695954 -0.12279797 0.27735075 0.12541136
0.24151151 0.11283767 -0.21045701 -0.028351277 -0.15432289 0.076467626 -0.018143587 0.17903972
0.10169431 0.13214087 0.14974613 -0.030708972 0.08672095 0.057244252 0.22375622 -0.112968005
0.11962374 0.15160657 -0.1420931 0.15335736 0.117783025 -0.2785364 -0.095386416 -0.09673404
0.2966962 -0.027592454 -0.1347382 -0.046287857 -0.2167906 -0.09976793 0.035130773 0.15320359
0.08729612 0.10170682 0.31159404 -0.12176258 -0.24368444 0.24125479 -0.2804884 0.066741236
-0.1743877 0.097401254 0.23920403 0.21911584 -0.1658066 -0.28365752 -0.26959795 -0.2047357
-0.22815873 -0.11374812 -0.30453706 -0.27835438 -0.2255559 -0.191454 -0.079284795 0.08875017
-0.13176931 -0.12296267 -0.06361548 -0.17447308 -0.016920185 -0.115965284 0.30053878 0.09232961
0.10749382 -0.18561426 -0.041138418 -0.2809808 0.27749407 0.014411309 -0.28917268 0.0039419173
-0.24547441 0.001398691 0.3035471 0.016743232 -0.3022737 0.097409755 -0.09396594 -0.09605564
-0.075625055 0.22830476 0.017260062 0.08535264 -0.23441856 0.07220451 0.22380766 0.18905099
-0.2100684 0.29873523 0.13063405 -0.12845317 -0.24259421 -0.29189777 -0.0036108831 -0.1709283
-0.0954269 -0.039975785 -0.16546601 0.19259642 0.26571935 -0.21529032 0.094973885 -0.28181162
-0.19856608 -0.2953304 -0.1562568 0.09623673 0.23812981 0.17699397 -0.035850074 -0.17823201
-0.28548464 0.24187078 -0.17678393 -0.1239401 -0.07286914 0.23304987 -0.05594491 0.07996759
-0.29653123 -0.11118266 -0.1422526 -0.2363068 -0.31012073 0.1905288 0.25714192 0.25242853
-0.22270842 0.027430825 -0.18935561 0.068453506 -0.30195796 0.14654343 0.1023317 -0.26839367
0.13560969 0.18466608 -0.105095334 -0.016010037 0.11949229 -0.2419528 0.006970893 -0.17463012
-0.102230996 0.29295707 -0.27894008 -0.102831185 -0.30632356 0.032798186 -0.28255007 -0.23709081
-0.22526798 -0.30775872 -0.09224216 0.16684152 0.16592522 -0.14618646 0.31585386 -0.12598504
0.07861748 -0.2758225 0.18686594 0.15727091 -0.02574939 -0.07480888 0.26112697 -0.16627082
-0.006651966 -0.041081224 0.12218859 -0.31132507 -0.18116389 0.2369492 -0.20352773 -0.24904862
0.05760347 -0.066855386 -0.31215215 0.1813602 0.08225089 0.2813669 0.1856864 -0.30168542
00000000: e9a5 6f3e 73ac 903e dc7d 36be 31d3 483d
00000010: d68b 6abe f24e 603d 7137 643d 7f0b 613e
00000020: eac4 d23d 9b87 2bbe 735c f4bd 3518 b8bd
00000030: c5b2 0b3e de75 c73c a526 253e b624 6c3d
00000040: 2562 e83d 07d7 de3d 0974 2ebe 96c9 1cbe
00000050: e270 25be 3e9b 52be d388 1dbd f75f 783e
00000060: c1fd b83d b8b0 3d3e e29c f83d 3706 14bd
00000070: cdd6 40be 7fbc 62be 0f55 a63d 2e5c 9dbe
00000080: 2a8d 863e cd29 303c cae3 c9bd 0353 9e3d
00000090: 5dea 74be e57d 203e beec 9ebe e88d 8d3e
000000a0: 4872 2fbe 24e3 173e c439 b0bd 792a 85be
000000b0: 4a45 67be b57d da3d 5d81 92be 805a 0d3e
000000c0: 292c 85bd 15d6 003c d909 6f3d 087b 053d
000000d0: c885 00be 8c2e 6dbe 90b9 94be ea6d 8f37
000000e0: 9217 11bc 72e6 123e 1f8a 0fbe 5f0f 7fbe
000000f0: 51df 903e f7cf fc3d 057d 52bc 52cd 73bc
00000100: 6e25 2c3e 9a80 d1bb 292e 7d3e c507 113e
00000110: cd29 9d3e 817d fbbd eb00 8e3e d66b 003e
00000120: cb4e 773e 7017 e73d 0b82 57be f040 e8bc
00000130: d206 1ebe 0f9b 9c3d dca1 94bc 3056 373e
00000140: 1b45 d03d f04f 073e 0d57 193e 6291 fbbc
00000150: c19a b13d f378 6a3d 5a20 653e c55b e7bd
00000160: 4bfd f43d c13e 1b3e db80 11be b609 1d3e
00000170: 3a38 f13d 539c 8ebe f459 c3bd 7f1c c6bd
00000180: 90e8 973e 9209 e2bc d0f8 09be 5698 3dbd
00000190: 5bfe 5dbe 2153 ccbd 49e5 0f3d 67e1 1c3e
000001a0: 4fc8 b23d aa4b d03d 4189 9f3e a95e f9bd
000001b0: 6a88 79be 7f0b 773e 2d9c 8fbe a1af 883d
000001c0: b092 32be 4f7a c73d e7f1 743e e75f 603e
000001d0: 35c9 29be 8f3b 91be be08 8abe 3ca6 51be
000001e0: 71a2 69be c6f4 e8bd 48ec 9bbe 7784 8ebe
000001f0: 20f8 66be 840c 44be 1160 a2bd a6c2 b53d
00000200: 89ee 06be dad3 fbbd d548 82bd 12a9 32be
00000210: 339c 8abc 357f edbd 38e0 993e 4e17 bd3d
00000220: b825 dc3d aa11 3ebe c280 28bd b7dc 8fbe
00000230: b413 8e3e 691d 6c3c 710e 94be 332b 813b
00000240: a55d 7bbe 4854 b73a 876a 9b3e 1a29 893c
00000250: 9ec3 9abe c47e c73d 3771 c0bd d2b8 c4bd
00000260: 4fe1 9abd b9c8 693e f964 8d3c 5dcd ae3d
00000270: 6b0b 70be f5df 933d d62d 653e 9596 413e
00000280: 2c1c 57be d3f3 983e efc4 053e 3a89 03be
00000290: 9e6a 78be a073 95be 91a4 6cbb d407 2fbe
000002a0: 2e6f c3bd a6bd 23bd ec6f 29be ff37 453e
000002b0: 5e0c 883e 1175 5cbe ab81 c23d 9d49 90be
000002c0: e854 4bbe 8c35 97be c801 20be c317 c53d
000002d0: 4dd8 733e e83d 353e 87d7 12bd 7482 36be
000002e0: 0b2b 92be f9ac 773e d906 35be 4fd4 fdbd
000002f0: 6a3c 95bd a0a4 6e3e 7d26 65bd 0cc6 a33d
00000300: f1d2 97be bcb3 e3bd aaaa 11be 69fa 71be
00000310: 25c8 9ebe fb19 433e 1ba8 833e 503e 813e
00000320: ad0d 64be 9cb6 e03c 70e6 41be 5a31 8c3d
00000330: 3c9a 9abe 7b0f 163e 4893 d13d e56a 89be
00000340: 44dd 0a3e 1b19 3d3e 393c d7bd 7b27 83bc
00000350: 60b8 f43d 7ac2 77be 176c e43b 3dd2 32be
00000360: 7c5e d1bd 78fe 953e 3cd1 8ebe 2899 d2bd
00000370: 71d6 9cbe 6457 063d 67aa 90be efc7 72be
00000380: a6ac 66be 8d92 9dbe 75e9 bcbd 81d8 2a3e
00000390: 4de8 293e e7b1 15be 99b7 a13e 3902 01be
000003a0: 3402 a13d 9b38 8dbe c959 3f3e a00b 213e
000003b0: 62f0 d2bc 6635 99bd 6fb2 853e e642 2abe
000003c0: bcf8 d9bb c944 28bd 033e fa3d 0066 9fbe
000003d0: 0783 39be d0a2 723e 9369 50be 9a06 7fbe
000003e0: 9ef1 6b3d 7aeb 88bd 68d2 9fbe 7db6 393e
000003f0: 2873 a83d 530f 903e 9324 3e3e 8376 9abe

gru.weight_hh_l0 f4 [30, 10]
0.06247267 0.0053771306 0.1049917 -0.12501842 -0.3140268 -0.15421605 -0.050280314 0.28160533
0.23922162 -0.27521744 0.0017964854 0.00054929446 -0.28703284 0.28248698 0.2563888 -0.2411303
0.18307209 0.015307479 -0.24148853 0.26453173 0.15129597 0.06953344 -0.13075641 -0.020021232
0.08832108 -0.18834937 0.29722124 -0.10757698 -0.27586812 0.2525596 0.07985253 -0.07098594
-0.17735428 -0.27027267 0.29233748 -0.16210945 -0.0350069 -0.04444594 0.1455775 -0.18805629
0.29294991 -0.12971541 -0.037470456 -0.14949408 -0.11501441 0.11893538 -0.08383801 0.2515696
-0.061295945 -0.05952948 -0.1607325 -0.044903867 -0.111327514 -0.02400112 0.27677032 -0.067219704
0.12460728 -0.14950481 0.15929814 -0.13752364 -0.12566479 0.022129098 0.19348966 0.30648383
-0.1544455 0.1500481 0.29144174 -0.12021246 -0.2886166 -0.2754098 0.29223603 0.032987673
0.10926563 -0.07581315 -0.2980521 -0.07403691 -0.26929072 -0.23278041 0.10463085 -0.02109359
0.2529208 0.072642446 -0.053112663 -0.15785235 -0.16798635 -0.0650833 0.22931144 -0.18095753
-0.0459441 0.20644687 0.030148624 0.27603298 0.23341979 -0.058777403 0.027291873 0.01625699
0.05700407 0.09912298 -0.24999623 -0.2319252 0.2209954 -0.07110045 -0.27040848 0.049935747
0.073973365 -0.004718748 -0.0002574589 0.25405535 -0.21356577 -0.08101755 -0.28195938 -0.15402703
-0.31339478 -0.03142514 0.25290355 -0.13123721 -0.056051906 -0.0027592904 -0.07439693 -0.25269037
-0.19876315 -0.13664736 0.0028789628 -0.07752547 -0.11267675 0.11636432 0.1198672 0.09471069
0.078736246 0.11707522 -0.18503797 0.13441023 0.253083 0.1431493 -0.07519778 0.00637178
-0.1570202 -0.3022592 0.08242458 0.2649942 -0.27486813 -0.2999738 0.21240404 0.1145078
-0.093553305 0.19017018 0.06305921 -0.2921306 -0.1915762 0.23929986 0.08429499 -0.026523804
0.033320617 0.07997904 -0.19941767 -0.018599829 -0.18952306 -0.13157241 0.0639993 -0.14665009
0.11098739 -0.061225794 0.28669602 0.16791035 0.24125382 0.088900946 -0.30926642 -0.07181498
0.02679889 -0.11488318 0.24425292 -0.1335633 -0.11124049 0.17203942 0.0309525 0.18637131
-0.017557453 0.15434308 -0.14286102 0.14019096 -0.2638674 -0.31010708 0.025696447 -0.1150147
-0.13285449 -0.173261 -0.15318291 -0.10788969 0.11636351 0.01383838 -0.24263369 0.16452649
-0.043772336 0.1259382 0.3000128 0.18515861 0.16733016 -0.26888114 -0.30260536 -0.17622845
0.23311643 -0.010202394 0.14395966 0.21403469 0.010881308 0.18854117 0.18937548 0.07024666
-0.1518676 -0.2585088 -0.0019009218 0.2154731 0.17591701 0.18541302 0.28453726 -0.19154635
-0.28786185 0.09655056 0.18466471 -0.23465984 0.12194961 -0.028269257 0.07615998 0.15430257
-0.11168745 0.30652958 -0.1206391 0.06644642 0.18016152 -0.16052629 -0.26305154 0.0017722459
-0.106246725 0.16445911 0.1016706 0.026404643 -0.08035717 -0.26199475 0.23351523 -0.18026546
-0.23941699 -0.22476575 0.24947569 -0.30006632 0.250629 0.16784166 0.046793774 -0.13962427
-0.07498831 0.298572 0.15023647 -0.19733275 0.0018767153 0.105429485 -0.13879016 0.20074047
00000000: 58e3 7f3d a432 b03b e305 d73d d404 00be
00000010: 1fc8 a0be d0ea 1dbe bbf2 4dbd 932e 903e
00000020: 83f6 743e 4de9 8cbe 0c78 eb3a 87fe 0f3a
00000030: f8f5 92be 22a2 903e 6545 833e ddea 76be
00000040: 4077 3b3e 38cc 7a3c c548 77be b470 873e
00000050: 55ed 1a3e 8c67 8e3d 02e5 05be 9103 a4bc
00000060: afe1 b43d a8de 40be 622d 983e 5251 dcbd
00000070: 963e 8dbe 7e4f 813e b989 a33d 1461 91bd
00000080: 5c9c 35be 2e61 8abe 42ad 953e 0500 26be
00000090: 6563 0fbd f20c 36bd 4512 153e d491 40be
000000a0: 88fd 953e 1ed4 04be 9f7a 19bd fa14 19be
000000b0: ad8c ebbd 6494 f33d 43b3 abbd bbcd 803e
000000c0: 7511 7bbd 2fd5 73bd 0f97 24be 1eed 37bd
000000d0: aeff e3bd ff9d c4bc d7b4 8d3e 7caa 89bd
000000e0: 1a32 ff3d ca17 19be 0d1f 233e ffd2 0cbe
000000f0: 45ae 00be 1548 b53c 2722 463e 73eb 9c3e
00000100: f626 1ebe 36a6 193e da37 953e f331 f6bd
00000110: 8ec5 93be 8302 8dbe f69f 953e 151e 073d
00000120: a9c6 df3d ed43 9bbd 499a 98be aaa0 97bd
00000130: 79e0 89be fd5d 6ebe b348 d63d 77cc acbc
00000140: d67e 813e 90c5 943d aa8c 59bd 0ca4 21be
00000150: 9d04 2cbe 654a 85bd 9ed0 6a3e ee4c 39be
00000160: e12f 3cbd cf66 533e 3ffa f63c 3254 8d3e
00000170: 9905 6f3e 93c0 70bd 3593 df3c 612d 853c
00000180: 1a7d 693d fd00 cb3d 03ff 7fbe cd7d 6dbe
00000190: 9e4c 623e 1d9d 91bd fb72 8abe 6d89 4c3d
000001a0: 597f 973d ba9f 9abb 8cfb 86b9 8b13 823e
000001b0: fcb0 5abe 87ec a5bd fb5c 90be 43b9 1dbe
000001c0: 4875 a0be a6b7 00bd 937c 813e 0c63 06be
000001d0: af96 65bd 36d5 34bb 6b5d 98bd a260 81be
000001e0: 9188 4bbe 49ed 0bbe fbac 3c3b acc5 9ebd
000001f0: 11c3 e6bd 6b50 ee3d ef7c f53d aef7 c13d
00000200: 7840 a13d 22c5 ef3d 987a 3dbe d6a2 093e
00000210: 1894 813e bb95 123e 4b01 9abd 5dca d03b
00000220: e7c9 20be b8c1 9abe 38ce a83d 52ad 873e
00000230: 84bb 8cbe 2a96 99be 7280 593e 1183 ea3d
00000240: e098 bfbd f9bb 423e 3025 813d 2492 95be
00000250: 8d2c 44be 060b 753e daa2 ac3d 7348 d9bc
00000260: 337b 083d 0dcc a33d 2534 4cbe ab5e 98bc
00000270: 5512 42be ebba 06be 1112 833d 712b 16be
00000280: 5b4d e33d e6c7 7abd d2c9 923e b1f0 2b3e
00000290: 3e0b 773e b311 b63d 2b58 9ebe bb13 93bd
000002a0: 5989 db3c df47 ebbd 701d 7a3e d1c4 08be
000002b0: 0ed2 e3bd 1a2b 303e 1990 fd3c 1fd8 3e3e
000002c0: a6d4 8fbc 1d0c 1e3e 294a 12be 388e 0f3e
000002d0: a119 87be 5bc6 9ebe 5b81 d23c d48c ebbd
000002e0: 020b 08be 556b 31be fbdb 1cbe 45f5 dcbd
000002f0: fe4f ee3d 5fba 623c f774 78be a279 283e
00000300: 9f4a 33bd f2f5 003e 479b 993e 389a 3d3e
00000310: 9958 2b3e caaa 89be 17ef 9abe 3b75 34be
00000320: 13b6 6e3e f127 27bc 296a 133e e92b 5b3e
00000330: 8347 323c f010 413e a5eb 413e 7bdd 8f3d
00000340: 2e83 1bbe 445b 84be 5a28 f9ba fba4 5c3e
00000350: 9723 343e e9dc 3d3e deae 913e ba24 44be
00000360: a162 93be 4dbc c53d bf18 3d3e ab4a 70be
00000370: b8c0 f93d ee94 e7bc c3f9 9b3d 7e01 1e3e
00000380: 64bc e4bd 72f1 9c3e a211 f7bd 1015 883d
00000390: 437c 383e 0161 24be b1ae 86be b44a e83a
000003a0: e297 d9bd f867 283e ad38 d03d 8d4e d83c
000003b0: 4d92 a4bd 2d24 86be 9e1e 6f3e 8297 38be
000003c0: ba29 75be fe28 66be 8e76 7f3e 4ba2 99be
000003d0: 7252 803e afde 2b3e d4aa 3f3d aaf9 0ebe
000003e0: 7993 99bd 6ede 983e 97d7 193e 9911 4abe
000003f0: 1efc f53a 6aeb d73d 021f 0ebe e98e 4d3e

gru.bias_ih_l0 f4 [30]
0.24308205 0.2847574 0.26335964 -0.3136329 0.23166613 -0.19150448 0.084760524 0.26433608
-0.12650083 0.15108997 -0.08553711 -0.09100976 -0.16697735 0.13887027 -0.15197095 -0.25104153
-0.1392522 -0.045155015 0.265761 -0.1786513 0.28502995 -0.09284982 -0.08166778 -0.111225486
0.18381284 0.27287722 0.18008137 -0.3104915 -0.28816807 -0.025814002
00000000: 80ea 783e b9cb 913e 13d7 863e 7e94 a0be
00000010: e339 6d3e c019 44be ed96 ad3d 0f57 873e
00000020: 6f89 01be 54b7 1a3e 152e afbd 5363 babd
00000030: 1cfc 2abe 0234 0e3e 469e 1bbe 8488 80be
00000040: 2198 0ebe 77f4 38bd d311 883e 5ef0 36be
00000050: 72ef 913e 0c28 bebd 7041 a7bd 30ca e3bd
00000060: 6f39 3c3e 90b6 8b3e 4067 383e bef8 9ebe
00000070: c48a 93be e377 d3bc

gru.bias_hh_l0 f4 [30]
0.20822042 -0.21720058 -0.06265247 0.22363265 -0.14464712 -0.30948022 0.14411314 -0.2431526
0.2533863 -0.28938046 0.13297589 0.2653795 -0.30071226 0.054528262 -0.009526165 -0.014883293
-0.2333777 -0.015262414 0.012600321 0.187191 0.01622372 0.12835228 0.17145011 -0.30357867
-0.054192808 -0.04284905 -0.16027975 -0.04107216 -0.17383729 -0.1505614
00000000: bc37 553e d469 5ebe f04f 80bd f5ff 643e
00000010: 601e 14be 3174 9ebe 6592 133e fffc 78be
00000020: d9bb 813e ad29 94be d52a 083e d2df 873e
00000030: f5f6 99be 0759 5f3d a213 1cbc 0ed9 73bc
00000040: 90fa 6ebe 340f 7abc 9471 4e3c ffae 3f3e
00000050: 9be7 843c c86e 033e 9e90 2f3e aa6e 9bbe
00000060: 47f9 5dbd 7c82 2fbd 6020 24be 483b 28bd
00000070: 6702 32be c52c 1abe

set2set.lstm.weight_ih_l0 f4 [40, 20]
-0.15130198 -0.21980786 0.080201335 -0.1176928 -0.0077146934 0.13944182 -0.0815067 0.13413192
0.26982614 0.15815493 -0.22442226 0.21862932 -0.29654968 -0.19343488 -0.20793773 0.23832762
0.21867035 0.3003208 -0.099442445 -0.19364761 0.0679676 -0.14901108 0.08844407 -0.15434296
-0.17337495 -0.22416243 -0.22111721 -0.013745589 -0.2753136 -0.0060718413 -0.23055428 -0.20838292
0.23142345 0.28616259 0.06726414 -0.016965033 -0.09821658 0.20313363 -0.117349 0.22378343
-0.03248786 -0.12099925 -0.19738315 -0.123102054 0.22024214 0.20626286 -0.24297334 -0.24345218
-0.20939535 -0.2202351 -0.12940764 0.27983257 -0.017013904 0.05885523 -0.017591178 0.15349302
0.16165897 0.08554107 0.08530338 -0.22796601 0.04896837 0.06992447 -0.10538614 0.11844325
0.065515794 -0.06118912 0.30282006 -0.30161515 -0.16172323 -0.29906666 0.25000158 -0.084817156
0.059405483 0.3091074 -0.29442173 0.13106127 0.22477786 0.11171064 -0.29257452 -0.09153369
-0.1658824 0.07114567 -0.06335596 -0.28928077 -0.08914105 0.16974615 0.039977554 -0.25890464
0.15490921 -0.2576625 -0.17037067 -0.29852688 0.05671825 0.077208765 -0.12932394 0.25610605
-0.11932324 0.09073311 0.11168049 -0.05852872 -0.23019832 -0.078258716 -0.10916233 0.09153591
-0.008675542 0.24314131 0.11911878 0.062485926 0.0059618447 -0.028338864 0.18374395 0.04636827
0.10503118 0.035690412 0.019666044 -0.21908815 0.08108037 0.20501545 0.014009206 0.023746949
0.15857157 0.2733634 0.13685001 0.15577553 -0.17856632 0.2621874 -0.25981852 -0.21671997
-0.040531673 -0.13472012 0.14360386 0.2198705 -0.08054513 -0.21675293 -0.12639467 0.18854807
-0.032259155 0.13763648 -0.012082556 0.26691195 0.113488495 -0.10139833 0.25336125 -0.21455866
-0.17947505 -0.24153931 0.08256199 0.1471018 -0.28116173 -0.025214413 0.1407749 0.05519544
0.22688557 0.06167485 0.21390791 0.28143084 0.15060583 -0.12806019 -0.06410178 0.149528
0.021892808 0.15641321 -0.13436869 0.25424284 0.026223335 -0.24555416 0.27162305 0.16695254
-0.11260575 -0.15827724 -0.21378468 0.23195906 -0.16975981 -0.09028763 0.079037026 -0.050773025
-0.31418177 -0.27930245 -0.2603274 0.18124959 -0.1305463 0.05902774 0.22584602 -0.29301938
0.034420878 -0.045175977 -0.17395876 0.22997239 -0.21448484 -0.054512683 -0.24771105 -0.13243672
0.30331743 -0.29560614 0.22191592 0.17742203 0.20480609 -0.17239392 0.2219691 0.3065339
-0.021587396 -0.050943997 0.09277277 -0.110193744 -0.11793857 0.21337561 0.07352001 0.10071884
0.1540851 0.2635269 0.10044335 0.01727574 0.08489154 -0.17852272 -0.12446057 -0.2868523
-0.18137987 0.09054773 -0.026919113 -0.039931633 0.17009567 0.20692286 0.052037794 0.029440198
0.2820627 -0.17440344 0.14784062 -0.22826762 0.1515271 0.103695974 0.26801473 0.044130243
-0.014199797 -0.309473 -0.26620898 -0.2058984 -0.07017628 0.024822993 -0.15192616 0.0046152803
-0.26296708 0.23580717 -0.06261508 -0.06142354 0.17777129 -0.20211518 0.014610608 0.21239217
-0.27049896 -0.03283126 -0.2603186 -0.0061863856 -0.24292414 -0.092504784 -0.1744445 0.27558997
00000000: e8ee 1abe 5015 61be 9940 a43d ec08 f1bd
00000010: 8acb fcbb d6c9 0e3e fcec a6bd e159 093e
00000020: a726 8a3e 5ef3 213e f3ce 65be 5de0 5f3e
00000030: 5cd5 97be cb13 46be a1ed 54be 280c 743e
00000040: 1feb 5f3e a6c3 993e 7ba8 cbbd 8f4b 46be
00000050: 9932 8b3d 5c96 18be 2a22 b53d 150c 1ebe
00000060: 3489 31be d68a 65be 8d6c 62be 2e35 61bc
00000070: e7f5 8cbe 4cf6 c6bb 6c16 6cbe 5562 55be
00000080: 45fa 6c3e e783 923e c8c1 893d 41fa 8abc
00000090: c625 c9bd 4302 503e ac54 f0bd 7c27 653e
000000a0: fe11 05bd 74ce f7bd cf1e 4abe ee1c fcbd
000000b0: 2887 613e 9236 533e 01ce 78be 874b 79be
000000c0: bc6b 56be 4f85 61be 7083 04be 3746 8f3e
000000d0: be60 8bbc 2f12 713d 601b 90bc 462d 1d3e
000000e0: ee89 253e 2830 af3d 8ab3 ae3d ec6f 69be
000000f0: 0f93 483d 8f34 8f3d b0d4 d7bd 6092 f23d
00000100: 252d 863d 71a1 7abd 3b0b 9b3e 4d6d 9abe
00000110: c69a 25be 441f 99be 3500 803e 9eb4 adbd
00000120: 2a53 733d 5343 9e3e 72be 96be ed34 063e
00000130: 2b2c 663e 8cc8 e43d 54cc 95be 0476 bbbd
00000140: 13dd 29be d2b4 913d c5c0 81bd 9c1c 94be
00000150: 958f b6bd efd1 2d3e 81bf 233d 268f 84be
00000160: 85a0 1e3e 57ec 83be a675 2ebe 84d8 98be
00000170: 6551 683d a11f 9e3d 7f6d 04be 5520 833e
00000180: be5f f4bd 48d2 b93d beb8 e43d d0bb 6fbd
00000190: 1cb9 6bbe 1b46 a0bd 8090 dfbd 2e77 bb3d
000001a0: dc23 0ebc 09fa 783e 8cf4 f33d 3ef1 7f3d
000001b0: 945b c33b e826 e8bc 6027 3c3e a8ec 3d3d
000001c0: 961a d73d 1c30 123d af1a a13c a558 60be
000001d0: 770d a63d 92ef 513e de86 653c f688 c23c
000001e0: 9660 223e 4af6 8b3e 6922 0c3e 9f83 1f3e
000001f0: 17da 36be 6d3d 863e ef06 85be d7eb 5dbe
00000200: 8a04 26bd 12f4 09be e40c 133e bb25 613e
00000210: d8f4 a4bd 7bf4 5dbe 9b6d 01be bf12 413e
00000220: 2d22 04bd 94f0 0c3e eaf5 45bc afa8 883e
00000230: a86c e83d eda9 cfbd 91b8 813e 44b5 5bbe
00000240: 4fc8 37be 1556 77be 4316 a93d dba1 163e
00000250: 6ef4 8fbe 758e cebc 4c27 103e 9d14 623d
00000260: b154 683e c49e 7c3d ad0a 5b3e b417 903e
00000270: 6a38 1a3e 3622 03be cb47 83bd de1d 193e
00000280: 8c58 b33c c92a 203e f297 09be 1e2c 823e
00000290: 52d2 d63c 8d72 7bbe 2d12 8b3e 9bf5 2a3e
000002a0: d89d e6bd 6e13 22be 5fea 5abe ad86 6d3e
000002b0: 84d5 2dbe b9e8 b8bd 2ade a13d 60f7 4fbd
000002c0: 6fdc a0be bb00 8fbe a249 85be 7e99 393e
000002d0: eead 05be 12c7 713d 2e44 673e a306 96be
000002e0: e8fc 0c3d 720a 39bd 3f22 32be e27d 6b3e
000002f0: eaa1 5bbe b148 5fbd f7a7 7dbe 7e9d 07be
00000300: 6c4c 9b3e b059 97be ed3d 633e 1fae 353e
00000310: b0b8 513e 0888 30be de4b 633e 03f2 9c3e
00000320: 0dd8 b0bc a7aa 50bd a6ff bd3d 42ad e1bd
00000330: c789 f1bd 237f 5a3e a991 963d ae45 ce3d
00000340: 7cc8 1d3e ffec 863e 3eb5 cd3d da85 8d3c
00000350: 9edb ad3d a9ce 36be 2fe5 febd 4ede 92be
00000360: a5bb 39be 1771 b93d 7985 dcbc 5a8f 23bd
00000370: 8f2d 2e3e 96e3 533e 9525 553d 922c f13c
00000380: 866a 903e d196 32be 8863 173e fdbe 69be
00000390: ec29 1b3e 8e5e d43d 3a39 893e eac1 343d
000003a0: 44a6 68bc 3f73 9ebe 8b4c 88be 08d7 52be
000003b0: 95b8 8fbd 9759 cb3c 8892 1bbe c73b 973b
000003c0: 9fa3 86be 6f77 713e 563c 80bd 4097 7bbd
000003d0: ad09 363e 48f7 4ebe 5561 6f3c 557d 593e
000003e0: d77e 8abe 127a 06bd 7b48 85be 2ab7 cabb
000003f0: 1bc1 78be 2673 bdbd 94a1 32be 211a 8d3e
