tests/test_files/graph_swan_models.pt (torch_old, 83514 bytes, 23 tensors)

lin1.0.weight f4 [850, 7]
0.118618384 0.08410322 0.24113229 -0.1313951 0.23526901 0.2898574 0.1301514 -0.13049746
-0.07293537 -0.36500403 0.002765417 -0.32069016 0.20247033 -0.1453346 -0.12347644 -0.13470668
-0.18220806 0.3072971 -0.32825625 -0.2998468 0.23800541 -0.3124963 -0.022944508 -0.17565662
-0.04986697 -0.18495713 0.36604953 0.2809972 -0.35184973 -0.2940597 0.20634001 0.24238208
0.029834816 0.002136267 -0.018711902 0.33528143 -0.3169916 0.2661699 0.15236086 -0.0042492715
0.12562732 0.29094929 0.09247464 -0.1051453 0.27961433 0.32963663 0.26031137 -0.26326093
0.31681383 0.19866301 0.07569721 -0.11038889 0.10072081 -0.28540665 -0.19639818 0.021279665
-0.113544606 -0.00022119284 -0.05887741 -0.24263492 -0.36742228 0.11448017 -0.16741063 -0.09522694
-0.24260758 0.018962413 0.118923105 -0.13711905 0.27135533 0.29058945 -0.17329347 -0.36010277
0.29278058 0.17574269 0.33452415 -0.13162303 0.31590375 0.03823564 -0.19786319 0.23084325
0.2405273 0.07767817 0.22940941 -0.17460783 0.1625045 0.2897871 0.27274105 -0.2178691
0.11263964 0.2937309 -0.19956146 0.035243362 -0.22977857 0.2920955 0.337729 0.22393015
0.07151869 -0.3657768 0.07641974 -0.20551752 -0.26667646 0.28006586 0.32101965 -0.3211827
-0.15387967 0.33740595 0.033009082 0.10970071 -0.045705736 -0.09357926 -0.30607718 -0.13373317
-0.11917764 0.08274993 -0.18368223 -0.11344755 0.27785978 -0.3148905 -0.03450468 -0.016645772
-0.20812432 -0.0619781 -0.09679714 0.14819309 -0.21852885 -0.046743017 0.051407665 -0.1339896
0.03315927 0.21722636 -0.20247623 0.3751215 -0.25149226 0.012117208 -0.21319436 -0.36698335
-0.04218124 0.28335485 -0.30445763 0.039635904 0.30381128 0.26113644 -0.23516643 -0.013540894
-0.14352895 0.05885141 -0.25419044 -0.20041262 0.12963209 -0.08847359 0.17840396 -0.21968791
0.1878594 -0.24323878 0.13894822 -0.113462895 -0.11582407 0.064025216 -0.23775132 -0.37658235
0.14218126 0.10400571 0.15432665 0.22002108 -0.13301122 -0.2748266 0.35532868 0.003736676
-0.0013895279 0.0524667 -0.33354068 0.16780132 -0.021818075 0.19222602 0.16555455 0.36502758
0.055334657 -0.016507894 -0.18217257 -0.2844873 -0.036576033 -0.18560576 0.2751962 -0.24721865
0.2754555 0.14443235 0.19849186 -0.01625365 -0.044377428 0.046010733 0.018095523 -0.30060682
-0.036895484 0.18947616 -0.2938782 -0.16945896 -0.013076991 0.039176553 -0.3183416 0.13475607
-0.2948074 -0.26569214 0.018327197 -0.16488574 0.31792173 -0.238307 0.2013328 0.2750621
0.07642511 0.13813487 -0.077952415 -0.25004786 0.21002245 -0.33054426 -0.054697014 0.19051468
-0.16621973 -0.0072765523 -0.16993427 0.20426305 0.35857442 0.011958063 0.16703175 0.1623686
0.115639284 -0.37267154 -0.33202037 -0.19849221 0.26650044 -0.02725416 -0.27178884 -0.29391018
0.10249796 0.116093315 0.27292848 0.33744058 -0.1704263 0.16180706 0.42554733 -0.20670637
0.056407806 -0.19605348 0.21642572 -0.31043068 0.03089761 0.044205967 -0.36580497 -0.18073052
-0.064736366 -0.20040649 0.25875852 0.025481332 0.2913734 0.042340912 -0.00555853 -0.041527487
00000000: 32ee f23d 4f3e ac3d 62eb 763e 708c 06be
00000010: 5cea 703e 3068 943e 6946 053e 20a1 05be
00000020: 245f 95bd cfe1 babe 003c 353b 8031 a4be
00000030: 6254 4f3e 98d2 14be 37e1 fcbd 8cf0 09be
00000040: c094 3abe 0c56 9d3e 3411 a8be 8585 99be
00000050: b1b7 733e 84ff 9fbe 1ff6 bbbc 54df 33be
00000060: 4f41 4cbd 6765 3dbe d86a bb3e ddde 8f3e
00000070: a625 b4be fe8e 96be cc4a 533e 0233 783e
00000080: 2568 f43c 9d00 0c3b b449 99bc 02aa ab3e
00000090: b94c a2be 6c47 883e 7c04 1c3e 793d 8bbb
000000a0: 73a4 003e 4ef7 943e 5863 bd3d 6b56 d7bd
000000b0: 9c29 8f3e 22c6 a83e 8847 853e 23ca 86be
000000c0: 6c35 a23e 516e 4b3e 2407 9b3d 9213 e2bd
000000d0: b646 ce3d d220 92be 9b1c 49be b152 ae3c
000000e0: 138a e8bd 00f0 67b9 7029 71bd 4a75 78be
000000f0: c61e bcbe 9474 ea3d b16d 2bbe 5806 c3bd
00000100: 1f6e 78be 1057 9b3c f58d f33d f068 0cbe
00000110: 16ef 8a3e 24c8 943e d873 31be 645f b8be
00000120: 56e7 953e e4f5 333e c046 ab3e 30c8 06be
00000130: 23be a13e f99c 1c3d a69c 4abe 2c62 6c3e
00000140: ca4c 763e bb15 9f3d 4dea 6a3e 65cc 32be
00000150: 9467 263e fa5e 943e b7a4 8b3e 1419 5fbe
00000160: 9daf e63d e663 963e d759 4cbe 585b 103d
00000170: 134b 6bbe 8b8d 953e d1ea ac3e f24d 653e
00000180: 6478 923d 1947 bbbe f481 9c3d 2f73 52be
00000190: d189 88be cb64 8f3e b05c a43e 0f72 a4be
000001a0: a292 1dbe 79c0 ac3e 8834 073d c4aa e03d
000001b0: f035 3bbd 7ca6 bfbd 26b6 9cbe 59f1 08be
000001c0: 6813 f4bd cc78 a93d 3217 3cbe 3057 e8bd
000001d0: a343 8e3e 5439 a1be c854 0dbd b75c 88bc
000001e0: 8b1e 55be c0dc 7dbd 943d c6bd eebf 173e
000001f0: 07c6 5fbe 9b75 3fbd d890 523d 9234 09be
00000200: 04d2 073d 9670 5e3e ee55 4fbe ed0f c03e
00000210: 98c3 80be 4187 463c 9f4f 5abe 3ee5 bbbe
00000220: 3cc6 2cbd e313 913e dfe1 9bbe 4259 223d
00000230: 278d 9b3e adb3 853e 78cf 70be a0da 5dbc
00000240: 41f9 12be 2d0e 713d 4025 82be f738 4dbe
00000250: 46be 043e a431 b5bd 87af 363e def5 60be
00000260: 375e 403e 9613 79be 7148 0e3e 3c5f e8bd
00000270: 2c35 edbd a71f 833d 1575 73be 67cf c0be
00000280: f797 113e f200 d53d ce07 1e3e 354d 613e
00000290: 1834 08be 12b6 8cbe a4ed b53e 05e3 743b
000002a0: d220 b6ba 53e7 563d d8c5 aabe 1cd4 2b3e
000002b0: d2bb b2bc e6d6 443e 2287 293e e5e4 ba3e
000002c0: 98a6 623d 903b 87bc 728b 3abe 52a8 91be
000002d0: c0d0 15bd 700f 3ebe 84e6 8c3e e326 7dbe
000002e0: 8108 8d3e 13e6 133e 7341 4b3e 6026 85bc
000002f0: 1bc5 35bd c075 3c3d 103d 943c 23e9 99be
00000300: b81f 17bd 0a06 423e 3477 96be a686 2dbe
00000310: e040 56bc 9877 203d acfd a2be 7ffd 093e
00000320: fff0 96be cd08 88be eb22 963c cfd7 28be
00000330: a3c6 a23e c006 74be 2f2a 4e3e f1d4 8c3e
00000340: c584 9c3d 3a73 0d3e 84a5 9fbd 4606 80be
00000350: 2010 573e 193d a9be fa09 60bd 4816 433e
00000360: 8135 2abe 2570 eebb 4003 2ebe 552a 513e
00000370: 1197 b73e c0eb 433c 5f0a 2b3e f443 263e
00000380: 4ad4 ec3d cece bebe 93fe a9be 8b41 4bbe
00000390: bf72 883e 1e44 dfbc e827 8bbe 657b 96be
000003a0: 73ea d13d 55c2 ed3d 48bd 8b3e 03c5 ac3e
000003b0: 3b84 2ebe c0b0 253e 57e1 d93e d6aa 53be
000003c0: df0b 673d 3ec2 48be b49e 5d3e c5f0 9ebe
000003d0: fc1c fd3c 5111 353d ca4a bbbe 6c11 39be
000003e0: 8094 84bd 5c37 4dbe ff7b 843e 3abe d03c
000003f0: e52e 953e aa6d 2d3d 5424 b6bb ba18 2abd

lin1.0.bias f4 [850]
0.17995483 -0.19269113 0.34449416 -0.32987246 -0.10988049 -0.09408134 -0.27752614 0.13673292
0.37332183 0.34930936 -0.3642843 0.2916053 -0.31385246 -0.34356466 -0.13078412 -0.16201353
-0.16263816 0.27315798 -0.08316364 -0.115380675 0.13219024 0.06517845 -0.10730137 0.1709155
-0.2717641 -0.34879887 0.33485618 -0.019366473 -0.0432484 0.10844074 -0.18402562 -0.22818047
0.2103279 0.23412074 0.36211228 -0.26693714 0.07499908 -0.11684681 0.24517104 -0.26232788
0.223189 0.29110038 -0.08321787 -0.11535684 -0.059761025 -0.34184945 -0.21212637 -0.064331084
-0.26129362 0.29737583 -0.1987926 0.13109447 0.2776012 0.083168395 0.12548657 -0.29130054
-0.27306458 0.1980659 0.29384533 0.18620922 -0.12709731 -0.33878878 0.35296324 -0.10772712
0.057850644 0.3198161 0.24125291 0.12069617 0.31974176 0.13329355 -0.17247158 -0.14931466
-0.29125324 -0.025344133 -0.064647265 0.04629819 -0.22191362 0.11107649 -0.019122988 -0.028244603
0.037426174 -0.24089535 -0.1403211 0.008808502 -0.31924713 -0.25965637 -0.1877493 -0.23953736
0.04437378 0.07991366 -0.3321959 0.19575503 0.3443199 -0.3652375 -0.33058593 0.1685169
-0.09014923 -0.18779455 -0.23528895 0.35823408 0.01909157 0.272402 0.24780211 -0.23648141
-0.04352936 0.04969944 0.33716515 -0.094885945 0.25254667 0.23599368 -0.18842627 0.3593207
-0.28681213 0.28136298 0.23179796 0.18210764 -0.02746491 0.20118867 0.35851878 -0.34064597
-0.3259483 0.053941965 -0.34570393 -0.30793077 -0.05930122 -0.27004573 -0.3100346 -0.017449537
0.11102964 -0.019875629 -0.33560377 -0.21493247 0.2627954 -0.07376223 -0.05690539 -0.039453592
-0.29830918 0.1727729 0.37504715 -0.2761517 -0.06623281 -0.09665435 -0.34127873 -0.37634265
0.13503113 0.3579609 0.009800563 0.12499443 0.07681619 -0.15109658 -0.21412334 0.0030759573
0.074567765 0.1828241 -0.043796718 0.16203663 -0.31011593 -0.043475866 -0.053530544 0.30835488
-0.36417067 0.18913373 -0.3639513 -0.32610756 -0.3678692 -0.10504964 0.02353865 0.106880546
0.26477858 0.12430301 -0.2536622 0.034223318 0.17498961 0.10832074 0.17110345 -0.37553027
-0.26452 -0.12930566 -0.3212607 -0.10815379 -0.004239142 -0.21584415 0.062369168 -0.3266739
-0.13383532 -0.24555925 0.29682043 -0.25099957 0.22495529 -0.058294535 0.13434747 0.033253223
0.08395186 0.036243886 -0.14478523 0.12635049 -0.1742147 -0.067646176 -0.31353378 0.29180285
0.28413132 0.14697507 0.34913483 0.095508724 0.26093498 0.09844977 -0.08012527 -0.21248895
-0.12565178 0.21807691 -0.052743673 0.06230676 0.01091817 -0.08736339 -0.007755995 0.08901611
0.020216852 0.138939 -0.29604006 -0.17478089 -0.122839004 -0.054528862 -0.2609747 -0.06549007
0.1755946 0.10565892 -0.15179859 0.033522934 -0.13665105 0.11805788 -0.070623726 -0.056356966
-0.17156361 0.11028963 0.2529783 -0.02892512 -0.09355736 0.02854091 0.15436432 -0.034074903
0.1791201 -0.24694277 -0.3602655 0.12612095 -0.29410732 -0.027946472 -0.1420032 -0.23891449
-0.08577913 -0.31691444 0.36639497 0.18124183 -0.24728896 -0.208584 -0.051941466 0.21751377
00000000: 1446 383e d350 45be 8a61 b03e 0be5 a8be
00000010: 0609 e1bd b8ad c0bd e817 8ebe b703 0c3e
00000020: 0a24 bf3e add8 b23e 7983 babe 4a4d 953e
00000030: 45b1 a0be b5e7 afbe 46ec 05be e0e6 25be
00000040: 9e8a 26be 5ddb 8b3e b351 aabd b44c ecbd
00000050: e15c 073e 477c 853d d2c0 dbbd 7904 2f3e
00000060: aa24 8bbe c495 b2be 4572 ab3e 70a6 9ebc
00000070: 3c25 31bd 2e16 de3d 3671 3cbe 24a8 69be
00000080: 3260 573e 59bd 6f3e c866 b93e fcab 88be
00000090: 1e99 993d 614d efbd 1e0e 7b3e d74f 86be
000000a0: a88b 643e 1c0b 953e 216e aabd 3540 ecbd
000000b0: fac7 74bd e406 afbe a837 59be 04c0 83bd
000000c0: 47c8 85be a541 983e 4a90 4bbe a13d 063e
000000d0: bf21 8e3e 3154 aa3d 8d7f 003e 5825 95be
000000e0: 1fcf 8bbe cad1 4a3e e572 963e a1ad 3e3e
000000f0: cc25 02be b975 adbe 99b7 b43e 09a0 dcbd
00000100: ccf4 6c3d f0be a33e 010b 773e 8e2f f73d
00000110: 31b5 a33e 1b7e 083e 649c 30be f1e5 18be
00000120: 251f 95be 809e cfbc c965 84bd 2ca3 3d3d
00000130: 533d 63be 127c e33d d0a7 9cbc 3a61 e7bc
00000140: 304c 193d 45ad 76be 56b0 0fbe 8951 103c
00000150: 5c74 a3be aef1 84be 5a41 40be 4849 75be
00000160: 48c1 353d c6a9 a33d 9515 aabe 0274 483e
00000170: b34a b03e 6900 bbbe 8f42 a9be b28f 2c3e
00000180: 29a0 b8bd 374d 40be 96ef 70be 756a b73e
00000190: ed65 9c3c 4678 8b3e d6bf 7d3e 2f28 72be
000001a0: d84b 32bd a491 4b3d e9a0 ac3e 9053 c2bd
000001b0: cc4d 813e 54a8 713e d1f2 40be e2f8 b73e
000001c0: 0ad9 92be cf0e 903e 725c 6d3e 6d7a 3a3e
000001d0: 17fe e0bc 6704 4e3e c68f b73e 2669 aebe
000001e0: b2e2 a6be 40f2 5c3d 1b00 b1be 1aa9 9dbe
000001f0: d6e5 72bd 6f43 8abe dbbc 9ebe 55f2 8ebc
00000200: 8263 e33d 37d2 a2bc 42d4 abbe 4217 5cbe
00000210: 1e8d 863e a710 97bd a015 69bd 179a 21bd
00000220: fbbb 98be 61eb 303e 2e06 c03e c163 8dbe
00000230: 11a5 87bd b7f2 c5bd 16bc aebe fcaf c0be
00000240: 9a45 0a3e a746 b73e 8a92 203c 14fd ff3d
00000250: ce51 9d3d 10b9 1abe 2643 5bbe 0096 493b
00000260: fcb6 983d 3e36 3b3e 3064 33bd eeec 253e
00000270: 84c7 9ebe c013 32bd d842 5bbd b1e0 9d3e
00000280: 9474 babe 46ac 413e d357 babe 92f7 a6be
00000290: 5a59 bcbe 4424 d7bd 20d4 c03c 30e4 da3d
000002a0: 0f91 873e 9492 fe3d 03e0 81be c02d 0c3d
000002b0: 7a30 333e 44d7 dd3d be35 2f3e 8145 c0be
000002c0: 2a6f 87be b468 04be 487c a4be bc7f ddbd
000002d0: 80e8 8abb 4006 5dbe d076 7f3d cd41 a7be
000002e0: 200c 09be e273 7bbe d9f8 973e 0483 80be
000002f0: ae5a 663e 40c6 6ebd 6292 093e 8834 083d
00000300: f4ee ab3d 7874 143d 9442 14be 0662 013e
00000310: 5765 32be 148a 8abd 8087 a0be 2f67 953e
00000320: a979 913e a280 163e cdc1 b23e 149a c33d
00000330: 4599 853e 08a0 c93d b818 a4bd b496 59be
00000340: dcaa 00be 8e4f 5f3e c009 58bd 6035 7f3d
00000350: 20e2 323c 94eb b2bd 0026 febb 144e b63d
00000360: d09d a53c 0646 0e3e 9092 97be c3f9 32be
00000370: 0493 fbbd a859 5fbd 7a9e 85be a81f 86bd
00000380: 12cf 333e b463 d83d 1771 1bbe 584f 093d
00000390: 41ee 0bbe 54c8 f13d 2ca3 90bd 90d6 66bd
000003a0: 5fae 2fbe 88df e13d 5f86 813e 60f4 ecbc
000003b0: 009b bfbd a0ce e93c ae11 1e3e 2092 0bbd
000003c0: 426b 373e 91de 7cbe b874 b8be da25 013e
000003d0: 3c95 96be 00f0 e4bc 4969 11be 00a6 74be
000003e0: f8ac afbd 9c42 a2be 1f98 bb3e 7597 393e
000003f0: 5139 7dbe 0b97 55be 93c0 54bd eebb 5e3e

lin2.0.weight f4 [1250, 7]
-0.31918994 0.29766968 0.16145125 -0.07198626 -0.3389606 0.0316028 -0.37426245 0.2716363
0.22172219 0.07937695 -0.28409523 0.35290453 0.16145225 -0.20155211 -0.12669311 -0.2851761
0.0061786827 0.04931764 -0.23517446 0.34935328 0.35977158 -0.21268752 -0.372154 0.0074195717
-0.06895412 -0.17545953 0.37185964 0.13217728 0.08922801 -0.14889845 0.39038172 0.124756284
0.3072227 0.33163676 0.09890157 -0.3193999 0.36950442 -0.2066992 -0.36522314 0.21546063
0.058565363 0.025036354 -0.20039396 -0.078541584 -0.33762622 -0.3724551 0.31073454 0.09220398
0.035407137 0.26746416 -0.0031903088 -0.100667775 -0.27839392 -0.0858335 0.23513551 -0.35015658
-0.36130175 0.18962584 0.28550613 -0.024152836 0.2717251 0.32908335 0.07288486 0.21897027
0.2643988 -0.049705356 0.28872332 0.0053682225 0.31214195 -0.2630473 0.32021928 0.11903485
0.15236574 -0.06454303 -0.13330972 -0.30406326 0.24489126 0.17230266 0.0144100785 0.3081946
-0.30087525 -0.245907 0.119138755 -0.15134725 0.2596342 -0.121533394 0.34888124 -0.25042066
0.1366311 -0.24024084 0.07676312 -0.24007414 0.14482759 -0.32083285 0.011324451 0.2162899
0.22082992 0.10052579 0.044951566 -0.025337461 0.34572062 -0.25895458 0.04880142 -0.20633698
0.41500747 0.22125138 0.2136289 0.1010273 -0.31401032 0.025543263 0.28368062 0.08886399
-0.004889518 -0.31719032 -0.10442823 0.08026183 -0.36221114 -0.32648882 -0.22848406 -0.31972882
-0.22015119 0.1674926 -0.3430856 -0.019070625 0.30011538 -0.21064508 -0.0063029528 -0.16052905
-0.0064157248 -0.15125868 -0.31217426 -0.013584435 -0.26219052 0.041510463 -0.34851635 -0.11402869
0.18613353 -0.36773714 -0.12170607 0.097113006 0.11575043 -0.37027752 0.33214697 -0.30045754
-0.22156389 -0.17859298 -0.20127618 -0.30367926 -0.3593094 0.17467666 0.08506529 -0.2972784
0.33459267 0.22854878 0.12257939 -0.0052762963 -0.047523428 0.23888676 0.15751255 0.24077368
0.21658522 -0.035741147 0.05338374 -0.1583445 -0.09553832 0.051296562 0.11732343 0.055083465
-0.34979102 -0.13168646 -0.28623688 0.15652946 0.12058526 -0.16828609 -0.26590514 0.1832986
0.23656702 -0.010338336 -0.1849788 0.1385854 -0.34857568 0.15109551 -0.15651798 0.28491005
0.07851094 0.14262351 -0.35282376 0.020877276 0.13499917 0.12478214 0.34559417 0.24072441
0.002512216 0.17639256 -0.21609905 0.22154012 -0.3136509 0.1650512 -0.27015564 0.022066412
-0.07436952 0.3586817 0.063120574 -0.24396813 -0.17224744 -0.29526797 -0.36060226 -0.06390125
-0.04487872 0.31443122 -0.05938153 -0.04580945 0.2677753 0.05208876 0.014198679 0.18172096
-0.022095248 0.32428747 0.21573803 0.07265424 -0.1918752 0.2874085 0.022556651 -0.1973535
-0.049696553 0.032282393 0.20358102 -0.18179193 0.19096895 -0.21700333 0.31524283 0.25642642
-0.25161445 -0.10908719 0.18237458 -0.11222923 0.103832394 0.19297773 -0.3014426 -0.06827899
-0.16662756 0.014674975 0.37971708 0.25142696 0.35179526 0.33145365 -0.2817666 0.114126444
-0.09366879 0.2609574 0.05430925 -0.24108204 -0.152174 0.05996103 0.0087003 0.07540028
00000000: dd6c a3be 2968 983e 7a53 253e 886d 93bd
00000010: 3e8c adbe f071 013d 549f bfbe ea13 8b3e
00000020: 240b 633e 6290 a23d ee74 91be e7af b43e
00000030: bd53 253e ad63 4ebe d7bb 01be 9a02 92be
00000040: 8c76 ca3b 4b01 4a3d 93d1 70be 6fde b23e
00000050: fb33 b83e c2ca 59be f88a bebe e11f f33b
00000060: d137 8dbd aaab 33be 6364 be3e 7b59 073e
00000070: 2dbd b63d d678 18be 1de0 c73e 3980 ff3d
00000080: 4b4c 9d3e 4bcc a93e e88c ca3d 6288 a3be
00000090: af2f bd3e f5a8 53be 87fe babe b6a1 5c3e
000000a0: 3ce2 6f3d 0a19 cd3c 1334 4dbe 69da a0bd
000000b0: 58dd acbe 6fb2 bebe 9918 9f3e 71d5 bc3d
000000c0: 1307 113d 10f1 883e 8014 51bb e82a cebd
000000d0: a689 8ebe 79c9 afbd 5dc7 703e b947 b3be
000000e0: 8bfc b8be 472d 423e dc2d 923e 2bdc c5bc
000000f0: 8d1f 8b3e 9d7d a83e a844 953d be39 603e
00000100: 485f 873e d897 4bbd 8bd3 933e eae7 af3b
00000110: 12d1 9f3e 23ae 86be c8f3 a33e 8bc8 f33d
00000120: c405 1c3e 232f 84bd 5882 08be 2eae 9bbe
00000130: c6c4 7a3e 1c70 303e 4018 6c3c afcb 9d3e
00000140: 520c 9abe 0bcf 7bbe 05ff f33d c6fa 1abe
00000150: c6ee 843e 80e6 f8bd 90a0 b23e 2337 80be
00000160: 06e9 0b3e b201 76be fc35 9d3d ffd5 75be
00000170: af4d 143e 3444 a4be 318a 393c 197b 5d3e
00000180: 3d21 623e 77e0 cd3d 221f 383d 8290 cfbc
00000190: 4b02 b13e b295 84be ffe3 473d 004a 53be
000001a0: dc7b d43e b98f 623e 89c1 5a3e 67e7 ce3d
000001b0: f6c5 a0be 1b40 d13c 963e 913e 53fe b53d
000001c0: 4038 a0bb c566 a2be 78de d5bd 5060 a43d
000001d0: bd73 b9be 8b29 a7be baf7 69be 7fb3 a3be
000001e0: 506f 61be 2e83 2b3e eaa8 afbe 003a 9cbc
000001f0: b9a8 993e 58b3 57be 0089 cebb ba61 24be
00000200: 003b d2bb 8ee3 1abe 4ed5 9fbe 4091 5ebc
00000210: d63d 86be e006 2a3d bc70 b2be e087 e9bd
00000220: ca99 3e3e 0b48 bcbe 0841 f9bd 2fe3 c63d
00000230: 900e ed3d 0495 bdbe 2b0f aa3e 92d5 99be
00000240: a5e1 62be 14e1 36be 581b 4ebe d97b 9bbe
00000250: 67f7 b7be 70de 323e b636 ae3d e034 98be
00000260: bb4f ab3e b108 6a3e e70a fb3d c8e4 acbb
00000270: eda7 42bd bb9e 743e f84a 213e 608d 763e
00000280: 84c8 5d3e 4f65 12bd e9a8 5a3d 1025 22be
00000290: 98a9 c3bd 581c 523d 4447 f03d 339f 613d
000002a0: cf17 b3be d1d8 06be a48d 92be 4249 203e
000002b0: 68f5 f63d 3053 2cbe b824 88be a1b2 3b3e
000002c0: a03e 723e 2062 29bc 156b 3dbe 55e9 0d3e
000002d0: 8378 b2be c8b8 1a3e 4046 20be bbdf 913e
000002e0: 58ca a03d e60b 123e 51a5 b4be d206 ab3c
000002f0: 393d 0a3e c78d ff3d b8f1 b03e 7680 763e
00000300: fea3 243b 40a0 343e 1249 5dbe 6adb 623e
00000310: da96 a0be 2f03 293e d751 8abe 9fc4 b43c
00000320: 0c4f 98bd 21a5 b73e 5c45 813d c8d2 79be
00000330: a261 30be 5d2d 97be dca0 b8be a9de 82bd
00000340: c0d2 37bd 21fd a03e 0c3a 73bd b1a2 3bbd
00000350: d819 893e 065b 553d 93a1 683c 0f15 3a3e
00000360: 1801 b5bc 0209 a63e 6eea 5c3e bfcb 943d
00000370: ef7a 44be 3527 933e bac8 b83c 0917 4abe
00000380: 9d8e 4bbd 8b3a 043d 8b77 503e aa27 3abe
00000390: 5d8d 433e 1f36 5ebe 8267 a13e 534a 833e
000003a0: 9cd3 80be 1b69 dfbd 67c0 3a3e 70d8 e5bd
000003b0: 14a6 d43d f49b 453e af56 9abe dbd5 8bbd
000003c0: 6aa0 2abe 4e6f 703c 476a c23e 09bb 803e
000003d0: 821e b43e 4bb4 a93e b643 90be 20bb e93d
000003e0: 6cd5 bfbd 359c 853e 6073 5e3d 36de 76be
000003f0: 80d3 1bbe b299 753d b48b 0e3c 766b 9a3d

lin2.0.bias f4 [1250]
0.13642183 0.39132464 0.27840415 0.18406926 0.31310377 0.042222444 0.12896453 0.23587999
-0.08420273 -0.07152559 0.3539729 0.019999994 0.07860895 -0.024355058 -0.14331047 -0.010642568
0.23216553 -0.2962581 -0.29673767 -0.29963264 -0.31348568 -0.047181334 0.25865808 -0.18175799
-0.1707419 -0.2906057 -0.2135874 -0.19260812 0.3544056 0.00084485183 0.12310371 0.113425
-0.13606302 -0.07044426 -0.27034724 -0.35211384 0.31815958 -0.22157376 -0.1900451 0.302643
-0.19285709 0.15454213 -0.267902 -0.22300734 0.116335414 -0.031587325 0.22488391 -0.21876258
0.1880534 -0.1844256 -0.21936584 -0.0921923 0.35216936 0.15627335 -0.28163752 -0.29818943
0.2267824 -0.3404872 0.29453823 -0.20555975 0.083131045 0.059773184 0.03031248 -0.26307684
-0.11311958 -0.36141193 -0.32566905 -0.2182311 -0.15001157 -0.10847688 -0.12300366 -0.08316631
0.026357163 0.32015175 0.07658026 -0.2851737 0.15804115 0.21727994 -0.026405543 0.0151052335
0.38752902 0.30908355 -0.06695676 0.09152349 0.35454637 -0.10298762 -0.36132225 -0.21426776
-0.21799266 0.32547775 -0.18960892 0.30342516 -0.13636424 0.15788965 0.29589015 -0.36801565
-0.04179432 0.051356044 -0.25233972 -0.19838655 -0.051214516 -0.28278953 -0.1209491 -0.16258292
0.030022811 -0.26945674 0.071614 0.09661883 0.18971923 -0.26100776 0.08871878 0.26528913
0.27966422 0.09343059 -0.35116237 0.12271118 0.028295597 -0.13903554 -0.03430189 -0.18562731
-0.3533556 -0.0044775605 -0.08922994 0.028714193 0.08247792 -0.2610818 0.12593317 0.12199365
0.32946223 -0.124685846 -0.116999626 0.2591371 -0.20241445 0.25069416 -0.26692724 0.20326461
0.03391688 0.43455425 0.09143228 -0.25980437 -0.21975192 -0.17664783 -0.21972877 -0.22634426
-0.16630565 -0.1838097 -0.1275125 -0.12942266 0.34712738 -0.25859556 -0.11720407 0.24767187
0.16102602 0.2787992 -0.19005667 -0.0026040282 0.3231702 -0.14129017 0.35955703 -0.271372
0.055853724 -0.20936108 0.36881533 -0.202733 -0.10125176 -0.377709 0.2857025 -0.19987176
-0.20062819 -0.35058692 0.27947062 -0.2797551 0.13369597 -0.20820808 0.04123931 0.107287265
0.19672999 0.34147325 -0.20069769 -0.30846497 -0.22435427 -0.11582506 -0.012702769 -0.30210498
-0.023533255 0.077458784 -0.23454264 -0.28964368 0.11999532 -0.2522626 0.09345048 -0.22621112
0.18116622 -0.07087803 0.13008863 0.072177544 0.33371937 -0.30470812 -0.2926592 -0.08215978
-0.15521355 -0.13197905 -0.14228901 -0.24212967 -0.028120993 0.03328084 -0.16995332 0.35097605
0.1933245 0.04530975 0.18744148 0.36407402 -0.2973143 0.3227385 0.07142136 0.17509432
-0.23300877 -0.08554304 0.34903523 0.17414375 -0.37260365 -0.24828537 -0.1684477 -0.23611987
-0.22490036 -0.31583738 0.2754133 -0.11833963 -0.28219837 0.022045903 0.46683306 0.32229978
-0.33314657 -0.22907753 -0.2634653 -0.33074123 0.28602538 0.059508972 0.09184325 0.18023746
0.16271213 0.08133427 -0.003847308 -0.26038507 -0.17732675 0.40790945 0.14406829 -0.15414587
0.2998629 -0.3471671 0.35876006 0.26712647 -0.3622471 -0.097164504 -0.33164108 -0.1143057
00000000: 2ab2 0b3e b45b c83e fd8a 8e3e a77c 3c3e
00000010: 234f a03e 71f1 2c3d 470f 043e 868a 713e
00000020: 7b72 acbd 027c 92bd f03b b53e 07d7 a33c
00000030: bbfd a03d 4284 c7bc fbbf 12be 2a5e 2ebc
00000040: cdbc 6d3e 24af 97be 00ee 97be 7369 99be
00000050: 3281 a0be 3741 41bd d56e 843e c41e 3abe
00000060: f7d6 2ebe 45ca 94be a8b6 5abe 103b 45be
00000070: a774 b53e 0c79 5d3a cc1d fc3d 5e4b e83d
00000080: 1b54 0bbe 1545 90bd f46a 8abe 4448 b4be
00000090: d0e5 a23e 3be4 62be 2f9b 42be 06f4 9a3e
000000a0: 547c 45be 4b40 1e3e 732a 89be 095c 64be
000000b0: 4341 ee3d b661 01bd f847 663e 4c03 60be
000000c0: 1291 403e 11da 3cbe 70a1 60be 51cf bcbd
000000d0: 8b4f b43e 1f06 203e cb32 90be 49ac 98be
000000e0: a539 683e 5754 aebe b7cd 963e 417e 52be
000000f0: 9c40 aa3d bad4 743d e151 f83c 02b2 86be
00000100: 3dab e7bd fc0a b9be 18be a6be f977 5fbe
00000110: a29c 19be 2029 debd 58e9 fbbd 1953 aabd
00000120: faea d73c eeea a33e 1dd6 9c3d 4a02 92be
00000130: 8ad5 213e a27e 5e3e 7050 d8bc f17b 773c
00000140: 346a c63e 3340 9e3e a020 89bd ab70 bb3d
00000150: 1a87 b53e 2ceb d2bd 3bff b8be 0269 5bbe
00000160: 7839 5fbe 05a5 a63e d728 42be 8b5a 9b3e
00000170: 11a3 0bbe d3ad 213e ea7e 973e 8c6c bcbe
00000180: 8530 2bbd b75a 523d ac32 81be d825 4bbe
00000190: 50c6 51bd cac9 90be 29b4 f7bd 237c 26be
000001a0: 66f2 f53c 3cf6 89be 5caa 923d 18e0 c53d
000001b0: c245 423e cfa2 85be 31b2 b53d fad3 873e
000001c0: 2630 8f3e 8a58 bf3d 8ecb b3be 0050 fb3d
000001d0: 2bcc e73c 555f 0ebe 2380 0cbd 1615 3ebe
000001e0: 06eb b4be 80b8 92bb 30be b6bd 073a eb3c
000001f0: 2fea a83d 84ac 85be a0f4 003e cfd7 f93d
00000200: 46af a83e 4b5b ffbd 809d efbd 9ead 843e
00000210: bc45 4fbe fc5a 803e b0aa 88be 9924 503e
00000220: 6dec 0a3d e57d de3e d940 bb3d 1405 85be
00000230: a606 61be 2be3 34be 9400 61be cac6 67be
00000240: 074c 2abe 9c38 3cbe a392 02be 6087 04be
00000250: aeba b13e a366 84be b008 f0bd b29d 7d3e
00000260: 01e4 243e c5be 8e3e 379e 42be 58a8 2abb
00000270: 9176 a53e 5fae 10be dc17 b83e 45f1 8abe
00000280: e0c6 643d c062 56be 5dd5 bc3e 3d99 4fbe
00000290: 155d cfbd 1363 c1be 9947 923e 2fab 4cbe
000002a0: 7a71 4dbe 2180 b3be c616 8f3e 0f3c 8fbe
000002b0: 99e7 083e 8034 55be 8dea 283d 6db9 db3d
000002c0: 9673 493e 95d5 ae3e b283 4dbe 1fef 9dbe
000002d0: 20bd 65be b035 edbd 461f 50bc 81ad 9abe
000002e0: d0c8 c0bc b6a2 9e3d f22b 70be 2d4c 94be
000002f0: 1bc0 f53d 9028 81be f762 bf3d e3a3 67be
00000300: a383 393e 8028 91bd f435 053e d2d1 933d
00000310: 44dd aa3e b402 9cbe 6dd7 95be 6343 a8bd
00000320: 4df0 1ebe 8425 07be 36b4 11be d7f0 77be
00000330: ff5d e6bc 7d51 083d 3e08 2ebe 22b3 b33e
00000340: dcf6 453e b796 393d a9f0 3f3e e967 ba3e
00000350: 9439 98be fb3d a53e 5d45 923d ed4b 333e
00000360: da99 6ebe 3031 afbd bfb4 b23e bd52 323e
00000370: e8c5 bebe 853e 7ebe 8e7d 2cbe 68c9 71be
00000380: 484c 66be 70b5 a1be f902 8d3e 0c5c f2bd
00000390: 4e7c 90be 9c99 b43c be04 ef3e 7a04 a53e
000003a0: 3092 aabe 4d93 6abe ece4 86be ea56 a9be
000003b0: eb71 923e aebf 733d 5018 bc3d 2b90 383e
000003c0: 029e 263e 9592 a63d 1e23 7cbb 3151 85be
000003d0: 2595 35be 82d9 d03e a386 133e 6ad8 1dbe
000003e0: a187 993e e3bf b1be 66af b73e cdc4 883e
000003f0: 7478 b9be 2ffe c6bd dccc a9be 1b19 eabd

conv1.root f4 [17, 50]
0.12663196 0.10265843 -0.07293175 0.22728829 0.052235145 0.018785056 -0.11769248 -0.24029984
0.05461013 -0.021822223 0.077918164 0.05669138 -0.18661605 0.04854836 -0.12383648 0.13426872
0.05353713 0.060321648 0.2265961 -0.06760374 0.046475757 0.2048689 0.21986106 0.0063225254
-0.21620259 0.24341346 0.22800334 0.23650903 0.22535554 -0.1861131 -0.039207116 0.12455284
0.17625327 0.13596664 0.1723418 -0.0928948 -0.14350452 -0.17838398 -0.22765183 -0.22756946
0.19094369 -0.0025080747 -0.0793279 -0.12816083 -0.22326738 -0.027585447 -0.13745314 -0.0120646665
-0.053698763 -0.0858936 0.19778144 -0.19807366 0.045480635 0.23115966 -0.012631342 0.105523445
-0.07173422 -0.11110572 -0.11441912 0.1792109 0.047926094 -0.1843119 -0.07322046 0.056874163
0.13702501 -0.10500457 0.03780608 -0.1874965 0.07218224 0.17751282 -0.13444018 0.015179227
0.07396487 0.039913453 -0.047769897 0.11140998 -0.11179862 0.15332334 0.1138175 0.011374546
0.15809335 0.19125547 -0.17771117 -0.08815083 0.045547746 0.06207195 -0.16960128 -0.117983826
0.2030231 -0.05121868 0.0069319964 0.1767175 -0.12133281 -0.16066413 -0.047224887 -0.07822344
0.23223053 0.19826056 0.083304755 -0.15743555 -0.23334856 -0.23803815 0.10794977 0.06339551
-0.14603014 0.018248977 0.049234077 0.18097748 0.17304818 -0.23848584 0.1101077 -0.075736135
0.21900669 -0.20524102 0.15156767 0.116745114 -0.22189423 0.056751028 0.18820971 -0.044714082
0.14396481 -0.00245232 0.05208492 0.07648672 -0.09430584 -0.17045315 -0.16534448 0.14677338
-0.1382081 -0.23562482 0.02839056 -0.10826726 0.07832435 0.11418618 0.0540952 -0.052656434
-0.053950813 0.04929843 -0.21812457 0.038386367 0.11437137 -0.1479849 -0.029242115 -0.024457417
0.11593948 -0.060712665 -0.17472821 -0.0016749464 0.059701752 -0.008965962 0.10992539 -0.15213676
0.19291714 0.1618459 0.06520474 -0.028821215 -0.14729038 0.049715847 -0.15134467 -0.23269024
-0.12894416 -0.1871147 0.03474152 0.15040499 -0.11785732 -0.050398245 -0.004596621 -0.003943518
0.19738832 -0.1527124 -0.11532004 -0.1673495 -0.15751821 -0.15049979 -0.2030214 0.11292562
-0.12239346 -0.11364162 -0.16067505 -0.08783071 0.19464177 0.08962667 0.033765584 -0.031336233
0.11513376 -0.21980874 0.0914028 -0.06983502 0.03279534 0.18024439 0.03274852 0.03857106
0.027050436 0.22656316 -0.037836134 0.06465232 0.1386039 0.06222546 0.16168907 -0.22684033
0.20947894 0.0027856678 0.12842965 0.055834413 -0.004189357 0.14951405 -0.22348015 -0.19250885
0.09143022 0.23479721 0.12966603 -0.14101604 -0.025980547 -0.19971262 -0.030688733 0.17069042
0.06283742 -0.2257706 -0.174928 -0.07615636 0.2053796 -0.18280439 0.11567405 -0.0887512
0.14570358 -0.0019554645 -0.20109001 0.16698736 -0.17471395 -0.12227298 -0.019808963 0.09439778
-0.015510231 0.12977204 -0.10068087 0.030662715 -0.09477407 0.15997356 0.16660622 0.06323156
-0.13222939 -0.11270277 -0.07078366 0.1537197 0.11445436 0.017846197 -0.118331656 0.03154251
0.13638324 -0.030608416 -0.048522037 0.2216868 0.10389876 0.003589424 0.0018913193 -0.13762043
00000000: cfab 013e 953e d23d 3e5d 95bd 43be 683e
00000010: 85f4 553d 1ee3 993c c108 f1bd 2911 76be
00000020: dfae 5f3d 85c4 b2bc 8f93 9f3d 3835 683d
00000030: 4718 3fbe a5da 463d fb9d fdbd bd7d 093e
00000040: c049 5b3d d513 773d cf08 683e d473 8abd
00000050: 5d5d 3e3d 27c9 513e 4223 613e 302d cf3b
00000060: 3664 5dbe 6141 793e b579 693e 6c2f 723e
00000070: 9ac3 663e 6f94 3ebe a497 20bd 8f15 ff3d
00000080: bd7b 343e d73a 0b3e 5e7a 303e a13f bebd
00000090: d9f2 12be 4aaa 36be 901d 69be f807 69be
000000a0: be86 433e 835e 24bb ab76 a2bd 983c 03be
000000b0: 34a0 64be e0fa e1bc 84c0 0cbe e1aa 45bc
000000c0: 3cf3 5bbd fce8 afbd 3887 4a3e d2d3 4abe
000000d0: e749 3a3d 1eb5 6c3e b0f3 4ebc ad1c d83d
000000e0: 64e9 92bd 658b e3bd 9254 eabd 1083 373e
000000f0: 274e 443d 42bc 3cbe 9cf4 95bd e2f4 683d
00000100: 4950 0c3e a30c d7bd 8cda 1a3d 15ff 3fbe
00000110: 48d4 933d ecc5 353e b0aa 09be 4bb2 783c
00000120: e57a 973d 4a7c 233d 5eaa 43bd ea2a e43d
00000130: adf6 e4bd cb00 1d3e 2619 e93d 4e5c 3a3c
00000140: 39e3 213e 79d8 433e ebf9 35be 6c88 b4bd
00000150: 4690 3a3d 283f 7e3d f5ab 2dbe 81a1 f1bd
00000160: 4ae5 4f3e aeca 51bd cd25 e33b 6ff5 343e
00000170: 567d f8bd 2385 24be e26e 41bd 9c33 a0bd
00000180: d7cd 6d3e d104 4b3e af9b aa3d c936 21be
00000190: edf2 6ebe 46c0 73be c514 dd3d 81d5 813d
000001a0: ed88 15be e17e 953c aca9 493d 2952 393e
000001b0: 8b33 313e a235 74be 2580 e13d 8c1b 9bbd
000001c0: 4a43 603e b42a 52be 8e34 1b3e 1018 ef3d
000001d0: 3e38 63be c473 683d 0cba 403e 1d26 37bd
000001e0: 836b 133e 1ab7 20bb ff56 553d 12a5 9c3d
000001f0: 6c23 c1bd 458b 2ebe 1050 29be c34b 163e
00000200: 6d86 0dbe a247 71be 5293 e83c 3abb ddbd
00000210: 8468 a03d 72da e93d ee92 5d3d 46ae 57bd
00000220: 87fb 5cbd 27ed 493d 0c5c 5fbe 063b 1d3d
00000230: 893b ea3d 5b89 17be 298d efbc ec5a c8bc
00000240: ae71 ed3d d8ad 78bd f4eb 32be e089 dbba
00000250: d389 743d f8e5 12bc 9020 e13d bdc9 1bbe
00000260: 128c 453e eeba 253e 108a 853d 781a ecbc
00000270: 4ad3 16be d8a2 4b3d 19fa 1abe 5a46 6ebe
00000280: f009 04be ff9a 3fbe 204d 0e3d c403 1a3e
00000290: 2e5f f1bd 646e 4ebd 409f 96bb a038 81bb
000002a0: 2a20 4a3e a460 1cbe ea2c ecbd ab5d 2bbe
000002b0: 744c 21be 9e1c 1abe d8e4 4fbe 8c45 e73d
000002c0: 6ca9 fabd f0bc e8bd 0088 24be 96e0 b3bd
000002d0: 2c50 473e 308e b73d c84d 0a3d 6c5a 00bd
000002e0: 40cb eb3d 8b15 61be 6431 bb3d aa05 8fbd
000002f0: 6854 063d fc91 383e 5023 063d b0fc 1d3d
00000300: e098 dd3c 2c00 683e 10fa 1abd 7068 843d
00000310: 2eee 0d3e 20e0 7e3d d291 253e d548 68be
00000320: a681 563e c08f 363b 1083 033e a0b2 643d
00000330: e046 89bb 361a 193e fbd7 64be 0a21 45be
00000340: c43f bb3d ae6e 703e 2cc7 043e 8266 10be
00000350: 28d5 d4bc 7781 4cbe f066 fbbc 78c9 2e3e
00000360: e8b0 803d 6830 67be 5320 33be def7 9bbd
00000370: 084f 523e 1331 3bbe 84e6 ec3d 30c3 b5bd
00000380: 5233 153e 4027 00bb 8aea 4dbe bcfe 2a3e
00000390: 37e8 32be 426a fabd 6846 a2bc a053 c13d
000003a0: a01e 7ebc f6e2 043e c631 cebd 6030 fb3c
000003b0: e818 c2bd 1cd0 233e d29a 2a3e 8c7f 813d
000003c0: 2467 07be b6d0 e6bd 06f7 90bd b268 1d3e
000003d0: 0c67 ea3d 3032 923c de57 f2bd b832 013d
000003e0: 0ca8 0b3e 80be fabc 0bbf 46bd dd01 633e
000003f0: e0c8 d43d 8b3c 6b3b 25e6 f73a 5fec 0cbe

conv1.bias f4 [50]
0.11815252 -5.1587243 0.083619565 0.04195391 -0.10231676 0.17793433 -0.10279829 0.041394856
-0.044600517 0.34521317 0.3488396 0.8486021 -0.03655805 0.19003394 -0.053784393 0.1212506
0.22708148 -0.071832076 0.6033008 0.09953323 0.20666902 0.1281076 0.13342923 0.07636901
0.2023923 2.1694715 -0.11020811 0.05591373 0.1325711 0.20812567 0.08775743 0.13767488
-0.15844713 0.02789745 -0.07953751 -0.11238117 -0.22681694 0.19863588 -0.06714071 1.1189595
-0.07011155 0.16326974 -0.18872395 0.06479605 0.027917977 -0.21646051 0.12460674 0.082469806
0.036353674 -0.1283392
00000000: f3f9 f13d 4514 a5c0 bc40 ab3d ddd7 2b3d
00000010: 738b d1bd 6b34 363e e987 d2bd a78d 293d
00000020: 08af 36bd c8bf b03e 1b9b b23e fd3d 593f
00000030: e5bd 15bd 4298 423e 064d 5cbd 3c52 f83d
00000040: 0c88 683e b21c 93bd ec71 1a3f 14d8 cb3d
00000050: 0ba1 533e a42e 033e aca1 083e 5b67 9c3d
00000060: ed3f 4f3e 9fd8 0a40 cab4 e1bd cc05 653d
00000070: b8c0 073e e51e 553e 2bba b33d a5fa 0c3e
00000080: f73f 22be 3189 e43c 90e4 a2bd 1928 e6bd
00000090: b342 68be 3467 4b3e 1281 89bd 113a 8f3f
000000a0: a596 8fbd 2f30 273e da40 41be cbb3 843d
000000b0: 3eb4 e43c d3a7 5dbe d231 ff3d eee5 a83d
000000c0: 97e7 143d 5a6b 03be

conv1.nn.0.weight f4 [850, 7]
0.118618384 0.08410322 0.24113229 -0.1313951 0.23526901 0.2898574 0.1301514 -0.13049746
-0.07293537 -0.36500403 0.002765417 -0.32069016 0.20247033 -0.1453346 -0.12347644 -0.13470668
-0.18220806 0.3072971 -0.32825625 -0.2998468 0.23800541 -0.3124963 -0.022944508 -0.17565662
-0.04986697 -0.18495713 0.36604953 0.2809972 -0.35184973 -0.2940597 0.20634001 0.24238208
0.029834816 0.002136267 -0.018711902 0.33528143 -0.3169916 0.2661699 0.15236086 -0.0042492715
0.12562732 0.29094929 0.09247464 -0.1051453 0.27961433 0.32963663 0.26031137 -0.26326093
0.31681383 0.19866301 0.07569721 -0.11038889 0.10072081 -0.28540665 -0.19639818 0.021279665
-0.113544606 -0.00022119284 -0.05887741 -0.24263492 -0.36742228 0.11448017 -0.16741063 -0.09522694
-0.24260758 0.018962413 0.118923105 -0.13711905 0.27135533 0.29058945 -0.17329347 -0.36010277
0.29278058 0.17574269 0.33452415 -0.13162303 0.31590375 0.03823564 -0.19786319 0.23084325
0.2405273 0.07767817 0.22940941 -0.17460783 0.1625045 0.2897871 0.27274105 -0.2178691
0.11263964 0.2937309 -0.19956146 0.035243362 -0.22977857 0.2920955 0.337729 0.22393015
0.07151869 -0.3657768 0.07641974 -0.20551752 -0.26667646 0.28006586 0.32101965 -0.3211827
-0.15387967 0.33740595 0.033009082 0.10970071 -0.045705736 -0.09357926 -0.30607718 -0.13373317
-0.11917764 0.08274993 -0.18368223 -0.11344755 0.27785978 -0.3148905 -0.03450468 -0.016645772
-0.20812432 -0.0619781 -0.09679714 0.14819309 -0.21852885 -0.046743017 0.051407665 -0.1339896
0.03315927 0.21722636 -0.20247623 0.3751215 -0.25149226 0.012117208 -0.21319436 -0.36698335
-0.04218124 0.28335485 -0.30445763 0.039635904 0.30381128 0.26113644 -0.23516643 -0.013540894
-0.14352895 0.05885141 -0.25419044 -0.20041262 0.12963209 -0.08847359 0.17840396 -0.21968791
0.1878594 -0.24323878 0.13894822 -0.113462895 -0.11582407 0.064025216 -0.23775132 -0.37658235
0.14218126 0.10400571 0.15432665 0.22002108 -0.13301122 -0.2748266 0.35532868 0.003736676
-0.0013895279 0.0524667 -0.33354068 0.16780132 -0.021818075 0.19222602 0.16555455 0.36502758
0.055334657 -0.016507894 -0.18217257 -0.2844873 -0.036576033 -0.18560576 0.2751962 -0.24721865
0.2754555 0.14443235 0.19849186 -0.01625365 -0.044377428 0.046010733 0.018095523 -0.30060682
-0.036895484 0.18947616 -0.2938782 -0.16945896 -0.013076991 0.039176553 -0.3183416 0.13475607
-0.2948074 -0.26569214 0.018327197 -0.16488574 0.31792173 -0.238307 0.2013328 0.2750621
0.07642511 0.13813487 -0.077952415 -0.25004786 0.21002245 -0.33054426 -0.054697014 0.19051468
-0.16621973 -0.0072765523 -0.16993427 0.20426305 0.35857442 0.011958063 0.16703175 0.1623686
0.115639284 -0.37267154 -0.33202037 -0.19849221 0.26650044 -0.02725416 -0.27178884 -0.29391018
0.10249796 0.116093315 0.27292848 0.33744058 -0.1704263 0.16180706 0.42554733 -0.20670637
0.056407806 -0.19605348 0.21642572 -0.31043068 0.03089761 0.044205967 -0.36580497 -0.18073052
-0.064736366 -0.20040649 0.25875852 0.025481332 0.2913734 0.042340912 -0.00555853 -0.041527487
00000000: 32ee f23d 4f3e ac3d 62eb 763e 708c 06be
00000010: 5cea 703e 3068 943e 6946 053e 20a1 05be
00000020: 245f 95bd cfe1 babe 003c 353b 8031 a4be
00000030: 6254 4f3e 98d2 14be 37e1 fcbd 8cf0 09be
00000040: c094 3abe 0c56 9d3e 3411 a8be 8585 99be
00000050: b1b7 733e 84ff 9fbe 1ff6 bbbc 54df 33be
00000060: 4f41 4cbd 6765 3dbe d86a bb3e ddde 8f3e
00000070: a625 b4be fe8e 96be cc4a 533e 0233 783e
00000080: 2568 f43c 9d00 0c3b b449 99bc 02aa ab3e
00000090: b94c a2be 6c47 883e 7c04 1c3e 793d 8bbb
000000a0: 73a4 003e 4ef7 943e 5863 bd3d 6b56 d7bd
000000b0: 9c29 8f3e 22c6 a83e 8847 853e 23ca 86be
000000c0: 6c35 a23e 516e 4b3e 2407 9b3d 9213 e2bd
000000d0: b646 ce3d d220 92be 9b1c 49be b152 ae3c
000000e0: 138a e8bd 00f0 67b9 7029 71bd 4a75 78be
000000f0: c61e bcbe 9474 ea3d b16d 2bbe 5806 c3bd
00000100: 1f6e 78be 1057 9b3c f58d f33d f068 0cbe
00000110: 16ef 8a3e 24c8 943e d873 31be 645f b8be
00000120: 56e7 953e e4f5 333e c046 ab3e 30c8 06be
00000130: 23be a13e f99c 1c3d a69c 4abe 2c62 6c3e
00000140: ca4c 763e bb15 9f3d 4dea 6a3e 65cc 32be
00000150: 9467 263e fa5e 943e b7a4 8b3e 1419 5fbe
00000160: 9daf e63d e663 963e d759 4cbe 585b 103d
00000170: 134b 6bbe 8b8d 953e d1ea ac3e f24d 653e
00000180: 6478 923d 1947 bbbe f481 9c3d 2f73 52be
00000190: d189 88be cb64 8f3e b05c a43e 0f72 a4be
000001a0: a292 1dbe 79c0 ac3e 8834 073d c4aa e03d
000001b0: f035 3bbd 7ca6 bfbd 26b6 9cbe 59f1 08be
000001c0: 6813 f4bd cc78 a93d 3217 3cbe 3057 e8bd
000001d0: a343 8e3e 5439 a1be c854 0dbd b75c 88bc
000001e0: 8b1e 55be c0dc 7dbd 943d c6bd eebf 173e
000001f0: 07c6 5fbe 9b75 3fbd d890 523d 9234 09be
00000200: 04d2 073d 9670 5e3e ee55 4fbe ed0f c03e
00000210: 98c3 80be 4187 463c 9f4f 5abe 3ee5 bbbe
00000220: 3cc6 2cbd e313 913e dfe1 9bbe 4259 223d
00000230: 278d 9b3e adb3 853e 78cf 70be a0da 5dbc
00000240: 41f9 12be 2d0e 713d 4025 82be f738 4dbe
00000250: 46be 043e a431 b5bd 87af 363e def5 60be
00000260: 375e 403e 9613 79be 7148 0e3e 3c5f e8bd
00000270: 2c35 edbd a71f 833d 1575 73be 67cf c0be
00000280: f797 113e f200 d53d ce07 1e3e 354d 613e
00000290: 1834 08be 12b6 8cbe a4ed b53e 05e3 743b
000002a0: d220 b6ba 53e7 563d d8c5 aabe 1cd4 2b3e
000002b0: d2bb b2bc e6d6 443e 2287 293e e5e4 ba3e
000002c0: 98a6 623d 903b 87bc 728b 3abe 52a8 91be
000002d0: c0d0 15bd 700f 3ebe 84e6 8c3e e326 7dbe
000002e0: 8108 8d3e 13e6 133e 7341 4b3e 6026 85bc
000002f0: 1bc5 35bd c075 3c3d 103d 943c 23e9 99be
00000300: b81f 17bd 0a06 423e 3477 96be a686 2dbe
00000310: e040 56bc 9877 203d acfd a2be 7ffd 093e
00000320: fff0 96be cd08 88be eb22 963c cfd7 28be
00000330: a3c6 a23e c006 74be 2f2a 4e3e f1d4 8c3e
00000340: c584 9c3d 3a73 0d3e 84a5 9fbd 4606 80be
00000350: 2010 573e 193d a9be fa09 60bd 4816 433e
00000360: 8135 2abe 2570 eebb 4003 2ebe 552a 513e
00000370: 1197 b73e c0eb 433c 5f0a 2b3e f443 263e
00000380: 4ad4 ec3d cece bebe 93fe a9be 8b41 4bbe
00000390: bf72 883e 1e44 dfbc e827 8bbe 657b 96be
000003a0: 73ea d13d 55c2 ed3d 48bd 8b3e 03c5 ac3e
000003b0: 3b84 2ebe c0b0 253e 57e1 d93e d6aa 53be
000003c0: df0b 673d 3ec2 48be b49e 5d3e c5f0 9ebe
000003d0: fc1c fd3c 5111 353d ca4a bbbe 6c11 39be
000003e0: 8094 84bd 5c37 4dbe ff7b 843e 3abe d03c
000003f0: e52e 953e aa6d 2d3d 5424 b6bb ba18 2abd

conv1.nn.0.bias f4 [850]
0.17995483 -0.19269113 0.34449416 -0.32987246 -0.10988049 -0.09408134 -0.27752614 0.13673292
0.37332183 0.34930936 -0.3642843 0.2916053 -0.31385246 -0.34356466 -0.13078412 -0.16201353
-0.16263816 0.27315798 -0.08316364 -0.115380675 0.13219024 0.06517845 -0.10730137 0.1709155
-0.2717641 -0.34879887 0.33485618 -0.019366473 -0.0432484 0.10844074 -0.18402562 -0.22818047
0.2103279 0.23412074 0.36211228 -0.26693714 0.07499908 -0.11684681 0.24517104 -0.26232788
0.223189 0.29110038 -0.08321787 -0.11535684 -0.059761025 -0.34184945 -0.21212637 -0.064331084
-0.26129362 0.29737583 -0.1987926 0.13109447 0.2776012 0.083168395 0.12548657 -0.29130054
-0.27306458 0.1980659 0.29384533 0.18620922 -0.12709731 -0.33878878 0.35296324 -0.10772712
0.057850644 0.3198161 0.24125291 0.12069617 0.31974176 0.13329355 -0.17247158 -0.14931466
-0.29125324 -0.025344133 -0.064647265 0.04629819 -0.22191362 0.11107649 -0.019122988 -0.028244603
0.037426174 -0.24089535 -0.1403211 0.008808502 -0.31924713 -0.25965637 -0.1877493 -0.23953736
0.04437378 0.07991366 -0.3321959 0.19575503 0.3443199 -0.3652375 -0.33058593 0.1685169
-0.09014923 -0.18779455 -0.23528895 0.35823408 0.01909157 0.272402 0.24780211 -0.23648141
-0.04352936 0.04969944 0.33716515 -0.094885945 0.25254667 0.23599368 -0.18842627 0.3593207
-0.28681213 0.28136298 0.23179796 0.18210764 -0.02746491 0.20118867 0.35851878 -0.34064597
-0.3259483 0.053941965 -0.34570393 -0.30793077 -0.05930122 -0.27004573 -0.3100346 -0.017449537
0.11102964 -0.019875629 -0.33560377 -0.21493247 0.2627954 -0.07376223 -0.05690539 -0.039453592
-0.29830918 0.1727729 0.37504715 -0.2761517 -0.06623281 -0.09665435 -0.34127873 -0.37634265
0.13503113 0.3579609 0.009800563 0.12499443 0.07681619 -0.15109658 -0.21412334 0.0030759573
0.074567765 0.1828241 -0.043796718 0.16203663 -0.31011593 -0.043475866 -0.053530544 0.30835488
-0.36417067 0.18913373 -0.3639513 -0.32610756 -0.3678692 -0.10504964 0.02353865 0.106880546
0.26477858 0.12430301 -0.2536622 0.034223318 0.17498961 0.10832074 0.17110345 -0.37553027
-0.26452 -0.12930566 -0.3212607 -0.10815379 -0.004239142 -0.21584415 0.062369168 -0.3266739
-0.13383532 -0.24555925 0.29682043 -0.25099957 0.22495529 -0.058294535 0.13434747 0.033253223
0.08395186 0.036243886 -0.14478523 0.12635049 -0.1742147 -0.067646176 -0.31353378 0.29180285
0.28413132 0.14697507 0.34913483 0.095508724 0.26093498 0.09844977 -0.08012527 -0.21248895
-0.12565178 0.21807691 -0.052743673 0.06230676 0.01091817 -0.08736339 -0.007755995 0.08901611
0.020216852 0.138939 -0.29604006 -0.17478089 -0.122839004 -0.054528862 -0.2609747 -0.06549007
0.1755946 0.10565892 -0.15179859 0.033522934 -0.13665105 0.11805788 -0.070623726 -0.056356966
-0.17156361 0.11028963 0.2529783 -0.02892512 -0.09355736 0.02854091 0.15436432 -0.034074903
0.1791201 -0.24694277 -0.3602655 0.12612095 -0.29410732 -0.027946472 -0.1420032 -0.23891449
-0.08577913 -0.31691444 0.36639497 0.18124183 -0.24728896 -0.208584 -0.051941466 0.21751377
00000000: 1446 383e d350 45be 8a61 b03e 0be5 a8be
00000010: 0609 e1bd b8ad c0bd e817 8ebe b703 0c3e
00000020: 0a24 bf3e add8 b23e 7983 babe 4a4d 953e
00000030: 45b1 a0be b5e7 afbe 46ec 05be e0e6 25be
00000040: 9e8a 26be 5ddb 8b3e b351 aabd b44c ecbd
00000050: e15c 073e 477c 853d d2c0 dbbd 7904 2f3e
00000060: aa24 8bbe c495 b2be 4572 ab3e 70a6 9ebc
00000070: 3c25 31bd 2e16 de3d 3671 3cbe 24a8 69be
00000080: 3260 573e 59bd 6f3e c866 b93e fcab 88be
00000090: 1e99 993d 614d efbd 1e0e 7b3e d74f 86be
000000a0: a88b 643e 1c0b 953e 216e aabd 3540 ecbd
000000b0: fac7 74bd e406 afbe a837 59be 04c0 83bd
000000c0: 47c8 85be a541 983e 4a90 4bbe a13d 063e
000000d0: bf21 8e3e 3154 aa3d 8d7f 003e 5825 95be
000000e0: 1fcf 8bbe cad1 4a3e e572 963e a1ad 3e3e
000000f0: cc25 02be b975 adbe 99b7 b43e 09a0 dcbd
00000100: ccf4 6c3d f0be a33e 010b 773e 8e2f f73d
00000110: 31b5 a33e 1b7e 083e 649c 30be f1e5 18be
00000120: 251f 95be 809e cfbc c965 84bd 2ca3 3d3d
00000130: 533d 63be 127c e33d d0a7 9cbc 3a61 e7bc
00000140: 304c 193d 45ad 76be 56b0 0fbe 8951 103c
00000150: 5c74 a3be aef1 84be 5a41 40be 4849 75be
00000160: 48c1 353d c6a9 a33d 9515 aabe 0274 483e
00000170: b34a b03e 6900 bbbe 8f42 a9be b28f 2c3e
00000180: 29a0 b8bd 374d 40be 96ef 70be 756a b73e
00000190: ed65 9c3c 4678 8b3e d6bf 7d3e 2f28 72be
000001a0: d84b 32bd a491 4b3d e9a0 ac3e 9053 c2bd
000001b0: cc4d 813e 54a8 713e d1f2 40be e2f8 b73e
000001c0: 0ad9 92be cf0e 903e 725c 6d3e 6d7a 3a3e
000001d0: 17fe e0bc 6704 4e3e c68f b73e 2669 aebe
000001e0: b2e2 a6be 40f2 5c3d 1b00 b1be 1aa9 9dbe
000001f0: d6e5 72bd 6f43 8abe dbbc 9ebe 55f2 8ebc
00000200: 8263 e33d 37d2 a2bc 42d4 abbe 4217 5cbe
00000210: 1e8d 863e a710 97bd a015 69bd 179a 21bd
00000220: fbbb 98be 61eb 303e 2e06 c03e c163 8dbe
00000230: 11a5 87bd b7f2 c5bd 16bc aebe fcaf c0be
00000240: 9a45 0a3e a746 b73e 8a92 203c 14fd ff3d
00000250: ce51 9d3d 10b9 1abe 2643 5bbe 0096 493b
00000260: fcb6 983d 3e36 3b3e 3064 33bd eeec 253e
00000270: 84c7 9ebe c013 32bd d842 5bbd b1e0 9d3e
00000280: 9474 babe 46ac 413e d357 babe 92f7 a6be
00000290: 5a59 bcbe 4424 d7bd 20d4 c03c 30e4 da3d
000002a0: 0f91 873e 9492 fe3d 03e0 81be c02d 0c3d
000002b0: 7a30 333e 44d7 dd3d be35 2f3e 8145 c0be
000002c0: 2a6f 87be b468 04be 487c a4be bc7f ddbd
000002d0: 80e8 8abb 4006 5dbe d076 7f3d cd41 a7be
000002e0: 200c 09be e273 7bbe d9f8 973e 0483 80be
000002f0: ae5a 663e 40c6 6ebd 6292 093e 8834 083d
00000300: f4ee ab3d 7874 143d 9442 14be 0662 013e
00000310: 5765 32be 148a 8abd 8087 a0be 2f67 953e
00000320: a979 913e a280 163e cdc1 b23e 149a c33d
00000330: 4599 853e 08a0 c93d b818 a4bd b496 59be
00000340: dcaa 00be 8e4f 5f3e c009 58bd 6035 7f3d
00000350: 20e2 323c 94eb b2bd 0026 febb 144e b63d
00000360: d09d a53c 0646 0e3e 9092 97be c3f9 32be
00000370: 0493 fbbd a859 5fbd 7a9e 85be a81f 86bd
00000380: 12cf 333e b463 d83d 1771 1bbe 584f 093d
00000390: 41ee 0bbe 54c8 f13d 2ca3 90bd 90d6 66bd
000003a0: 5fae 2fbe 88df e13d 5f86 813e 60f4 ecbc
000003b0: 009b bfbd a0ce e93c ae11 1e3e 2092 0bbd
000003c0: 426b 373e 91de 7cbe b874 b8be da25 013e
000003d0: 3c95 96be 00f0 e4bc 4969 11be 00a6 74be
000003e0: f8ac afbd 9c42 a2be 1f98 bb3e 7597 393e
000003f0: 5139 7dbe 0b97 55be 93c0 54bd eebb 5e3e
