tests/test_files/graph_swan_models.pt (torch_old, 83867 bytes, 23 tensors)

lin1.0.weight f4 [850, 7]
00000000: 010a 8ebe c0b9 5fbe 03b0 77be 284e afbd
00000010: 9d75 283d 85f3 8bbe c0f7 2f3d 1f0b 75be
00000020: bb02 a8be 5bc5 4a3d 0bae d33f 4679 d33d
00000030: 083c 87be 8797 893e e743 ddbe 8e18 19be
00000040: 3b72 d63e fc8e 0fbe 7f4f 683d 66b3 6e3e
00000050: ef4e fabd 409a dfbb 357e b13e 3cd1 84bd
00000060: 5055 52be 301d a0bd 1d8d aabe 41ca 8dbe
00000070: c6da 123f 886e 86be 16f6 86be 48fc 22bf
00000080: 4502 03bf dde0 17bf 07dc 083f 6233 313e
00000090: 1cc7 c13d 9138 b03e 8a68 6e3e f06c dcbd
000000a0: 80dc 153c d1a6 b1be 6c60 2c3e b31d 003e
000000b0: e705 893e 7f64 223e c054 823e a094 c83e
000000c0: 1666 2a3d 4d80 893e bc3b 38be dee7 923d
000000d0: 803d a73d c02e e13d 5b49 14be 699f 173d
000000e0: dd77 823e b080 a5bc f05c c63c 4e82 063e
000000f0: 15da 2bbe a021 fa3c a5df 99be 14f6 8ebd
00000100: d2cb 4a3e f501 b3be 34a0 96bc 3b90 e8be
00000110: 1c4b cbbc ee98 24bc b5d2 6abe c4d7 89be
00000120: 5468 63bd 7cfc 91be 8166 7dbe cc98 90bd
00000130: acb0 5bbe d058 d33d ca7d babe 1c9b 92be
00000140: 8e5b 2f3e d05e d03d 7d3a 3fbe a9ce 943e
00000150: 9b3c 993d 2019 a8bd 89c5 803e 3480 423e
00000160: b155 463e a467 86bd 98ac 6dbe 705b 103d
00000170: ea4b 373e 560f 3b3e 20f0 e73c d406 6bbe
00000180: d811 63bd 155a 1dbe cad4 113f 8ed4 87bc
00000190: eff7 cebd 74f5 be3e d500 c2be 0c2f 89be
000001a0: b68e 9b3e b866 eb3d 46a6 aebe 4135 24be
000001b0: 3934 8d3e b002 d7bc b48f a7be 54f4 3ebe
000001c0: 9734 913e 7822 d4be 48c4 4cbd ada9 0340
000001d0: ebbf f63c d596 bd3e f8d3 9d3e 8cd0 813e
000001e0: 10ed eebc 2464 59be baba b9be 9f37 fcbe
000001f0: 7aa6 d4be b7ba aabe 2fd1 36be 491b a9be
00000200: 3323 3f3d f1e7 b2be 33ec cebe 0e0f eb3d
00000210: 29ee 56be 94df 1cbe 5ac3 63be 96ae 88be
00000220: 5a82 96be 4dcd 053e c437 37be 8888 0fbe
00000230: 918e 273d 87a1 bbbe 265f 3b3e 341d 4e3f
00000240: 9215 a0be c58d 6d3e 6a7d 9fbe 28b4 413e
00000250: 2e06 7dbe 623a b0bd 08a3 e8bd f409 c1be
00000260: 80c7 04bf 18a0 5fbe 56c4 793e a6d9 1c3e
00000270: 2489 fb3d 83b5 aa3e 00e0 49bb bc19 8fbd
00000280: 806a 1fbc ba84 58be 1dfe 6abe 06c9 04bf
00000290: f5e3 53be 8314 b9be 9cdd 17bf e70b 0ebe
000002a0: 5425 863d 4838 9a3d bc8e a73e 8b2a 3a3e
000002b0: ec2b 23be 07a7 34be 395a 9abe 8194 13bf
000002c0: ca77 88be cd04 933f cb72 453f 87f9 b2bf
000002d0: 6b1d a8be 99e9 88bd 3413 e03e 19d1 82be
000002e0: 347a 07bf 2d8b 04bf 7db1 133f d864 f6be
000002f0: fa06 693e 25db 8f3e 28af 313e 271a 353e
00000300: 6b8a a33e fce9 f4bd 813c e03d 0c24 a1be
00000310: a8df 453e 6d36 47be cff1 aebe cc67 053d
00000320: a69f 06bf b724 08be 5c14 5ebd eac8 363e
00000330: fffb 09bb 9241 90bd 22b1 843f 3905 3f3c
00000340: d2c7 563e 878c 863e d22c fbbe 8dac 3bbe
00000350: 2d7a 9ebe 12de 133f 9e1a 10be 1532 c93e
00000360: ba6d 13be a94d 3cbe 130a b6be 329d 83be
00000370: b0d7 99bd 16f6 13be a10b 0ebe 78b3 99be
00000380: 1abb cd3e 5d89 11bf d44d edbe 6624 01bf
00000390: d2c7 023f 51ff 833e 93b1 a0bd 2f0a 59be
000003a0: 103d 5cbd f23c babe 2077 66bc 782b 91bd
000003b0: d96f b0be 004c bab9 fa4e 043f 02ea 86be
000003c0: 5eaa cabe a034 eb3e 5425 b5bd 3846 be3e
000003d0: 71ab 003f 9908 48be 5a33 84be 909a a6be
000003e0: 3091 74bd 0036 773d e2b2 bcbe ac09 cbbd
000003f0: 4037 283c d9f5 873e f55b bbbe 40e6 d5bc
-0.27742007 -0.21848202 -0.24188237 -0.08559829 0.04112779 -0.27334228 0.042960882 -0.23930024
-0.32814583 0.04950462 1.6537489 0.103258654 -0.26412988 0.2687342 -0.43215868 -0.14950773
0.41884026 -0.14019388 0.05671644 0.23310623 -0.12222087 -0.006823808 0.346666 -0.06485221
-0.20540357 -0.07818067 -0.33310786 -0.2769337 0.5736507 -0.26256204 -0.26359624 -0.636662
-0.5117534 -0.5932749 0.53460735 0.17304757 0.09461805 0.34418157 0.23282066 -0.10762966
0.00914681 -0.34697583 0.16833657 0.1251133 0.26762316 0.15858649 0.25455284 0.39175892
0.041601263 0.26855698 -0.17991537 0.071731314 0.08166027 0.10995245 -0.14481108 0.03701726
0.25482073 -0.020202965 0.024214238 0.13135645 -0.1678241 0.030533612 -0.3005344 -0.069805294
0.19804314 -0.3496243 -0.018386938 -0.4542254 -0.024816088 -0.010046227 -0.22931941 -0.2692243
-0.055519417 -0.28512943 -0.24746133 -0.07060394 -0.21454114 0.10319674 -0.36424094 -0.28633964
0.17124769 0.10174334 -0.18674655 0.2906392 0.07482263 -0.08207917 0.25150707 0.18994218
0.19368626 -0.06562737 -0.2321037 0.03524345 0.17900053 0.18267569 0.028312743 -0.22951823
-0.05543694 -0.15366395 0.56965315 -0.016580846 -0.10105883 0.3729664 -0.3789126 -0.26793706
0.30382317 0.114942014 -0.34111232 -0.1603594 0.27578905 -0.026246399 -0.32726824 -0.18647891
0.28360435 -0.41432548 -0.049991876 2.0572312 0.03012081 0.37029138 0.30825782 0.2535442
-0.029165775 -0.21229607 -0.36275274 -0.49261186 -0.41533262 -0.33345577 -0.17853235 -0.3302863
0.046664428 -0.34942582 -0.4041458 0.11477481 -0.20989288 -0.15319663 -0.2224249 -0.26695698
-0.29396325 0.13066597 -0.17892367 -0.14016926 0.040907446 -0.36646673 0.18298015 0.8051331
-0.31266457 0.23198612 -0.3115037 0.1891638 -0.24709389 -0.08604886 -0.11359221 -0.37702906
-0.5186691 -0.21838415 0.24391302 0.15317401 0.12282017 0.33341607 -0.003080368 -0.0698733
-0.009729981 -0.21144381 -0.22948499 -0.5186924 -0.20692427 -0.36148462 -0.59322524 -0.13871728
0.065500885 0.07530266 0.32726085 0.18180291 -0.15934724 -0.17641841 -0.3014696 -0.57648474
-0.26653892 1.148584 0.77128285 -1.39824 -0.32834944 -0.0668518 0.4376465 -0.25550154
-0.5292084 -0.51774865 0.576927 -0.48123813 0.22756568 0.28096882 0.17351973 0.17685758
0.31941542 -0.119586915 0.1094904 -0.31472814 0.193236 -0.19454356 -0.3416886 0.03256969
-0.52587354 -0.13295256 -0.054218635 0.1785008 -0.0021054742 -0.070437565 1.0366557 0.01165896
0.20974663 0.2627909 -0.49057633 -0.18327542 -0.30952588 0.5776073 -0.14072654 0.39296022
-0.14397326 -0.18389 -0.3555456 -0.25705868 -0.07511842 -0.14449343 -0.13871624 -0.30019736
0.4018181 -0.56850225 -0.4634844 -0.50446165 0.5108615 0.25780728 -0.078463696 -0.21195291
-0.05376917 -0.36374623 -0.014066488 -0.07088369 -0.34460333 -0.0003553331 0.5168301 -0.2635041
-0.39583105 0.45938587 -0.088450104 0.37162948 0.502616 -0.1953453 -0.25820428 -0.32539797
-0.059708774 0.060354233 -0.36855227 -0.09913954 0.010267079 0.26554754 -0.36593595 -0.026110768

lin1.0.bias f4 [850]
00000000: 26e0 b0be 917e 05be cb2b 1abe 42e8 95be
00000010: a049 1fbe 3a8d abbe 76db cdbe 00ae 24bf
00000020: 001a ffba 88a0 2ebd ac07 2fbd dd5d b93e
00000030: e5e5 1dbe dcb4 a3be 8705 afbd cc8c babe
00000040: 624d d43e c0d7 663e 2ad2 84bd 6cb8 9cbe
00000050: 9f27 12be 4b3e c5bd 9e72 bbbe c36d 6b3e
00000060: ea24 ab3d 7156 893e 66e7 b03d f66a 01be
00000070: 58c0 01be 09c4 4ebe b392 813c e4a7 ac3d
00000080: 1848 73be eef6 67be 4584 613d 6052 053c
00000090: 9a8d b7be abf1 c73e beba 3ebe 1fd4 4bbd
000000a0: a5bd d0bc 9f50 92be 4a95 9abe 873a 083b
000000b0: f63b d43a 72a7 443e 1259 e9bc a88e 86be
000000c0: 5218 86bc 0608 89be 45c2 ab3e a305 bc3e
000000d0: 9b1f 8a3d 63cd 45be 0a8d 483e b86c efbe
000000e0: 2913 053f 2ed2 c73f 34b4 933d c5a5 613f
000000f0: 2e08 b6be b48d a3bd e307 703f 936f b13e
00000100: 1c73 b23e 2888 2abd 3f3b c13e 4efd aa3f
00000110: 0430 efbd fe0e 343e ca6d 56be dd98 113f
00000120: 2d2b 9ebd 605f 37be e9ef 813f 6ff5 153f
00000130: 85d8 afbe e6f0 ff3e f26f 81be 1070 36bd
00000140: 1ac5 96be fc9d c5bd a10e 8c3f 74ed 86be
00000150: a0d6 b6be a6a3 f73e 7171 0c3f 5670 1dbe
00000160: d4ae 683f d15d a6be 91e5 d5bd 4699 2d3f
00000170: a110 2abe b4e3 3a3d 58e7 533f 4fda 713f
00000180: 85a5 4b3f e538 56be abb6 843f 8576 763e
00000190: 7149 233e 25b3 073f d70c 0c3f a742 163d
000001a0: 3096 4c3f 17dd e6bd 6485 023f 5c06 30be
000001b0: a278 82be 1cc3 88bd 221f 433f bdc4 8cbe
000001c0: f74a f8bd 8f3b 1f3f 0f89 7c3f 73ce 1abe
000001d0: f039 60bd 36de 293f 7fd1 bf3d c572 10be
000001e0: df37 0ebf 7af0 1a3f aa3e 073e d0c9 8a3d
000001f0: 468f 473e 45b4 273e 48bf ac3d 92e7 ab3c
00000200: 0027 9a3a 0080 85bb 32dd 0b3f 2465 453f
00000210: 3c33 103f 7db3 483f 83b9 103f 3447 0f3e
00000220: d51d 293e b169 b2be 5e0a d33e b5f1 05bd
00000230: 55e1 0b3c bc5d 4b3e 3b66 023e ec06 b2be
00000240: e2dd 3b3f cbba 7a3e 9931 0a3e 907a e7bd
00000250: f8ed 91be 37e1 453e 0081 c03a 66e4 013e
00000260: 87b8 aabe 6fa1 92be 87be 94be 1692 0c3e
00000270: 0ddc 833e 43b0 48be 0fc6 8f3e ad80 843e
00000280: 7e80 7f3e c8a8 edbd 7dd8 8cbe 5002 3abe
00000290: 1a7e a8be 9e68 71be e44a b9bd 8719 a8be
000002a0: e933 3cbe 0dbd bbbe 50f5 edbd 6998 a3be
000002b0: c50e a9be 9897 923d a03c aabc 72a5 4d3e
000002c0: a2ce 493e 4083 563d 20f4 3f3c 92e9 463e
000002d0: 68a1 5ebd b8d5 a9be c876 b9be 201a 39be
000002e0: 466a 383e 6054 55bd d642 90be 15a5 993e
000002f0: 9eb5 513e f88c 4bbe 5d87 b23e 761f 793e
00000300: 5c47 d63d eae0 713e b417 a23d 57c9 85be
00000310: 3b28 be3e 20da bebe b4dc efbd a179 84be
00000320: 5db3 14be 0af0 783e 26b0 9ebe 50bd 4bbe
00000330: 680d b0bd d8ca e2bd f050 a7be 504a 8bbc
00000340: 1231 483e 405e a93b 40cb 3b3d 188a 07be
00000350: a751 af3e 044e db3d d89c b43d 487e 573d
00000360: 88cd 40bd 2851 393d 5908 bd3e eee7 153e
00000370: 749e b2be c026 c5bc 8616 5ebe 0776 a5be
00000380: 09d4 c03e d975 8b3e 467a 62be 5017 023d
00000390: e812 89be 9e70 8dbe bdb6 bfbe 4615 4fbe
000003a0: 5adc 7a3e dda7 b1be f1d1 9c3e 6eba 603e
000003b0: d04d 3ebd f3a4 8fbe b211 2d3e c856 05bd
000003c0: 70e2 673d a388 bd3e 91ae a93e 95da 983e
000003d0: 0faa b8be 44d6 11be 25ba 953e 31d4 36be
000003e0: 6b05 9bbe c82c c53d 5d21 1c3f f414 b03e
000003f0: 24de b7bd c001 12bd 912a a13e accb 8ebe
-0.34546012 -0.13036563 -0.15055768 -0.2927876 -0.1555543 -0.33506185 -0.40206498 -0.64328
-0.0019462705 -0.042633563 -0.042731926 0.36204425 -0.15419729 -0.31973922 -0.08545976 -0.36435544
0.41465288 0.2254324 -0.06485398 -0.30609453 -0.14272927 -0.09631022 -0.36610883 0.2299109
0.0835665 0.26823762 0.08637886 -0.12638459 -0.1267103 -0.20191969 0.015817022 0.0843046
-0.2375797 -0.2265279 0.055057783 0.0081373155 -0.3585022 0.39051566 -0.18625924 -0.04976284
-0.025481055 -0.28577134 -0.30192024 0.0020786838 0.0016192186 0.192045 -0.028484855 -0.26280713
-0.016369019 -0.26763934 0.33546653 0.3672305 0.067443095 -0.1931663 0.19585052 -0.46762633
0.5198236 1.5611017 0.072121054 0.8814357 -0.35553116 -0.07986012 0.93762034 0.34655437
0.34853446 -0.041633755 0.37740514 1.3358552 -0.1167908 0.17583844 -0.20940319 0.56873876
-0.07723079 -0.17907476 1.015134 0.58577627 -0.3434488 0.49988478 -0.2528072 -0.044540465
-0.29447252 -0.09649274 1.0941964 -0.26353037 -0.3571062 0.4836704 0.548606 -0.15374884
0.90891767 -0.3249345 -0.10444177 0.67812 -0.16607906 0.04562731 0.8277488 0.9447374
0.7954944 -0.20920141 1.0368246 0.24068649 0.15945984 0.5300773 0.5470709 0.03668466
0.7991667 -0.11272638 0.5098479 -0.17189926 -0.2548266 -0.06677839 0.7621938 -0.2749385
-0.121236734 0.62200254 0.98646635 -0.15117817 -0.054742754 0.6635469 0.0936613 -0.14106281
-0.55554 0.6052319 0.13207498 0.06776774 0.19488248 0.16377361 0.084349215 0.020984445
0.001176089 -0.0040740967 0.5463439 0.77107453 0.5632818 0.7839888 0.5653307 0.13992006
0.16515286 -0.3484626 0.41218847 -0.032701213 0.00853761 0.19859976 0.1273431 -0.34770906
0.7338544 0.24485318 0.13495483 -0.11302674 -0.28501868 0.19324194 0.0014686882 0.12684783
-0.33343908 -0.2863879 -0.2905161 0.13727602 0.25753823 -0.19598489 0.28080794 0.25879422
0.2495136 -0.11604458 -0.27508917 -0.18164945 -0.32908708 -0.23575065 -0.090474874 -0.32831976
-0.18379177 -0.36667672 -0.11619055 -0.31952217 -0.3301908 0.071578205 -0.020780861 0.20082644
0.1970773 0.052371264 0.011715919 0.19425038 -0.054353148 -0.33170867 -0.36223435 -0.18076372
0.1800929 -0.05208242 -0.28175992 0.3000876 0.20479438 -0.19877994 0.348689 0.24328408
0.104628295 0.23620954 0.07914677 -0.26130173 0.37140068 -0.3727579 -0.11712018 -0.25874045
-0.14521547 0.24310318 -0.30993766 -0.19896436 -0.08596307 -0.110738456 -0.32678938 -0.017003208
0.19549969 0.005168706 0.04584813 -0.13236272 0.34241983 0.1070824 0.08818978 0.052610666
-0.04707101 0.045243412 0.3692043 0.14639255 -0.34886515 -0.024066329 -0.2168828 -0.3231661
0.3766177 0.27238348 -0.22116956 0.031760514 -0.26772237 -0.27624983 -0.37444106 -0.20222959
0.2449812 -0.34698382 0.30628923 0.21946117 -0.046460927 -0.28055534 0.16901281 -0.032553464
0.056612432 0.37018308 0.33140996 0.29854265 -0.36067244 -0.14241892 0.2924358 -0.17854382
-0.3027757 0.09627682 0.6098841 0.34390986 -0.08977917 -0.0356462 0.31477788 -0.27889764

lin2.0.weight f4 [1250, 7]
00000000: 917e 053d d005 64bd 2cdc 51bd dc92 a0be
00000010: 3796 91be 4c8b 5e3e 0283 c3bd 635a e73e
00000020: cd00 26be ccfe 293e 3c6b 293c e6ef 9d3d
00000030: b962 acbc efd8 b93e d6e1 fe3e 6e4f 573e
00000040: 4282 7fbd e158 eebe 7836 da3b 67bd d63e
00000050: 188c cd3e 5a3c 613f aa35 41bf 2e78 963d
00000060: 8989 283f cc2a 5fbf 7052 553f 4b97 243e
00000070: 98ae 27bf 66e9 c23d 50b5 abbc f93d b13e
00000080: bcbf 333e 61fd a33e 55b6 93be 2217 613e
00000090: 1cde 85bd 523c 2a3e c8ca 70be 1c84 d73d
000000a0: a078 d1bc 6676 9fbe e89b 5b3f 49f2 53bf
000000b0: 88fe 2d3f 97b8 a3be 640f 2abe 4b8b a83e
000000c0: 17ef a13e 2407 a93d 4bf2 04be 798e a7be
000000d0: 196a f7bd 94bd 8fbe 0f52 0abe 9368 b43d
000000e0: dd94 643d b08e 483d 2b6b ad3f 6392 acbf
000000f0: b1b5 8e3e 0afa 10c0 0488 203f ea28 39be
00000100: 3187 2bbe 6827 8cbe 384e 9dbe ed29 11be
00000110: 3de1 9b3e 1c4b a53d 55ea a9be deb9 ac3e
00000120: bf4d 65be bccb 283d 85f2 67be 8e03 cc3c
00000130: 3498 f8bd 9a35 ae3e 4c6d 94bd 4536 36bf
00000140: 41c1 763d 1ddb c33d 7a0c 7e3e e9e9 923d
00000150: f7e3 dbbd 46b3 7abc 0ab5 debc be73 24bf
00000160: 6e1c 473e 4a35 0a3f b7a0 2abe a6f2 51be
00000170: 73be 3f3d 0601 6abe bc06 a23d a151 383e
00000180: eb2b 1bbe 0d8e 9e3e b4e4 23be f597 a63e
00000190: 6048 733d 16cc a6be 409c 1cbe 8ca4 bdbd
000001a0: d4ae e73d 8801 03be 40f1 0ebc 597f bbbe
000001b0: b4a5 c73d fc53 d4bd 806c 61be 4586 95be
000001c0: 8e4d 8abe 630e 073c b0a2 f3bc 1698 443e
000001d0: 4a16 4f3d 5c87 0a3e 9eab bfbe e462 b83d
000001e0: a0cd f63d d244 633e d065 da3c 0702 0cbe
000001f0: 81bf 843e 783c bdbe 4071 1cbd 004c bbbe
00000200: 8e2b 753e 80e1 63bc 26bd 72be 5df7 3dbe
00000210: d3d5 bcbe ad55 19be aa27 8e3e c3d1 753e
00000220: c7ce 0abf 983d 303e 8cc4 893a 040c d83e
00000230: d6c0 a2be 9145 a0be 4de7 623e 2e0a 0abf
00000240: 6a67 79be 2c9d b43e a64d 76be 664f aa3e
00000250: 6d05 e73d 2dcc b43f e6f6 27be b78f a23e
00000260: 6b2e 03bd c5da 03be 3050 043f 20c2 fe3c
00000270: 0fe4 99bd 4ab8 6c3f 24a7 9f3c 16cb 083f
00000280: 908f f73d 9356 c63e 468b a1be 3611 6dbf
00000290: c764 a7be ae61 613e 9204 98be a686 563e
000002a0: ac36 9b3d 36e6 01be ab7f 60be 16a5 613e
000002b0: 7847 b1be ee5f 163e 0208 85be f162 13be
000002c0: 5015 22bd 82f2 27be c47c d4bd 7c79 c73d
000002d0: 4c37 da3d e252 82be ee18 743e 8f77 f8be
000002e0: c2c6 69bf 10a7 ab3f 6372 6e3e ef1f ab3e
000002f0: 6db7 bb3e e62a 083f 808b 11be dd6c dcbc
00000300: 51f0 a5be 5542 6dbc 02df 923e ab15 ef3d
00000310: c352 00bf 4a8e 2abe 0a52 53be 9cee b4be
00000320: 97d6 213e 4d6b 3dbf d3db 0dbf 14b3 153f
00000330: f03a b7bd a2c0 a93e a77c dc3d 86f9 5a3d
00000340: 1e48 e5bd 1c58 193f ae0b a1be 4e76 393e
00000350: 2818 adbe 3e2b b8be b869 90bd 6bf0 adbe
00000360: 8b5c 8abe 808d 6cbd d14b 96be f612 8ebe
00000370: f053 aabe 629f aa3d 13d9 88be bc46 183e
00000380: 43ef e13d d3ed ee3e 5ff3 053f 6d61 c03d
00000390: 7500 7b3e 3cbf b33d f3b5 813d 16fe 4e3e
000003a0: b92a 59be b512 94bd 636a d63c 5e21 0bbf
000003b0: 032a 1dbe b958 8a3d 5784 b3be b2d7 a7be
000003c0: 480d e0bd f10f 2e3e b642 abbe 8043 f0bc
000003d0: f2ee f1be 00c0 b8be e062 463c b23d 1d3e
000003e0: 6f90 91be f6dd 91be 76a8 8abe c114 83be
000003f0: 2ba8 cb3e 6d69 4dbf c440 e53e 91b0 2f3f
0.032591406 -0.055669606 -0.051235363 -0.31362045 -0.28434917 0.21732825 -0.09546472 0.45186147
-0.16211243 0.16601104 0.010340508 0.077117726 -0.021043168 0.3629832 0.49781674 0.21026394
-0.062380083 -0.46552184 0.006659325 0.41941378 0.40145946 0.87982714 -0.7547251 0.07347141
0.6583486 -0.8717468 0.83328915 0.16073339 -0.65500784 0.095171735 -0.02096048 0.34617594
0.1755361 0.3202925 -0.28850046 0.2198148 -0.065365046 0.16624573 -0.23514855 0.10523245
-0.025570214 -0.31145018 0.8578477 -0.8279157 0.6796651 -0.31976768 -0.16607434 0.32918772
0.31627724 0.08253315 -0.12983052 -0.32725886 -0.120807834 -0.28074324 -0.13507865 0.088090084
0.05580603 0.048964202 1.354833 -1.3482174 0.27872995 -2.2652612 0.62707543 -0.18082014
-0.1675079 -0.27373815 -0.3072374 -0.1417615 0.3044528 0.080709666 -0.33186594 0.33735555
-0.22392939 0.04120992 -0.22651108 0.024904039 -0.121384054 0.3402527 -0.07247409 -0.7117656
0.060242895 0.09563277 0.24809447 0.07173521 -0.1073684 -0.015301531 -0.027185936 -0.6423911
0.19444439 0.5398756 -0.1666287 -0.2050272 0.046812486 -0.22851953 0.07911441 0.17999889
-0.15153472 0.3096775 -0.16005212 0.3253781 0.059395194 -0.3257758 -0.1529398 -0.092599005
0.11312643 -0.12793553 -0.008724511 -0.36620596 0.09748402 -0.10367581 -0.22014046 -0.29204002
-0.27012295 0.008243176 -0.029740661 0.19198641 0.050558366 0.13528198 -0.3743562 0.09003237
0.120509386 0.22194222 0.026659876 -0.13672648 0.25927356 -0.36960196 -0.03819394 -0.3658142
0.23942396 -0.013908744 -0.23704967 -0.18551393 -0.36881885 -0.14974089 0.27764636 0.24005799
-0.5422177 0.17210996 0.0010510846 0.42196667 -0.31787747 -0.31303075 0.22158547 -0.5392178
-0.24355856 0.35276163 -0.24053058 0.332637 0.11280332 1.412481 -0.16402778 0.3175027
-0.03202669 -0.12876423 0.51684856 0.031098425 -0.07514202 0.924687 0.019488879 0.53434885
0.12087929 0.38737926 -0.3155157 -0.92604387 -0.32694075 0.22009918 -0.29690987 0.20949802
0.07578787 -0.12685475 -0.21923701 0.22035632 -0.3462484 0.14685032 -0.25982672 -0.14393212
-0.039571106 -0.16401103 -0.1037536 0.09739968 0.10655078 -0.2545386 0.23837635 -0.48528716
-0.91318905 1.3410358 0.23285823 0.334228 0.3666338 0.5319046 -0.14213371 -0.026907379
-0.3240991 -0.014481147 0.28685766 0.11674055 -0.50126284 -0.16655841 -0.20636764 -0.35338295
0.15804516 -0.73991853 -0.5541355 0.58476377 -0.08946788 0.3315478 0.10765963 0.05346062
-0.11195396 0.5990007 -0.31454223 0.18111536 -0.33807492 -0.3597049 -0.07051414 -0.33972487
-0.2702373 -0.057752132 -0.29354718 -0.2774884 -0.33267164 0.08331181 -0.26728114 0.14870733
0.11031964 0.4666582 0.5232448 0.093935825 0.24511893 0.087767094 0.06333532 0.20214114
-0.21207704 -0.072301306 0.026173776 -0.5434779 -0.15348057 0.06755204 -0.35061905 -0.3278175
-0.10940033 0.16998269 -0.33449334 -0.029329062 -0.47252613 -0.36083984 0.012108535 0.15355566
-0.28430507 -0.28489655 -0.2708165 -0.2560177 0.3977674 -0.8023899 0.44775975 0.68628794

lin2.0.bias f4 [1250]
00000000: fcaf 2abe 87a2 033f 4b75 4bbd 751d b03e
00000010: 075c 043d 25c8 6dbe d25c 073f e0bf 17be
00000020: 323d eb3d 82b9 acbe 452b e0bd 2313 c73e
00000030: 0789 c8bc 3d20 d43e 8566 9bbe bac1 4d3e
00000040: 839f a7be bc80 82be 0ef2 3f3c 98dd f83e
00000050: c00e 713d d430 e93e 1098 df3e a641 5c3c
00000060: 7f94 65be 7c44 86be 524f 89bd ec9d 2e3e
00000070: e821 b43d 056e eb3e 6183 bebe 6290 cebe
00000080: 83ee 563e c247 c0be 2935 cebd 1e96 87be
00000090: 3845 f13c b3b9 71be 3038 4f3e 86bf f43e
000000a0: 6834 6abd 3d06 40bc 0eb6 463e 8be9 0ebe
000000b0: 425e 283e a1a3 813e 8694 303e 378b 9dbd
000000c0: 3de0 1bbe 1e3c 44be a30f f83d e1d3 62be
000000d0: 7b7b 01bd d28a 21be b160 183e 7d76 98be
000000e0: 1b45 cc3d 8452 babc 8292 debe 11d2 4abe
000000f0: c0c6 843b 40d6 59bc c40c cb3e 3905 803c
00000100: 9045 cd3e 6818 7ebe 2fd3 81be da9e ff3c
00000110: 83b1 23be 4298 a83a 9633 87be 2f24 d23d
00000120: ad1c 81be c7d1 283e cf5e 23be 53f4 e23e
00000130: 0723 2ebe 3244 3f3d 5e84 bf3c 71b6 96be
00000140: fdc8 823d 322b 5a3e b3bb 05be 3b4f 3a3e
00000150: 7304 dd3e c23f 733e 0982 d8bc 49d1 e7bd
00000160: b01c e53d 2283 a9be e731 b6be fee2 1a3e
00000170: 93df 2dbe ca1a 8e3e d723 ab3e e37a 643e
00000180: 5920 0a3e 545a 14be bc96 e53d af66 f4be
00000190: 390b 9dbe 6edc cd3e 02ab a7bc 5a39 0abf
000001a0: b0be 29be 1f43 d43d 6d45 97be 4e33 ee3e
000001b0: e605 9b3c 9145 b8be f456 71be 0d70 61bd
000001c0: fbb2 5d3e 8eb5 8dbe 7f0e 623e bbfc bebd
000001d0: e495 b9bd 7fdd a1bb 7ad6 833e 6cca a4bd
000001e0: 5d29 bebe 047e 56be 0886 383e 7603 45be
000001f0: 7c03 b73d 8f5c 66bd 5d35 783e 6fe0 7fbc
00000200: bbbf 1c3f 1d15 e8bc cd30 c43e b5f5 373f
00000210: cc74 67bd 0715 21be 4437 8bbd 2462 163e
00000220: 88cd b6be feb2 82be bd22 b53e fd4e 9a3e
00000230: 40a5 143e 2a38 5abe ea18 0e3f 8984 62be
00000240: 74ce e6bd 4445 96bd 9c30 6fbe 9688 01bd
00000250: 33dd f13e 1b6e f73c d14e aebe 1bdf ec3d
00000260: e357 5fbe 9656 b0be f5e7 d73d d811 c8bd
00000270: b545 5c3e 1b8b 843c 981e 593e e805 f8bc
00000280: bf85 c03e 992c d83e 1d58 703d 8ac6 0cbe
00000290: 7613 80be 7640 11be 9afe abbe 3ca0 713e
000002a0: 58ed 67be 5831 c7be 92fd 3b3d 85b3 153e
000002b0: 7c2f 953e c189 d23d b6a8 e3be 69dd dc3d
000002c0: 1c8d d5bd 5c48 8f3e 1ab8 843e 232d 15be
000002d0: a303 a9be 7a98 ca3c aec8 46be b93e 943d
000002e0: a7f9 a53d d27c 473e f296 22be 8140 243f
000002f0: fa48 0b3e f8f9 08bd a9ae d63e 4cac 653e
00000300: 5645 0d3e 464f c2bc fe19 0c3e 150f 923e
00000310: d63e 993d 4490 4fbe cf16 a0bd 69c5 f03d
00000320: a6d6 1a3e 586d a4be e09f e7bd 3aaf cc3d
00000330: 7b11 8bbd 4db8 dc3e 3c0d 9cbe 1c71 98be
00000340: c976 43be 0ef5 e1bd 7f91 1abe 604a edbd
00000350: 4511 3e3e bd79 b1be 302c a7bd 20dd f93d
00000360: f444 20bd 5f39 f5be 8879 83be 4d4f 34bd
00000370: ae50 413e 34c6 d2bd 9fc6 57be 3359 6cbe
00000380: c997 2dbe 38bc 92bd c5ad d13e c330 76be
00000390: 72cc f6bd 37c2 943e 338d b43e 309c edbe
000003a0: d461 8fbe 6fdf 533e 652f 81be fd14 2dbd
000003b0: 14ff 9bbe 6038 813e 0c3c dc3e 6548 e3be
000003c0: 961e d1be 9641 d3be 3225 84be 0050 393a
000003d0: ca34 3bbe 7229 a4be 38b9 0c3e 4a91 083e
000003e0: 8ed2 553e a76f b73e 81b8 f03e 4195 f13d
000003f0: 8dc1 e3be 152d 93be 047d 293f 835e e9be
-0.16668695 0.5141987 -0.049672406 0.34397474 0.032314327 -0.2322088 0.5287601 -0.14819288
0.114862815 -0.3373528 -0.10945753 0.38881788 -0.024479402 0.41430846 -0.30351654 0.20093432
-0.32738885 -0.25488842 0.011715425 0.48606563 0.058851957 0.45545065 0.43670702 0.013443386
-0.22419928 -0.26224124 -0.06704582 0.1705243 0.087955296 0.45982376 -0.3720961 -0.4034453
0.20989423 -0.37554747 -0.10068733 -0.26481718 0.029451951 -0.23605995 0.20236278 0.4780237
-0.057178885 -0.011720237 0.19405386 -0.13956277 0.16442207 0.2532015 0.17244157 -0.07692569
-0.15222259 -0.19163558 0.121123575 -0.22151138 -0.0316119 -0.15775612 0.14880635 -0.297779
0.09974118 -0.022744425 -0.43471152 -0.19806696 0.004052013 -0.01329571 0.39658177 0.01562749
0.40092134 -0.24813998 -0.25356433 0.031203676 -0.15985684 0.0012862759 -0.26406544 0.10260808
-0.2521719 0.16486274 -0.15954135 0.4432703 -0.1700555 0.046695895 0.023378547 -0.29436067
0.06385992 0.2130554 -0.13059883 0.18194287 0.43167457 0.2375479 -0.026429193 -0.11319215
0.11187112 -0.3310786 -0.35584947 0.15125653 -0.16979818 0.27754813 0.3342578 0.22312503
0.13488902 -0.14487582 0.11210391 -0.4773459 -0.30672625 0.40207237 -0.020467285 -0.5399376
-0.16576648 0.10364365 -0.29545155 0.46523517 0.018923711 -0.35990575 -0.23568326 -0.0550385
0.21650307 -0.27677578 0.22075842 -0.09325548 -0.090617925 -0.0049397345 0.2574957 -0.080464214
-0.37140933 -0.20946509 0.18019879 -0.19239601 0.089362115 -0.056240615 0.24239106 -0.015617474
0.6123006 -0.02833038 0.38318482 0.71859294 -0.05650787 -0.15730678 -0.067976505 0.14685875
-0.35703683 -0.25527185 0.35378066 0.30138388 0.14516163 -0.21310487 0.55506766 -0.2212087
-0.112698466 -0.0733743 -0.23358387 -0.0316244 0.47239074 0.03020387 -0.34044507 0.115659915
-0.2181087 -0.3444106 0.10542289 -0.097690284 0.21510966 0.016179612 0.21203077 -0.030276254
0.3760204 0.42221525 0.05867778 -0.13747612 -0.25014848 -0.14184746 -0.33592683 0.23596281
-0.22649133 -0.38904834 0.04589612 0.14619263 0.2913779 0.10280181 -0.44464654 0.10784418
-0.10427305 0.27984893 0.25921708 -0.14568 -0.33010587 0.02473091 -0.1941249 0.07238526
0.08104258 0.19481209 -0.15877894 0.64160925 0.13602057 -0.033441514 0.4193013 0.22429007
0.13795981 -0.023719441 0.1368179 0.28527132 0.07482688 -0.20269877 -0.078168504 0.11756403
0.15120944 -0.32114673 -0.113097906 0.09994359 -0.067904435 0.4310936 -0.30478847 -0.29773796
-0.19088282 -0.110330686 -0.15094565 -0.115864515 0.18561275 -0.3466319 -0.08162725 0.12200379
-0.03912826 -0.47895333 -0.25678658 -0.04402094 0.18878433 -0.102917105 -0.21071862 -0.23080902
-0.16952433 -0.07164806 0.40952888 -0.24042039 -0.120507136 0.29054424 0.35263976 -0.46408224
-0.28004324 0.20690702 -0.25231472 -0.042256344 -0.30468047 0.25238323 0.43014562 -0.4439117
-0.40843648 -0.41260976 -0.25809628 0.0007069111 -0.18281856 -0.3206287 0.1374253 0.13336673
0.20881101 0.3582737 0.47015765 0.11796046 -0.44483605 -0.28745332 0.66206384 -0.4557992

conv1.root f4 [17, 50]
00000000: 811f a43f b078 d33e a8cc 793e d91b ba3d
00000010: a158 9fbf ea90 ec3f f2b1 b53f d252 c9bf
00000020: e4e1 9d3b a190 3a3f c53c b73f be5a 08be
00000030: 3a58 703f 05c3 9d3f d70e 063e 14ef 8cbe
00000040: 0ec0 1c3e 7538 2fbe 9e28 0d40 ccd9 a93f
00000050: 3286 773f b469 8cbe ca80 8dbf 73ca 203e
00000060: 132a ab3f e3cd b63f dee5 843f 8e1d c83e
00000070: 899e ad3f fc4a c13e 1dbf 143f 620c b93e
00000080: 3696 2d3f ae40 b8be 8104 afbd 2d05 bb3c
00000090: eaf2 b63e d272 1ebf 4482 413f 7f47 0d40
000000a0: 09d9 e53e 9c45 5f3e 0b06 8d3f a4a0 733d
000000b0: bd1f 073f 28de c03d fc40 b13e e751 a03f
000000c0: 43b4 c83e 141e 2d3f 4bd2 3bc0 9075 3dbf
000000d0: 4122 64bf fcf6 3a3f 0114 993f 6850 88c0
000000e0: c323 68bf 9a3d bf3f b57c a2bf 42b1 2ebf
000000f0: b4cb 77bf ff96 36be bc47 c8bf 9ac5 96c0
00000100: 53c0 eebe 4490 dc3e 9504 a4be 2269 913f
00000110: da91 a8bf 8be9 f2bf 2f8e 75bf e5ab adbe
00000120: 74f2 3c3f de53 97bf dd34 a5bf 0db7 06c0
00000130: f022 bebf 7425 39be 9de0 8fbf 9d50 c2be
00000140: 0271 95bd 108b e63d 1c7f 2cbf 0f24 003f
00000150: 7d89 a53e bf1d 9e3d 3d5c 6fbe 446a f23f
00000160: f38e 60bf 8bd7 19c0 cbd0 0fbf de1d 49bf
00000170: 66e7 c2bf 9535 3e3e a403 fbbe 3f03 00bf
00000180: db96 54bf e3dd f8be 787e 26bf 0250 c9bf
00000190: d9f6 7f3f c81c e6bc c1d9 03c0 2d6f 59bc
000001a0: 7566 f73d 25ff 673f 979c 07be 4649 293f
000001b0: 0db8 473f cd40 a4bf 70c0 f6bd 542c 58be
000001c0: 4383 05bf 2ac0 6b40 5b37 c03e 8b7d a5bd
000001d0: 4ea6 40bf 6370 7ebf c991 0bbf 7233 4ebe
000001e0: 6cdc 23bf 4339 cf3f 9d8e 133f b527 1d3d
000001f0: c3a2 99be 9577 60bf 9026 833e 0566 783d
00000200: 3f58 61be 703f 23be 8c5c f0bd 56e8 5fbf
00000210: 1015 36be b491 413e 1d60 dabe e3cf 92bf
00000220: fd43 afbe e070 863d 17ae e0be 52c0 213d
00000230: 7598 953d 41ba fabd 0ec9 64bf 353c c13e
00000240: 3b28 fdbe 3b21 04be a0dc 39be 8976 9fbf
00000250: ccea 15be 5c9e ffbe dcb8 3ebe c729 3bbe
00000260: e243 14be b02e 453e 075c 66be 75d5 febd
00000270: 140d fc3d a0a2 093e a0f2 65be 2c7c 4a3e
00000280: d25e 16be 804c 4ebb d465 503e 2cf4 58bd
00000290: 245f 67be 544f 76be ec30 67be 987a 923d
000002a0: 762c 253e c0d9 d3bc d489 b03d 5cd3 5f3e
000002b0: 2cce 9c3d 463d 1dbe 4ce6 70be 5aa4 6cbe
000002c0: 021c 073e 14ae fe3d 0016 76be 7787 30be
000002d0: 10c9 d6bc f4e5 003e 00f0 6b3b a63e 2fbe
000002e0: fcd8 ecbd f9a7 49be 6c32 56be 3c8c 6cbd
000002f0: 3173 1fbe a038 4d3c 58fc fe3d 9c2d 35bd
00000300: b569 77be 00e3 45ba 580e cbbd 8c93 f23d
00000310: c01b ccbd 3097 2b3e da87 9dbd 8e66 3b3e
00000320: 3ed9 6c3e 90cc 8e3d 52b6 64be 30ad b4bc
00000330: fc0a cf3d 3acd 233e 9c0e 9ebd 0845 103e
00000340: 0715 5dbe b007 e0bd 1cd9 57be 623c 6dbe
00000350: 5cb0 5b3e 528f 2b3e e012 c4bb 2071 0b3d
00000360: 20cc 743c a075 b63c 3eb9 debd d84a f33d
00000370: f669 04be b4c0 943d f45f 423e 1002 dbbd
00000380: e8e9 5c3d 14be 3d3e f4c7 b53d d84a 8cbd
00000390: 02b7 1cbe d6c6 74be 98b2 39bd b0f8 e0bd
000003a0: 7cc5 a33d 48a4 ebbd 5c08 313e 7a01 183e
000003b0: 7852 b93d c726 55be a4c3 cf3d 5001 403e
000003c0: 08d0 293e 623e 26be 901b 4d3e 14df 163e
000003d0: a0d7 f6bb 5003 a7bd 1208 a8bd c8d6 cfbd
000003e0: 52d2 2e3e 80d0 733c f892 e63f 5297 ddbd
000003f0: d49c c43e 5c73 44be 3052 57bf 4ad1 1940
1.2822114 0.41303015 0.24394476 0.09087343 -1.2448922 1.8481724 1.419493 -1.57284
0.004818188 0.72876936 1.431542 -0.13315865 0.93884623 1.232514 0.13091598 -0.27526152
0.15307638 -0.1711138 2.205604 1.3269591 0.9668914 -0.27424395 -1.1054928 0.15702228
1.3372215 1.4281582 1.038265 0.39085048 1.3564006 0.3775252 0.58104116 0.3614226
0.6780733 -0.35986847 -0.08545781 0.022829616 0.35732204 -0.6189395 0.75589395 2.2074888
0.44892147 0.21803898 1.1017469 0.05947937 0.52782804 0.09417373 0.34619892 1.2524995
0.3920003 0.6762402 -2.9347103 -0.7400751 -0.8911477 0.7303312 1.195923 -4.259815
-0.9067957 1.4940674 -1.2694308 -0.68239224 -0.967952 -0.17831038 -1.5646892 -4.7116213
-0.46631107 0.43078816 -0.32034746 1.1360209 -1.316951 -1.8977522 -0.9592008 -0.33920208
0.73807454 -1.1822469 -1.2906758 -2.1049225 -1.4854412 -0.18080693 -1.1240422 -0.37952128
-0.07296945 0.11256993 -0.67381454 0.5005502 0.32331458 0.07720517 -0.2337503 1.893868
-0.87718123 -2.4037807 -0.5617797 -0.785612 -1.5226867 0.18575127 -0.49026215 -0.50004953
-0.8304269 -0.48606786 -0.65036726 -1.5727541 0.99986035 -0.028089896 -2.0601656 -0.013271135
0.12080089 0.90623695 -0.13243328 0.6612743 0.78015214 -1.2832276 -0.12048423 -0.2111066
-0.52153414 3.6836038 0.37542233 -0.08080586 -0.7525376 -0.9939024 -0.54519325 -0.20136812
-0.6400821 1.618935 0.57639486 0.038367946 -0.3000699 -0.8768247 0.25615358 0.06064417
-0.2200632 -0.15942168 -0.11736402 -0.8746389 -0.17781472 0.18903238 -0.42651454 -1.1469692
-0.34231558 0.06564498 -0.4388282 0.03949005 0.073044695 -0.12242556 -0.89369285 0.37741247
-0.49444756 -0.12903301 -0.18150568 -1.2458049 -0.14640349 -0.49925506 -0.18625206 -0.18277656
-0.1447902 0.19256091 -0.22496043 -0.124430574 0.12307182 0.13440943 -0.22455835 0.1977393
-0.14684609 -0.0031478703 0.20351344 -0.052967235 -0.22594887 -0.24053699 -0.22577256 0.07152289
0.16130242 -0.025860667 0.08620039 0.21857971 0.07656512 -0.15355405 -0.23525351 -0.2310957
0.13194278 0.124355465 -0.2403183 -0.17239176 -0.026218921 0.1258772 0.0036001205 -0.17113742
-0.11564824 -0.19692983 -0.20917672 -0.057750925 -0.15571286 0.0125257075 0.124504745 -0.04423295
-0.24161418 -0.0007548779 -0.09914845 0.118445486 -0.099662304 0.16756892 -0.07691927 0.1830084
0.23129746 0.06972611 -0.22335175 -0.022055238 0.10109517 0.15996256 -0.0771763 0.14088833
-0.21590053 -0.10938966 -0.21078914 -0.23167565 0.21453995 0.16753891 -0.0059836954 0.03404343
0.014941245 0.022272885 -0.10875176 0.1187951 -0.12931046 0.07263318 0.18981916 -0.10693753
0.053934008 0.1852954 0.08876029 -0.06850213 -0.15304187 -0.23903975 -0.045336336 -0.109849334
0.079966515 -0.115059435 0.17288345 0.14844313 0.09048933 -0.20815574 0.10144737 0.187505
0.16583264 -0.16234735 0.20030046 0.14733535 -0.0075330287 -0.08154929 -0.08204664 -0.10148388
0.17072418 0.014881253 1.8013601 -0.10819878 0.384009 -0.19184631 -0.84109783 2.403399

conv1.bias f4 [50]
00000000: 8320 aebd 2bac 4b3e d208 88be d552 2b3e
00000010: 3b18 01bd 60c5 de3d 1c81 063e 2013 2f3e
00000020: 4d46 333b e67b a33d d09f 1dbd 6464 5ebd
00000030: 9678 e43e 7ad5 c3be 93df 22bd 3445 d43e
00000040: ec52 c43c fe48 4a3f e906 733e 48f2 973c
00000050: ba4f 073e 2843 773e 6a6b 243d 9a05 013d
00000060: 983c 8e3e e4c2 ff3d b67a fe3d 2d7f acbd
00000070: 8001 40bc 27fc 82be 5f92 a8bb efca ba3d
00000080: 6aa3 15bf 9e56 abbe d4da 7c3e d717 03ba
00000090: 6029 12bd c793 ae3d fe80 cfba a5b2 0abf
000000a0: 67fd 35be 6b2b 9f3e 1418 7cbe d00a dcbd
000000b0: 8374 b23e 026f 233e 6290 b13c 9f69 99bd
000000c0: 4f41 e03b c3db 04be
-0.08502295 0.19889896 -0.2656923 0.16730817 -0.03151725 0.1087749 0.13135189 0.1709714
0.0027355135 0.07982616 -0.038482487 -0.05429496 0.4462325 -0.38248807 -0.039764 0.41459048
0.023965321 0.7901763 0.23733105 0.018548146 0.13214007 0.24146712 0.0401415 0.031499483
0.27780604 0.12488344 0.12425749 -0.08422694 -0.011719108 -0.25583002 -0.005144402 0.09120738
-0.58452475 -0.3346452 0.24692851 -0.0005000806 -0.03568399 0.0852428 -0.0015831289 -0.5417884
-0.17772447 0.31087813 -0.2461856 -0.1074425 0.34854516 0.15960315 0.021675292 -0.07490849
0.006843723 -0.12974457

conv1.nn.0.weight f4 [850, 7]
00000000: 010a 8ebe c0b9 5fbe 03b0 77be 284e afbd
00000010: 9d75 283d 85f3 8bbe c0f7 2f3d 1f0b 75be
00000020: bb02 a8be 5bc5 4a3d 0bae d33f 4679 d33d
00000030: 083c 87be 8797 893e e743 ddbe 8e18 19be
00000040: 3b72 d63e fc8e 0fbe 7f4f 683d 66b3 6e3e
00000050: ef4e fabd 409a dfbb 357e b13e 3cd1 84bd
00000060: 5055 52be 301d a0bd 1d8d aabe 41ca 8dbe
00000070: c6da 123f 886e 86be 16f6 86be 48fc 22bf
00000080: 4502 03bf dde0 17bf 07dc 083f 6233 313e
00000090: 1cc7 c13d 9138 b03e 8a68 6e3e f06c dcbd
000000a0: 80dc 153c d1a6 b1be 6c60 2c3e b31d 003e
000000b0: e705 893e 7f64 223e c054 823e a094 c83e
000000c0: 1666 2a3d 4d80 893e bc3b 38be dee7 923d
000000d0: 803d a73d c02e e13d 5b49 14be 699f 173d
000000e0: dd77 823e b080 a5bc f05c c63c 4e82 063e
000000f0: 15da 2bbe a021 fa3c a5df 99be 14f6 8ebd
00000100: d2cb 4a3e f501 b3be 34a0 96bc 3b90 e8be
00000110: 1c4b cbbc ee98 24bc b5d2 6abe c4d7 89be
00000120: 5468 63bd 7cfc 91be 8166 7dbe cc98 90bd
00000130: acb0 5bbe d058 d33d ca7d babe 1c9b 92be
00000140: 8e5b 2f3e d05e d03d 7d3a 3fbe a9ce 943e
00000150: 9b3c 993d 2019 a8bd 89c5 803e 3480 423e
00000160: b155 463e a467 86bd 98ac 6dbe 705b 103d
00000170: ea4b 373e 560f 3b3e 20f0 e73c d406 6bbe
00000180: d811 63bd 155a 1dbe cad4 113f 8ed4 87bc
00000190: eff7 cebd 74f5 be3e d500 c2be 0c2f 89be
000001a0: b68e 9b3e b866 eb3d 46a6 aebe 4135 24be
000001b0: 3934 8d3e b002 d7bc b48f a7be 54f4 3ebe
000001c0: 9734 913e 7822 d4be 48c4 4cbd ada9 0340
000001d0: ebbf f63c d596 bd3e f8d3 9d3e 8cd0 813e
000001e0: 10ed eebc 2464 59be baba b9be 9f37 fcbe
000001f0: 7aa6 d4be b7ba aabe 2fd1 36be 491b a9be
00000200: 3323 3f3d f1e7 b2be 33ec cebe 0e0f eb3d
00000210: 29ee 56be 94df 1cbe 5ac3 63be 96ae 88be
00000220: 5a82 96be 4dcd 053e c437 37be 8888 0fbe
00000230: 918e 273d 87a1 bbbe 265f 3b3e 341d 4e3f
00000240: 9215 a0be c58d 6d3e 6a7d 9fbe 28b4 413e
00000250: 2e06 7dbe 623a b0bd 08a3 e8bd f409 c1be
00000260: 80c7 04bf 18a0 5fbe 56c4 793e a6d9 1c3e
00000270: 2489 fb3d 83b5 aa3e 00e0 49bb bc19 8fbd
00000280: 806a 1fbc ba84 58be 1dfe 6abe 06c9 04bf
00000290: f5e3 53be 8314 b9be 9cdd 17bf e70b 0ebe
000002a0: 5425 863d 4838 9a3d bc8e a73e 8b2a 3a3e
000002b0: ec2b 23be 07a7 34be 395a 9abe 8194 13bf
000002c0: ca77 88be cd04 933f cb72 453f 87f9 b2bf
000002d0: 6b1d a8be 99e9 88bd 3413 e03e 19d1 82be
000002e0: 347a 07bf 2d8b 04bf 7db1 133f d864 f6be
000002f0: fa06 693e 25db 8f3e 28af 313e 271a 353e
00000300: 6b8a a33e fce9 f4bd 813c e03d 0c24 a1be
00000310: a8df 453e 6d36 47be cff1 aebe cc67 053d
00000320: a69f 06bf b724 08be 5c14 5ebd eac8 363e
00000330: fffb 09bb 9241 90bd 22b1 843f 3905 3f3c
00000340: d2c7 563e 878c 863e d22c fbbe 8dac 3bbe
00000350: 2d7a 9ebe 12de 133f 9e1a 10be 1532 c93e
00000360: ba6d 13be a94d 3cbe 130a b6be 329d 83be
00000370: b0d7 99bd 16f6 13be a10b 0ebe 78b3 99be
00000380: 1abb cd3e 5d89 11bf d44d edbe 6624 01bf
00000390: d2c7 023f 51ff 833e 93b1 a0bd 2f0a 59be
000003a0: 103d 5cbd f23c babe 2077 66bc 782b 91bd
000003b0: d96f b0be 004c bab9 fa4e 043f 02ea 86be
000003c0: 5eaa cabe a034 eb3e 5425 b5bd 3846 be3e
000003d0: 71ab 003f 9908 48be 5a33 84be 909a a6be
000003e0: 3091 74bd 0036 773d e2b2 bcbe ac09 cbbd
000003f0: 4037 283c d9f5 873e f55b bbbe 40e6 d5bc
-0.27742007 -0.21848202 -0.24188237 -0.08559829 0.04112779 -0.27334228 0.042960882 -0.23930024
-0.32814583 0.04950462 1.6537489 0.103258654 -0.26412988 0.2687342 -0.43215868 -0.14950773
0.41884026 -0.14019388 0.05671644 0.23310623 -0.12222087 -0.006823808 0.346666 -0.06485221
-0.20540357 -0.07818067 -0.33310786 -0.2769337 0.5736507 -0.26256204 -0.26359624 -0.636662
-0.5117534 -0.5932749 0.53460735 0.17304757 0.09461805 0.34418157 0.23282066 -0.10762966
0.00914681 -0.34697583 0.16833657 0.1251133 0.26762316 0.15858649 0.25455284 0.39175892
0.041601263 0.26855698 -0.17991537 0.071731314 0.08166027 0.10995245 -0.14481108 0.03701726
0.25482073 -0.020202965 0.024214238 0.13135645 -0.1678241 0.030533612 -0.3005344 -0.069805294
0.19804314 -0.3496243 -0.018386938 -0.4542254 -0.024816088 -0.010046227 -0.22931941 -0.2692243
-0.055519417 -0.28512943 -0.24746133 -0.07060394 -0.21454114 0.10319674 -0.36424094 -0.28633964
0.17124769 0.10174334 -0.18674655 0.2906392 0.07482263 -0.08207917 0.25150707 0.18994218
0.19368626 -0.06562737 -0.2321037 0.03524345 0.17900053 0.18267569 0.028312743 -0.22951823
-0.05543694 -0.15366395 0.56965315 -0.016580846 -0.10105883 0.3729664 -0.3789126 -0.26793706
0.30382317 0.114942014 -0.34111232 -0.1603594 0.27578905 -0.026246399 -0.32726824 -0.18647891
0.28360435 -0.41432548 -0.049991876 2.0572312 0.03012081 0.37029138 0.30825782 0.2535442
-0.029165775 -0.21229607 -0.36275274 -0.49261186 -0.41533262 -0.33345577 -0.17853235 -0.3302863
0.046664428 -0.34942582 -0.4041458 0.11477481 -0.20989288 -0.15319663 -0.2224249 -0.26695698
-0.29396325 0.13066597 -0.17892367 -0.14016926 0.040907446 -0.36646673 0.18298015 0.8051331
-0.31266457 0.23198612 -0.3115037 0.1891638 -0.24709389 -0.08604886 -0.11359221 -0.37702906
-0.5186691 -0.21838415 0.24391302 0.15317401 0.12282017 0.33341607 -0.003080368 -0.0698733
-0.009729981 -0.21144381 -0.22948499 -0.5186924 -0.20692427 -0.36148462 -0.59322524 -0.13871728
0.065500885 0.07530266 0.32726085 0.18180291 -0.15934724 -0.17641841 -0.3014696 -0.57648474
-0.26653892 1.148584 0.77128285 -1.39824 -0.32834944 -0.0668518 0.4376465 -0.25550154
-0.5292084 -0.51774865 0.576927 -0.48123813 0.22756568 0.28096882 0.17351973 0.17685758
0.31941542 -0.119586915 0.1094904 -0.31472814 0.193236 -0.19454356 -0.3416886 0.03256969
-0.52587354 -0.13295256 -0.054218635 0.1785008 -0.0021054742 -0.070437565 1.0366557 0.01165896
0.20974663 0.2627909 -0.49057633 -0.18327542 -0.30952588 0.5776073 -0.14072654 0.39296022
-0.14397326 -0.18389 -0.3555456 -0.25705868 -0.07511842 -0.14449343 -0.13871624 -0.30019736
0.4018181 -0.56850225 -0.4634844 -0.50446165 0.5108615 0.25780728 -0.078463696 -0.21195291
-0.05376917 -0.36374623 -0.014066488 -0.07088369 -0.34460333 -0.0003553331 0.5168301 -0.2635041
-0.39583105 0.45938587 -0.088450104 0.37162948 0.502616 -0.1953453 -0.25820428 -0.32539797
-0.059708774 0.060354233 -0.36855227 -0.09913954 0.010267079 0.26554754 -0.36593595 -0.026110768

conv1.nn.0.bias f4 [850]
00000000: 26e0 b0be 917e 05be cb2b 1abe 42e8 95be
00000010: a049 1fbe 3a8d abbe 76db cdbe 00ae 24bf
00000020: 001a ffba 88a0 2ebd ac07 2fbd dd5d b93e
00000030: e5e5 1dbe dcb4 a3be 8705 afbd cc8c babe
00000040: 624d d43e c0d7 663e 2ad2 84bd 6cb8 9cbe
00000050: 9f27 12be 4b3e c5bd 9e72 bbbe c36d 6b3e
00000060: ea24 ab3d 7156 893e 66e7 b03d f66a 01be
00000070: 58c0 01be 09c4 4ebe b392 813c e4a7 ac3d
00000080: 1848 73be eef6 67be 4584 613d 6052 053c
00000090: 9a8d b7be abf1 c73e beba 3ebe 1fd4 4bbd
000000a0: a5bd d0bc 9f50 92be 4a95 9abe 873a 083b
000000b0: f63b d43a 72a7 443e 1259 e9bc a88e 86be
000000c0: 5218 86bc 0608 89be 45c2 ab3e a305 bc3e
000000d0: 9b1f 8a3d 63cd 45be 0a8d 483e b86c efbe
000000e0: 2913 053f 2ed2 c73f 34b4 933d c5a5 613f
000000f0: 2e08 b6be b48d a3bd e307 703f 936f b13e
00000100: 1c73 b23e 2888 2abd 3f3b c13e 4efd aa3f
00000110: 0430 efbd fe0e 343e ca6d 56be dd98 113f
00000120: 2d2b 9ebd 605f 37be e9ef 813f 6ff5 153f
00000130: 85d8 afbe e6f0 ff3e f26f 81be 1070 36bd
00000140: 1ac5 96be fc9d c5bd a10e 8c3f 74ed 86be
00000150: a0d6 b6be a6a3 f73e 7171 0c3f 5670 1dbe
00000160: d4ae 683f d15d a6be 91e5 d5bd 4699 2d3f
00000170: a110 2abe b4e3 3a3d 58e7 533f 4fda 713f
00000180: 85a5 4b3f e538 56be abb6 843f 8576 763e
00000190: 7149 233e 25b3 073f d70c 0c3f a742 163d
000001a0: 3096 4c3f 17dd e6bd 6485 023f 5c06 30be
000001b0: a278 82be 1cc3 88bd 221f 433f bdc4 8cbe
000001c0: f74a f8bd 8f3b 1f3f 0f89 7c3f 73ce 1abe
000001d0: f039 60bd 36de 293f 7fd1 bf3d c572 10be
000001e0: df37 0ebf 7af0 1a3f aa3e 073e d0c9 8a3d
000001f0: 468f 473e 45b4 273e 48bf ac3d 92e7 ab3c
00000200: 0027 9a3a 0080 85bb 32dd 0b3f 2465 453f
00000210: 3c33 103f 7db3 483f 83b9 103f 3447 0f3e
00000220: d51d 293e b169 b2be 5e0a d33e b5f1 05bd
00000230: 55e1 0b3c bc5d 4b3e 3b66 023e ec06 b2be
00000240: e2dd 3b3f cbba 7a3e 9931 0a3e 907a e7bd
00000250: f8ed 91be 37e1 453e 0081 c03a 66e4 013e
00000260: 87b8 aabe 6fa1 92be 87be 94be 1692 0c3e
00000270: 0ddc 833e 43b0 48be 0fc6 8f3e ad80 843e
00000280: 7e80 7f3e c8a8 edbd 7dd8 8cbe 5002 3abe
00000290: 1a7e a8be 9e68 71be e44a b9bd 8719 a8be
000002a0: e933 3cbe 0dbd bbbe 50f5 edbd 6998 a3be
000002b0: c50e a9be 9897 923d a03c aabc 72a5 4d3e
000002c0: a2ce 493e 4083 563d 20f4 3f3c 92e9 463e
000002d0: 68a1 5ebd b8d5 a9be c876 b9be 201a 39be
000002e0: 466a 383e 6054 55bd d642 90be 15a5 993e
000002f0: 9eb5 513e f88c 4bbe 5d87 b23e 761f 793e
00000300: 5c47 d63d eae0 713e b417 a23d 57c9 85be
00000310: 3b28 be3e 20da bebe b4dc efbd a179 84be
00000320: 5db3 14be 0af0 783e 26b0 9ebe 50bd 4bbe
00000330: 680d b0bd d8ca e2bd f050 a7be 504a 8bbc
00000340: 1231 483e 405e a93b 40cb 3b3d 188a 07be
00000350: a751 af3e 044e db3d d89c b43d 487e 573d
00000360: 88cd 40bd 2851 393d 5908 bd3e eee7 153e
00000370: 749e b2be c026 c5bc 8616 5ebe 0776 a5be
00000380: 09d4 c03e d975 8b3e 467a 62be 5017 023d
00000390: e812 89be 9e70 8dbe bdb6 bfbe 4615 4fbe
000003a0: 5adc 7a3e dda7 b1be f1d1 9c3e 6eba 603e
000003b0: d04d 3ebd f3a4 8fbe b211 2d3e c856 05bd
000003c0: 70e2 673d a388 bd3e 91ae a93e 95da 983e
000003d0: 0faa b8be 44d6 11be 25ba 953e 31d4 36be
000003e0: 6b05 9bbe c82c c53d 5d21 1c3f f414 b03e
000003f0: 24de b7bd c001 12bd 912a a13e accb 8ebe
-0.34546012 -0.13036563 -0.15055768 -0.2927876 -0.1555543 -0.33506185 -0.40206498 -0.64328
-0.0019462705 -0.042633563 -0.042731926 0.36204425 -0.15419729 -0.31973922 -0.08545976 -0.36435544
0.41465288 0.2254324 -0.06485398 -0.30609453 -0.14272927 -0.09631022 -0.36610883 0.2299109
0.0835665 0.26823762 0.08637886 -0.12638459 -0.1267103 -0.20191969 0.015817022 0.0843046
-0.2375797 -0.2265279 0.055057783 0.0081373155 -0.3585022 0.39051566 -0.18625924 -0.04976284
-0.025481055 -0.28577134 -0.30192024 0.0020786838 0.0016192186 0.192045 -0.028484855 -0.26280713
-0.016369019 -0.26763934 0.33546653 0.3672305 0.067443095 -0.1931663 0.19585052 -0.46762633
0.5198236 1.5611017 0.072121054 0.8814357 -0.35553116 -0.07986012 0.93762034 0.34655437
0.34853446 -0.041633755 0.37740514 1.3358552 -0.1167908 0.17583844 -0.20940319 0.56873876
-0.07723079 -0.17907476 1.015134 0.58577627 -0.3434488 0.49988478 -0.2528072 -0.044540465
-0.29447252 -0.09649274 1.0941964 -0.26353037 -0.3571062 0.4836704 0.548606 -0.15374884
0.90891767 -0.3249345 -0.10444177 0.67812 -0.16607906 0.04562731 0.8277488 0.9447374
0.7954944 -0.20920141 1.0368246 0.24068649 0.15945984 0.5300773 0.5470709 0.03668466
0.7991667 -0.11272638 0.5098479 -0.17189926 -0.2548266 -0.06677839 0.7621938 -0.2749385
-0.121236734 0.62200254 0.98646635 -0.15117817 -0.054742754 0.6635469 0.0936613 -0.14106281
-0.55554 0.6052319 0.13207498 0.06776774 0.19488248 0.16377361 0.084349215 0.020984445
0.001176089 -0.0040740967 0.5463439 0.77107453 0.5632818 0.7839888 0.5653307 0.13992006
0.16515286 -0.3484626 0.41218847 -0.032701213 0.00853761 0.19859976 0.1273431 -0.34770906
0.7338544 0.24485318 0.13495483 -0.11302674 -0.28501868 0.19324194 0.0014686882 0.12684783
-0.33343908 -0.2863879 -0.2905161 0.13727602 0.25753823 -0.19598489 0.28080794 0.25879422
0.2495136 -0.11604458 -0.27508917 -0.18164945 -0.32908708 -0.23575065 -0.090474874 -0.32831976
-0.18379177 -0.36667672 -0.11619055 -0.31952217 -0.3301908 0.071578205 -0.020780861 0.20082644
0.1970773 0.052371264 0.011715919 0.19425038 -0.054353148 -0.33170867 -0.36223435 -0.18076372
0.1800929 -0.05208242 -0.28175992 0.3000876 0.20479438 -0.19877994 0.348689 0.24328408
0.104628295 0.23620954 0.07914677 -0.26130173 0.37140068 -0.3727579 -0.11712018 -0.25874045
-0.14521547 0.24310318 -0.30993766 -0.19896436 -0.08596307 -0.110738456 -0.32678938 -0.017003208
0.19549969 0.005168706 0.04584813 -0.13236272 0.34241983 0.1070824 0.08818978 0.052610666
-0.04707101 0.045243412 0.3692043 0.14639255 -0.34886515 -0.024066329 -0.2168828 -0.3231661
0.3766177 0.27238348 -0.22116956 0.031760514 -0.26772237 -0.27624983 -0.37444106 -0.20222959
0.2449812 -0.34698382 0.30628923 0.21946117 -0.046460927 -0.28055534 0.16901281 -0.032553464
0.056612432 0.37018308 0.33140996 0.29854265 -0.36067244 -0.14241892 0.2924358 -0.17854382
-0.3027757 0.09627682 0.6098841 0.34390986 -0.08977917 -0.0356462 0.31477788 -0.27889764
