tests/files/graph_swan_models.pt (torch, 71971 bytes, 19 tensors)

lin0.weight f4 [10, 18]
00000000: 262a 353e 7186 063e 9f99 36bd 8169 ebbd
00000010: d450 823b f61b 05be 965c b43d 75e5 2e3e
00000020: 4f1e b8bd 5f71 f9bd 4748 1b3d 94fa bb3d
00000030: 4137 1abe 71cc 983b 3ef9 59be b3fc 28be
00000040: ae5f 543e 28ee 02bc da35 abbd 5b31 4cbe
00000050: 945c 8a3d 63ec 703e 1f90 25be 4f4b a8bb
00000060: fac1 46be aedb 483e 09ea 1fbe a48a 64be
00000070: 4ccf 37be 9dbd cabd 0d5e 313e 55ec 3e3e
00000080: 9de6 273d e0e0 42be b064 6fbe 6e3d 58be
00000090: 8f63 cbbd 7679 133e e974 b03c 143a c83b
000000a0: 93f0 2b3d 48ec da3c 61ac 3fbb 80a8 523e
000000b0: 18b4 063e 5cf7 5abd 0db0 2a3e 2274 4a3e
000000c0: 6761 643e a943 893d de8c 5f3e 16d2 25be
000000d0: 377d 03be 2d44 15be ad55 0bbe 2bd8 6cbd
000000e0: f697 be3d 5eb4 5cbd 5c12 c5bd 2cae e7bc
000000f0: 7ee0 50be cea3 5abe 60ff 543e 304e 1a3e
00000100: 2e0b 46be 595c 6e3e 5f24 19be 706f 103e
00000110: 464d b8bd b9ca 6b3e 3968 653e fdae e2bd
00000120: c0ee 1f3d d6f8 e63d 3880 fbbd 5f47 4d3e
00000130: f844 683e 1050 3ebe 0b27 003c 098f cebd
00000140: 8ddc a4bc 5301 613e 5764 08be a100 243d
00000150: 8c15 01be e003 1dbe e9f8 42be 4e99 cebd
00000160: f7ce 1dbe 283b ea3b 9f1c 723d a2a5 d5bd
00000170: 046a d5bd 277d b33d e36b 5fbe e265 de3d
00000180: d6cf 9bbd 944e a83d 7b97 1f3e 2250 103e
00000190: bf8f 503c a10e 203e 5d35 65be 2b78 b73d
000001a0: a2ee e5bb 944b 3ebe 67bf c23d 3490 f23d
000001b0: c557 5bbe 37cf 35be 58f4 aabd bbab 2d3e
000001c0: eb0a 47be 9c11 9b3d 8363 afbd 77f1 40be
000001d0: 918a 9a3c 8db9 f83c 4add 52be 08b3 1e3e
000001e0: 0740 1c3e ff91 873d 1bfe 43bd b2a3 2c3c
000001f0: 3668 71bd 69ab 6a3d a5db 5ebe 75d1 0dbe
00000200: 5198 09bd 869e 3a3e dcdc 46be c952 f1bd
00000210: 3cc9 a83d 67e4 8f3d c106 183e 74c6 bebb
00000220: ffae 573e d0c2 41bd 4b4f 0bbe ec07 17be
00000230: a9a7 6ebd 6f71 86bd d901 c5bb c450 f0bd
00000240: e309 f43d 205f 173e 860f 1b3e 315a 8f3c
00000250: 4061 20be 96b6 9cbc 39e9 173d 8f35 6bbc
00000260: 7929 71be e718 6f3e 5b86 2b3e 8009 233e
00000270: e5a3 e63d 9712 a0bd a082 80bc 8a06 3f3e
00000280: f97d 2d3e 7379 1cbd d4a1 86bd 2c31 4fbd
00000290: 610c 523e ed6f ea3c 8d38 1e3d dd44 1e3c
000002a0: 6137 afbd 5624 243e f2c1 803d 0424 563e
000002b0: 5b8a 0bbe 993a 893c 98ea dc3d b217 42be
000002c0: ecd0 b5bd 5182 d2bd 28d9 2bbe c785 e6bc
0.1769186 0.13137223 -0.0445801 -0.11494733 0.0039769206 -0.12998948 0.08806722 0.17079718
-0.08990156 -0.12179827 0.037910726 0.09178653 -0.1506014 0.004663043 -0.21286485 -0.16502647
0.20739624 -0.007991351 -0.08359881 -0.19940703 0.06755939 0.23527674 -0.16168259 -0.0051359306
-0.19409934 0.19615051 -0.15616621 -0.22318512 -0.17950171 -0.09899447 0.17321034 0.18644841
0.040991414 -0.19031096 -0.23378253 -0.21117184 -0.09931099 0.14401802 0.021540122 0.006110439
0.041977476 0.026723996 -0.0029247033 0.2057209 0.13154638 -0.053458557 0.1666872 0.19770864
0.22302781 0.06702358 0.2183108 -0.16193423 -0.12840734 -0.14576788 -0.13606901 -0.05782334
0.09306328 -0.05388295 -0.096226424 -0.028281294 -0.20398137 -0.21351549 0.20800543 0.15068889
-0.19340202 0.23277415 -0.1495528 0.1410501 -0.08999114 0.23026551 0.22403039 -0.110685326
0.03904605 0.112779304 -0.12280315 0.20046757 0.2268256 -0.18585229 0.007821809 -0.100858755
-0.020124698 0.21973161 -0.13319527 0.040039662 -0.12605876 -0.1533351 -0.19040264 -0.10087834
-0.15410982 0.0071481653 0.059109326 -0.104319826 -0.104206115 0.08764105 -0.218185 0.10859276
-0.07608001 0.082181126 0.15585129 0.14093068 0.012729584 0.1563058 -0.22383638 0.08958467
-0.0070169726 -0.18583518 0.09509163 0.11843911 -0.214202 -0.17754827 -0.08347386 0.16960041
-0.19437759 0.07571718 -0.08563902 -0.18842112 0.018864902 0.030361915 -0.20592228 0.15497983
0.152588 0.066196434 -0.047849756 0.010537075 -0.058937274 0.057292376 -0.21763475 -0.13849433
-0.033592526 0.18224534 -0.19420189 -0.11783368 0.082415074 0.07025986 0.14846326 -0.0058219973
0.2106285 -0.04730493 -0.13604467 -0.14749116 -0.058265362 -0.065646045 -0.006012183 -0.11734155
0.11915948 0.14782381 0.1514264 0.017499061 -0.15662098 -0.019130033 0.037087653 -0.014356031
-0.23550977 0.23349343 0.16750471 0.15921593 0.11261729 -0.07816046 -0.015687287 0.18654838
0.16942586 -0.03820176 -0.06573835 -0.050584003 0.20512535 0.028617823 0.03862815 0.009659973
-0.085554846 0.16029486 0.06286992 0.20912176 -0.13626997 0.016751574 0.10786933 -0.18954352
-0.08877739 -0.10278762 -0.16782057 -0.028139962

lin0.bias f4 [10]
00000000: 33b6 d9bd cd21 1a3e bef8 403d 122f 063d
00000010: 58a9 6a3e 374b 53be 9784 083e a3af 613d
00000020: 1f7b 23be 9713 ddbc
-0.10630455 0.15051956 0.04711222 0.032759733 0.22916162 -0.20634161 0.13331829 0.05509914
-0.15964936 -0.02698688

conv.root f4 [10, 10]
00000000: f889 f9bd b250 f0bd 282c 30be 1b90 413e
00000010: 4e7a a83b c6d6 8cbe c0d0 95be 7773 1fbe
00000020: d01a 7fbe 9016 d3bd 3950 8e3e 4a8e 06be
00000030: ec0a a1be ee13 28be fc8a dbbd 6c67 983e
00000040: a60c 8f3e da6d a6bd 6604 563d 31ec 683d
00000050: ae95 0cbe 0584 7c3e 4078 2d3e 521a 07be
00000060: 52f0 a63d d2d0 b1bd 8462 a1be 0f6c 2abe
00000070: beb3 98be 0267 713c 921a 0e3d 8aad 843d
00000080: b1e2 983e 8ced f03d 2501 b7bc 30b3 66bd
00000090: 57df 43be 92ca b03d 6263 f3bd 3b7f 9c3d
000000a0: 98cd d6bd 29fc 813e c4f9 e23d f29b 1e3e
000000b0: 6927 94be 2d11 1c3e a7f2 823e 3dc6 8c3e
000000c0: 1074 1c3d 2ace 95be 14af 6abe a052 7ebe
000000d0: 8b11 02be 78a0 46be 69a9 a33d 7ebb 6b3e
000000e0: 380b 063e 2f4d 1c3e 0442 e23d baee edbd
000000f0: 32cf 133e 52f3 a1bd dbcb 9ebe 577f 78be
00000100: d5c0 8f3b 44d7 5ebe 842a a13e 62d9 62bd
00000110: c2e1 b9bd 84a0 01be 9861 6c3d 3799 6ebd
00000120: 4ebb 14bb e07c 9e3d 9afe acbd bb1f 9bbe
00000130: f2c4 583c 4fa5 80be ad0c 823e 4a70 52be
00000140: 5593 033e f0d4 38be 0a26 d13d 5680 8ebe
00000150: e7c2 a23c 32bb d23d 8a2d 5cbe d7a1 ec3d
00000160: eb5e 853e bc9e 87be 622b 783e c2ee 43bc
00000170: 9da4 a73d 74f6 c33d 9199 943d 9cde 943c
00000180: 2358 51be 6273 1d3e 79b7 313e 517a d7bd
-0.121845186 -0.117341414 -0.17204344 0.18902628 0.005141533 -0.2750761 -0.29260826 -0.1557139
-0.24912572 -0.10307038 0.2779558 -0.13140216 -0.31453645 -0.16413853 -0.107198685 0.29766405
0.27939337 -0.08126421 0.05225029 0.056865875 -0.13728973 0.24659736 0.16940403 -0.13193634
0.08151306 -0.086824074 -0.31520474 -0.16642784 -0.29824632 0.014734032 0.03469331 0.064784124
0.29860452 0.117640585 -0.022339413 -0.05632323 -0.19128166 0.08632387 -0.1188419 0.07641455
-0.10488433 0.25387695 0.11082795 0.15489176 -0.28936318 0.15240927 0.25575754 0.27494994
0.038196623 -0.29258853 -0.2291835 -0.24836206 -0.12702005 -0.19397151 0.07991297 0.23020741
0.13090217 0.15263818 0.11047748 -0.11617799 0.14434507 -0.07907738 -0.31014904 -0.24267326
0.004387001 -0.21761805 0.3147775 -0.055383094 -0.09076263 -0.12658888 0.05771026 -0.058251586
-0.002269465 0.07738662 -0.08446999 -0.30297646 0.013230549 -0.2512612 0.25400296 -0.20550647
0.12849171 -0.18049979 0.102123335 -0.27832288 0.019868327 0.10289611 -0.21501747 0.11554306
0.2604898 -0.26488292 0.24235299 -0.01195878 0.08185694 0.095684916 0.07255853 0.018172555
-0.20443778 0.15376046 0.17355146 -0.10521377

conv.bias f4 [10]
00000000: 86f6 93b9 a22f ecb9 18fb 60b8 5d69 a5b5
00000010: e53b a936 7e7f 2039 80c1 9a3a 4514 d838
00000020: 994e df36 850a 0cba
-0.000282217 -0.00045048917 -5.363961e-05 -1.2324123e-06 5.043565e-06 0.00015306284 0.0011806935 0.00010303458
6.655068e-06 -0.00053421437

conv.nn.0.weight f4 [128, 7]
00000000: 28e5 7dbd 6f43 b23d d2e6 62be 42d4 9b3b
00000010: a248 a03e f63e a9be 3595 e33d bb2d 94be
00000020: fe32 553e f931 803d 531a 23be 7989 ff3d
00000030: 7f85 09be a190 57be b469 ffbd 6e89 fd3d
00000040: 527e 9abe 67d7 98bd 0047 4abe 58a4 473e
00000050: d21f 50be 8309 bbbe 89a5 f73d 17d2 613e
00000060: d2dd 61be 7d0b e6bc dee8 bb3e caa9 8ebd
00000070: 3162 313e f8ac 88be 7e78 77be daf7 7e3e
00000080: 1472 bdbe 3201 46be 60c6 0e3d d510 59be
00000090: 02e2 093d 501e acbe d359 4ebc 9e72 623e
000000a0: 5788 3dbe 602f 3abe 8c25 4fbe d613 abbe
000000b0: 6307 98be 6bde 42be 0636 253e dc3c 003d
000000c0: ee81 79be a78d c2bd 7104 86be 9e53 9a3d
000000d0: 7881 bd3e dcbe 2b3e 93d1 a83d 951c 343e
000000e0: 2395 863e f360 5e3e 42a4 173d 9433 38be
000000f0: 0ae9 8bbe fbfa 50bc 15fa 52be 5b08 babe
00000100: bc9f 84be 7a39 67be 7422 40bd f750 18be
00000110: c222 943e 008d 10be 6276 3fbe 7786 b83e
00000120: 0dc5 033e 6dbf 9f3e 294f 2f3e 8f08 43be
00000130: a14c 3ebc ca7a ac3e 77a2 8ebc c943 7a3d
00000140: a200 08be 4586 8c3d 35cc b03e 0631 8b3d
00000150: a152 213e 9744 e83d 6355 e8bd 7e0c 13be
00000160: 4d34 423e b12b 6bbd 9785 a1be 382b 5ebe
00000170: 0614 ba3e 1b36 b43d 31eb ab3e e158 a4be
00000180: 8b25 b9be 0ce7 adbe e94d 84be 712d 75bd
00000190: 62e0 81be 14bf 353e 9a0e 09be 3c7c 40be
000001a0: 051c 1cbe 207a fbbd 6957 a43e 0af2 babe
000001b0: d548 8a3e 5412 95be b871 653e 1c62 d4bd
000001c0: 44be bf3e 8733 75be 1230 97be cdfd 8dbe
000001d0: c921 c13d 897f 9b3d 928f 283e 5019 533d
000001e0: e065 8fbe 764e 14be ea45 60be ab40 81be
000001f0: 4265 d63c a9ef 87be b026 2c3e b592 3c3e
00000200: a3ea b5be 01a8 b93c a6fa 863d 3018 47be
00000210: c8f9 32be f1f5 b93e 664a babd 5292 713e
00000220: 79a7 36be d992 903c 4dd8 bf3d 7b59 b8be
00000230: df08 6dbd 2647 28be 86cb e1bc b0c6 743e
00000240: a5a7 28bc 7533 633e b9ec bfbe d959 a4be
00000250: 03dc 88be ee4d a7be 6afe 81be 7cbf 0b3e
00000260: a95d 063e 7896 69be 8ca9 b7be 10cf 8cbe
00000270: 64e8 74be e56b c03d df24 913e fea0 713e
00000280: 4278 3abd 39b7 6ebe 4aec 77be c057 863d
00000290: e54c 28be 2470 eabd 7ef8 e2bd c742 bb3e
000002a0: e1c4 87bd f402 39be 7225 9ebe 67f1 443e
000002b0: 88f2 0c3e 4a73 41be 59ea 88be 63d2 673e
000002c0: b9d5 05bd 2c85 8a3e 2086 aa3b 6f67 b8be
000002d0: 7682 88be f5f4 ecbc e2ad 813e e7b6 af3e
000002e0: ae2f 8cbe 59aa 8bbe a909 2bbe 1428 d03c
000002f0: 7dd2 3dbe 48b0 19be 5b77 ad3e c71e 9b3e
00000300: 5c47 843e 9ac1 403d a793 4d3e 62eb 39be
00000310: f256 393e 1d0b 9b3e 5076 c4bd 5df7 39bd
00000320: 17f0 483d 3968 613e b8be 83bd b753 a3be
00000330: 82ca 303d 5aec 413d 9b07 aa3e 207a 29be
00000340: abfa 60be e50a a33e 771f 41be be1b 2e3e
00000350: 99d0 02bc 1458 dfbd 17cf 943e 9fcc 8bbe
00000360: e64a 83be 9210 993c eac9 9ebd 3048 a93e
00000370: f4a3 b1be 195b 8cbe 2585 8e3d 4d2b 8b3d
00000380: 5d82 a53d 26be 2cbe 0e79 e0bd 107a a5be
00000390: 93c3 5abe 14ec 5d3e d719 4dbe 9b2e b2be
000003a0: b812 8b3e 3020 ca3d 9504 383e 9257 3cbe
000003b0: 6c83 a83d 18ef 1dbd 19f3 22be 8b8f 773e
000003c0: b5d0 66be c365 683e 824c 5a3e 1bef 203e
000003d0: 49a0 043e 558c 5c3d 7fb9 943d 3b87 f3bd
000003e0: cb6f c1be 7629 7c3e f733 87be 0c21 23be
000003f0: 00e1 a1bd c2bc 8a3e 2ec0 82bc a38e 83be
-0.06198612 0.08704268 -0.22158363 0.0047555277 0.31305414 -0.33055848 0.11112443 -0.2894114
0.20820233 0.062595315 -0.1592801 0.12477393 -0.13429831 -0.21051265 -0.12471333 0.12379728
-0.301745 -0.0746296 -0.19753647 0.19496286 -0.20324638 -0.36530694 0.1209212 0.22052799
-0.22057274 -0.02808165 0.367011 -0.069659784 0.17322613 -0.26694465 -0.24167058 0.24899235
-0.37001097 -0.19336393 0.034857154 -0.21197827 0.033662803 -0.33616877 -0.012594658 0.22114035
-0.18509041 -0.18182135 -0.20229167 -0.3341357 -0.29693136 -0.19030158 0.1613389 0.03130804
-0.2436597 -0.09499674 -0.26175264 0.0753548 0.3701284 0.16772026 0.08243098 0.17589028
0.26285657 0.2171667 0.037021883 -0.17988425 -0.27326232 -0.012755151 -0.20603211 -0.363345
-0.25903118 -0.2258052 -0.046907857 -0.14874636 0.28932768 -0.14116287 -0.18697503 0.3604009
0.12868138 0.31200734 0.17120041 -0.19046234 -0.011614949 0.3368743 -0.017411454 0.0610998
-0.13281491 0.068615474 0.34530798 0.0679646 0.15754177 0.113412075 -0.11344411 -0.14360234
0.18965264 -0.057414714 -0.31547233 -0.21696174 0.36343402 0.08799382 0.33577874 -0.3209906
-0.36161456 -0.33965337 -0.2584069 -0.05985779 -0.25366503 0.17748672 -0.13384476 -0.18797392
-0.15245064 -0.12279153 0.3209794 -0.36512786 0.2700869 -0.29115546 0.22406662 -0.103702754
0.3744985 -0.23945437 -0.29528862 -0.27732697 0.09430272 0.07592685 0.16461018 0.05153781
-0.28007412 -0.14483055 -0.2190167 -0.2524465 0.02617133 -0.26550034 0.16811633 0.1841534
-0.35530576 0.022663118 0.06590776 -0.1944282 -0.17478096 0.3632045 -0.090962216 0.23590973
-0.17837323 0.017648147 0.09367428 -0.36005768 -0.05786979 -0.16433391 -0.027562868 0.23903918
-0.010293876 0.22187598 -0.37485293 -0.32099798 -0.26730356 -0.32676643 -0.25389415 0.13647264
0.13121666 -0.22811306 -0.35871542 -0.27501726 -0.23916775 0.09395579 0.28348443 0.2359657
-0.045524843 -0.23312081 -0.24211231 0.06559706 -0.16435583 -0.114471704 -0.110825524 0.36574385
-0.066293485 -0.18067533 -0.30887944 0.19232713 0.13764393 -0.18891636 -0.26741293 0.2263885
-0.032674525 0.27054727 0.005203977 -0.36016414 -0.26662034 -0.028925398 0.25327975 0.3431923
-0.27380127 -0.27278402 -0.16702904 0.025409736 -0.18537326 -0.15008652 0.33880123 0.3029692
0.25835693 0.047059633 0.20075856 -0.18156198 0.18099573 0.30281916 -0.09592879 -0.04540192
0.049057093 0.22012414 -0.06432861 -0.31899807 0.043161876 0.047344543 0.33208928 -0.16550493
-0.21970622 0.3184425 -0.18859659 0.1700277 -0.007984304 -0.109054714 0.29064247 -0.2730455
-0.2564308 0.01868466 -0.07753356 0.33062887 -0.346954 -0.27413252 0.06958989 0.06795368
0.080815054 -0.16869411 -0.10960589 -0.3231969 -0.21363668 0.21672088 -0.20029388 -0.34801182
0.2716272 0.098694205 0.17970498 -0.1839278 0.08228192 -0.038558096 -0.15913047 0.24175851
-0.22540553 0.22695069 0.21318248 0.15716211 0.12951769 0.05384477 0.07261943 -0.118910275
-0.37780604 0.24625191 -0.26406834 -0.15930575 -0.079042435 0.27097136 -0.015960779 -0.2569476

conv.nn.0.bias f4 [128]
00000000: 6f1f 6abe 00f6 8d3e f60f 75be 196f cb3d
00000010: 45c0 903d 9695 8bbd a517 acbe 7502 61be
00000020: 9912 0fbe 2935 acbe dd47 7f3e a4d0 fb3d
00000030: 6f61 dabd 4567 8dbe 1bd5 633e bab3 a73e
00000040: 9de3 05be 6b64 85be df2c f13d 2926 85bd
00000050: 0b32 c03c 1b27 89bd dba8 8a3e ccfb 30be
00000060: ac97 76bd e8f4 903e 2a02 68be d00c 723d
00000070: 82b8 57be bac0 02bb 2209 69be 026a 683e
00000080: 3802 5f3d 4a8a 8cbe 2a26 aa3d 4b34 7dbe
00000090: ef00 c8bd 8177 a3be 0095 593c d0de b0be
000000a0: 5f73 fe3d da22 4a3e f681 5abe 3929 943e
000000b0: f42c 103e 72c0 183e 096f 843e 9610 68be
000000c0: 8ca2 a43e 8888 02bb 753e b93e 8a71 60be
000000d0: fe6b 673e e471 bb3d cb0b 90bd b7fc 353e
000000e0: a9b1 e83c ac67 b4be d232 37be 5f83 bf3e
000000f0: 6166 24bc 635a aa3e 1912 b73e 4f7b 373e
00000100: eba7 b13c a0b2 efbd cb7b 9e3e 8928 56bd
00000110: 82b5 e83d e9f9 533e 014f 9abd d0b5 57be
00000120: 7ce7 9abe ee35 c43d c42b a4bd 0a74 37be
00000130: eb66 ab3e 4569 0a3e ea02 b1bd cf27 833e
00000140: 8a11 56be 2ebe 50be 090b b33c 7236 bc3e
00000150: adf1 e13d b40f 67be 1792 82bb 1b1b 1bbe
00000160: 72bd a7bc a25a cfbd 7f2a 733e d4b1 9cbe
00000170: decd 0f3e b336 0dbe 4a6a 423e ed03 aa3d
00000180: ae2c 0ebe 80ab bf3e 232b 8c3d fb0b 4ebe
00000190: c46b b6be e63c b53e ea40 3cbd 4ea1 b7be
000001a0: ed98 7d3d e6d2 803e 5935 603e 47e8 09be
000001b0: 04de 443e 6124 b8be 9eaa a63e 21a7 1bbe
000001c0: 7446 5cbe f1f5 f038 c95e 9e3d 87d8 ce3a
000001d0: 24b9 103e 8aff ba3e 590f 6abe 2891 cf3d
000001e0: 4ac3 4dbe 7145 aabe 16f0 0b3e 1196 45be
000001f0: 42f8 8fbd f1b2 6c3e 481c 463e 0868 37be
-0.22863553 0.27726746 -0.2393187 0.099332996 0.070679225 -0.06815641 -0.3361179 -0.21973594
-0.13971938 -0.33634308 0.24929757 0.122956544 -0.10663115 -0.2761785 0.22249262 0.32754308
-0.13075109 -0.26053175 0.117761366 -0.06501419 0.023461362 -0.06696912 0.27081951 -0.17283553
-0.06020324 0.2831185 -0.22657076 0.05909425 -0.21066478 -0.00199513 -0.2275739 0.22696689
0.054445475 -0.27449256 0.083080605 -0.2472698 -0.09765803 -0.31927112 0.013280153 -0.34544992
0.12424349 0.19739857 -0.21338639 0.289377 0.14079648 0.14917162 0.25865963 -0.22662577
0.32155263 -0.0019917805 0.36180463 -0.21918312 0.2259979 0.09152582 -0.07033499 0.17772184
0.028405027 -0.35235345 -0.1789048 0.37404916 -0.010034175 0.33272085 0.35755995 0.17918132
0.021686515 -0.11703992 0.30953822 -0.05228475 0.11362745 0.20700802 -0.075346 -0.2106545
-0.30254734 0.09580599 -0.0801616 -0.17915359 0.33476958 0.1351672 -0.08643134 0.2561631
-0.20905128 -0.20385048 0.021855848 0.36760288 0.11032424 -0.22564584 -0.0039847004 -0.15147059
-0.020476077 -0.10124709 0.2374668 -0.30604422 0.14043376 -0.13790397 0.18985859 0.0830153
-0.13884231 0.37435532 0.06844165 -0.20121758 -0.35629094 0.35398024 -0.045960344 -0.35865253
0.06191342 0.25160903 0.2189535 -0.13467513 0.19225317 -0.35965255 0.32552046 -0.15200473
-0.2151125 0.00011489902 0.077329226 0.0015781083 0.14133126 0.36523086 -0.22857417 0.10135108
-0.20094028 -0.33256105 0.13665804 -0.19295527 -0.07029773 0.23115136 0.19346726 -0.17910779

conv.nn.2.weight f4 [100, 128]
00000000: f37e 78bd 6d71 123d 6dae fe3a da62 b3bd
00000010: 4992 723d dd22 9c3d 8077 84bd f21e 513d
00000020: a436 143c 6f90 e6bc 6684 363c fb21 a13d
00000030: 4e20 393d 0808 6c3d 3d75 a3bc bf8c 933d
00000040: fc02 233d d804 2c3c b45d 95bd ea77 8cbb
00000050: ca23 853d f93c 213d 2cae 953d 447f 6bbd
00000060: 2f9c d2bb 3d5b ec3c 3637 d43c e6b1 a8bd
00000070: cdac aabc cff6 8abd 5856 a63c 6659 83bd
00000080: 72e0 48bd 4c65 063c f51d 76bd 08ab b3bd
00000090: c1f2 56bd 74da 4dbd 3471 923d 7663 173c
000000a0: 3255 81bc 4700 433d e0de d23b d173 a93d
000000b0: d3e4 50bd fb11 7c3d 80ad 7ebd 42e8 27bd
000000c0: fea2 54bd 4b94 15bd 1f5d 2e3d 1b02 73bd
000000d0: 5d1d bf3c 0a3a 0e3c 7926 a7bb 27fe 993c
000000e0: 05ea 03bd 1028 4abd 7f2f eebb 0ef6 94bd
000000f0: 71e9 7ebd 0dcc 17bd c77d 57bc 0a54 84bd
00000100: 4801 80bc ed5b 86bd 58d7 cfbc 9fbb 7bbd
00000110: 6893 a3bd dcde f1bc e234 99bc b68d c13c
00000120: aa6c c53b 1960 d43b 3bef 3cbd a1b1 103d
00000130: 91e1 153d dd53 9ebd 9c47 6d3c 55a0 923d
00000140: f3a7 5b3d 8eb3 963d 1f6f 9f3d e183 76bd
00000150: cce0 de3b 3b84 b5bb df41 913d 54dc 703c
00000160: c0bd 7a3d 90eb d63c e607 023d d6c2 a0bc
00000170: 9c96 963d 07ad 1a3d 5290 b4bc 0629 493c
00000180: 707b 863b e40e 283c 27b7 ebbb 59b5 93bc
00000190: 1bbd f03c a171 963d 78bd f8bc df9d 98bd
000001a0: ec74 64bd cb08 533d 69a0 8f3c 348f 043d
000001b0: 63ae b13d 5311 523d cbf8 5fbd 7572 1dbc
000001c0: 4b86 a03d d5ed 96bd e7fe 9a3d 4f05 64bc
000001d0: 4be3 a13d 89e7 b8bc 5284 9dbd c0cb fabc
000001e0: 56d9 b0bd 5e77 18bc 01cb b1bd c9e3 313d
000001f0: 5ad6 52bc 4937 63bd e070 8bbd ee16 90bd
00000200: 5874 9fbd cced be3c 962f 9b3d 6454 37bd
00000210: 2b53 b33b 27bf 673d ade4 84bc 7036 5c3d
00000220: 7de2 a1bc 7b84 a03d c281 84bd af13 853d
00000230: 1a0d 87bd 6f44 c23c bedd 133d 5abb 103d
00000240: fca3 9ebd cb83 dabc 0e8b 713b 4d46 76bc
00000250: 037c 67bd 56db 8b3c 9fa0 43bc 15ae 12bd
00000260: d70c a43b 2432 80bd 8599 5bbd f1a9 df3c
00000270: 0904 943d 37dc 69bd 666e 8fbd 4f0f dbbc
00000280: eb90 85bb 6bd3 c7bc 1969 0d3c 3cbf fbbc
00000290: 4d84 693d 130d 19bd fe52 a93d f4c8 69bd
000002a0: b1eb 6b3d 8531 1c3d d9c2 263d 2f28 2bbc
000002b0: 4c81 8d3b 14bf 9abd 50b1 d53b 71e5 9abc
000002c0: 85fc d8bc 13a4 a83d 370d 26bd 9b6f e73c
000002d0: 1272 55bc 1c40 99bd b517 1cbd 6319 9cbd
000002e0: a48f af3d 4695 81bd 41d1 b2bd e3cc 94bd
000002f0: f093 2c3c 31d4 02bd 924d 58bd 3bca 973d
00000300: e823 efbc ad6f a83d abbe a63c 9ba9 87bd
00000310: 938d aebd fe07 79bc 6c38 1dbd 98d7 08bd
00000320: 827d 433d 189b 18bd 1c21 7a3d e9ae 1d3d
00000330: 4cc2 3d3d a1b3 49bd e0f2 12bd cf6f 8f3d
00000340: 005e 10bd d3cb 19bd 923d 4f3d f0bd 20bd
00000350: cdfa 18bc f63f 313d c222 073d be08 863d
00000360: a6e9 543d 7950 553d d11e fabc 67a4 9d3d
00000370: de33 643d 7368 963d b03e abbd de23 f83c
00000380: 2e2c 14bd 20d9 c63c da83 c2bc 9a98 8bbd
00000390: f655 67bb 9bbd 76bd 6d4c 533d 18fe a2bc
000003a0: e796 543d a05e a63d c75d debb 8bae 8b3d
000003b0: 1256 abbd b5fa 1fbd d866 2d3d 7a49 9f3c
000003c0: e6a9 18bd e0b7 973d 8288 563d 1a8b b43c
000003d0: c2f8 ebbc b7a3 203d e608 88bd 1fdd 523d
000003e0: 16d3 9e3d 6e2e 32bd 3e2f ec3c 8943 653d
000003f0: 32ac 75bd 1776 b5bc c635 61bd 8477 453c
-0.060667943 0.035752703 0.0019430645 -0.08759089 0.05922154 0.07623837 -0.06468105 0.051054902
0.00904623 -0.028145043 0.011139965 0.078678094 0.045196824 0.057624847 -0.019953365 0.072045796
0.039797768 0.010499202 -0.07293263 -0.004286756 0.06500967 0.03936479 0.07308611 -0.057494417
-0.00642731 0.0288521 0.025905233 -0.082370564 -0.020834351 -0.06785356 0.020304844 -0.06413536
-0.049042173 0.008202862 -0.060087163 -0.08772856 -0.052477602 -0.05025716 0.07150498 0.009240022
-0.015787695 0.047607686 0.00643526 0.08274043 -0.050999474 0.061540585 -0.06217718 -0.040992983
-0.051913254 -0.036518376 0.042569276 -0.05932818 0.023329431 0.00868083 -0.005101022 0.018797947
-0.0322056 -0.049354613 -0.0072688456 -0.07273494 -0.062234346 -0.037059832 -0.013152546 -0.06461342
-0.015625611 -0.06560502 -0.025371239 -0.061458226 -0.079871 -0.029525213 -0.018701974 0.023627143
0.0060249167 0.0064811823 -0.046126585 0.03532565 0.03659207 -0.077308394 0.014482405 0.07159487
0.053626966 0.07358466 0.077848665 -0.060184363 0.0068017 -0.0055394447 0.07092642 0.014700968
0.061216116 0.026235372 0.031745814 -0.019624155 0.07352945 0.037762668 -0.022041474 0.012277847
0.0041040704 0.010257456 -0.0071934643 -0.01803081 0.029387048 0.07345892 -0.030363783 -0.074519865
-0.055775568 0.051522058 0.017532544 0.03236313 0.0867584 0.051286053 -0.054680627 -0.009609808
0.07838114 -0.073695816 0.0756815 -0.013917281 0.07904681 -0.022571342 -0.07691254 -0.030614734
-0.086352035 -0.009305803 -0.08681298 0.043430123 -0.012868488 -0.055472646 -0.068086386 -0.070356235
-0.07785863 0.02330675 0.07577436 -0.044758216 0.005472561 0.05657878 -0.016222322 0.053762853
-0.019761318 0.07837769 -0.06470062 0.06497895 -0.06594296 0.023714272 0.03610014 0.035334922
-0.07746121 -0.026674172 0.0036856565 -0.015031409 -0.05651475 0.017072361 -0.0119401505 -0.03581055
0.0050064134 -0.062595636 -0.053613205 0.027302714 0.07227332 -0.05709478 -0.07003479 -0.026740698
-0.0040761135 -0.024392804 0.008631014 -0.030730836 0.057010937 -0.037365984 0.08267783 -0.05707641
0.05759782 0.038133163 0.040713165 -0.010446592 0.004318392 -0.075559765 0.0065213814 -0.018908234
-0.026487598 0.0823442 -0.040539946 0.02825146 -0.013027685 -0.07482931 -0.038108546 -0.0762203
0.08572319 -0.063273 -0.08731318 -0.072656415 0.010533318 -0.031940643 -0.05280835 0.07411619
-0.029191926 0.082244255 0.02035459 -0.066241466 -0.08523097 -0.015199659 -0.038383886 -0.03340873
0.047727115 -0.037257284 0.06106673 0.038496885 0.046327874 -0.049243573 -0.035876155 0.07003748
-0.035245895 -0.037547898 0.050595827 -0.03924364 -0.009337139 0.04327389 0.032992132 0.06544636
0.051980637 0.052078698 -0.030532273 0.07697373 0.055713527 0.07344141 -0.08361566 0.03029054
-0.036174946 0.024273455 -0.023744512 -0.06816216 -0.003529904 -0.060239416 0.051586557 -0.019896552
0.051901724 0.08123517 -0.0067860815 0.06820401 -0.08366026 -0.039057452 0.042334408 0.019444216
-0.037271403 0.07408118 0.052376278 0.022038985 -0.02880514 0.03921863 -0.06642322 0.05148041
0.07755105 -0.04350131 0.02883112 0.05597261 -0.05997867 -0.022151036 -0.054982923 0.0120524205

conv.nn.2.bias f4 [100]
00000000: 9ab5 a73c 6b3c 1abc 6249 efbc bf9a 21bd
00000010: 9fe5 ffbc d6d4 823d d166 2a3d b066 d4b8
00000020: 7941 0bbd 97a2 983d e593 10bd b96b 86bd
00000030: 2ece 4cbd 1f84 2abd fefc 0d3b fe4e 7bb8
00000040: 5c65 5cbb 9964 733d 73aa 303d 101a 913c
00000050: 3139 a7bd e069 af3c dec1 af3c 2924 b2bd
00000060: 24e3 c2bc e534 6d3d 20c9 8dbd 6749 2c3c
00000070: bc30 ad3d 71ad 91bd cc33 34bc cfba 94bd
00000080: da9a c5bb 7e0d 893d c73b 56bc 135c 88bd
00000090: 572a 3b3d b55c 8bbd f118 f53c 18cd 6e3d
000000a0: 7e14 9c3d 5be3 94bd d9d0 a5bd a258 41bd
000000b0: cfdc 79bd 3ea0 d33c 8127 4fbd 703a 7abd
000000c0: 9867 56bb c2a6 a53d af31 bcbc 8339 af3d
000000d0: acf9 6d3a 0393 7e3d 1438 c2bc 86b9 193c
000000e0: 8d1f 98bc c620 11bd 7cef d33c ab3e 65bd
000000f0: b0a7 1b3d 47db 5a3d 280f 76bd f1ab 4d3c
00000100: a86d 633c 8ca3 913d 76b1 8e3d 7162 87bd
00000110: 54bf 6ebd 7061 82bd 444f b83b 9692 a33b
00000120: d837 89bc 6625 803d 2912 a9bd a241 41bd
00000130: e282 a7bd dc11 9fbd 8b8d c43b 68de d33c
00000140: 6d23 ce3b 6247 acbc c189 a7bd 6a2a 843b
00000150: 05e2 633c 62ab d03c 83b4 a7bc 9544 b3bd
00000160: 5624 853d 7860 9dbc 3bc2 87bd b5ce 88bd
00000170: 5987 6f3d baa5 aa3d 8f1f 043d e07e 453d
00000180: 7012 883d fe18 a03d ca30 fd3c d910 193d
0.020472337 -0.009413819 -0.029209796 -0.039454218 -0.031237422 0.063882515 0.04160196 -0.00010128075
-0.033997986 0.074528866 -0.035297293 -0.06563515 -0.050001316 -0.041629907 0.0021665688 -5.991663e-05
-0.003362975 0.05942211 0.043131303 0.017712623 -0.08165205 0.02141279 0.021454748 -0.08698303
-0.02378995 0.057911772 -0.06923127 0.010515547 0.08456561 -0.071131594 -0.010998677 -0.072621934
-0.0060304226 0.066920266 -0.0130757755 -0.06658187 0.045694675 -0.06804792 0.02991912 0.05830106
0.07621096 -0.07269927 -0.08096475 -0.047203667 -0.061001595 0.025833245 -0.050574783 -0.061090887
-0.0032715555 0.08088447 -0.02297291 0.08555891 0.00090780365 0.06215192 -0.02370838 0.009382611
-0.018569732 -0.035431646 0.025871031 -0.055967968 0.038001716 0.053431775 -0.060073048 0.012553201
0.013881125 0.07111272 0.06967442 -0.06610573 -0.058287933 -0.06366241 0.0056246836 0.0049918396
-0.016750261 0.06257133 -0.08255417 -0.047181733 -0.08179261 -0.07767078 0.0059983185 0.025862888
0.006290844 -0.021030132 -0.08180571 0.0040333765 0.013908868 0.025472347 -0.020471817 -0.08753315
0.06501071 -0.019211039 -0.066288434 -0.06680051 0.058478687 0.08332391 0.03225666 0.0482167
0.06644142 0.07817267 0.030907054 0.037369583

gru.weight_ih_l0 f4 [30, 10]
00000000: 2646 873e 15b5 df3b 88a4 1e3e 1f66 24be
00000010: 3ac1 11be 0cf2 903e 53c6 4d3e d091 7ebd
00000020: 356d 17be 5cca 84be 95f7 53be 9042 463e
00000030: 7b6f 16be 180e 8a3e 5cdb 44be b676 b03d
00000040: eafb 053e c7f4 86be ec14 263e 4d69 0abe
00000050: 5bd1 1d3e e51c 8fbe c355 223e 2ebb 72be
00000060: b950 8c3e 039a 67be b0f4 1f3e 9c7a fb3d
00000070: 5892 83be cfc5 143e 90cf e4bd d8ff 6cbe
00000080: 91c8 a0be f9dd 07bd 8eb8 5f3d 1bd2 66be
00000090: f294 69be c2b0 24bd 1205 60be f303 363e
000000a0: adfc 72be 3094 91be fb97 95be 49e1 9a3e
000000b0: 71f7 9c3c 75b9 523e 7fd0 5b3c 4d6e 81be
000000c0: 82e1 9c3e b233 36be 991e 16be dc48 82be
000000d0: bf75 c8bd 11b4 86bd e9c8 28be 92b8 b13d
000000e0: af13 f4bd 2f8d c7bc 6ffa f53d f984 86be
000000f0: 1097 6dbe f952 97bd 6eac 1dbe 13c1 c43d
00000100: 6165 66bd 75c4 993e 8228 7fb8 f346 633e
00000110: 7357 19be 9706 31be 96fb 45be 4d38 98be
00000120: 5e3a 733d 7a7b b6bd 7339 99be 9223 5fbd
00000130: 1f3c efbd 389c 3abe 1825 2dbd e192 cebd
00000140: 97cc 8d3e 79a8 83be fac9 6f3e c5b3 353e
00000150: f738 773e 102f 33be 2009 50be 2d86 1cbe
00000160: e466 6bbe 95cb 75be 6e05 2d3e 2ab6 9f3d
00000170: 6a86 8b3e 229c 843e b444 20bd 0e2d 8fbe
00000180: 2600 55be 4319 79be 0e2a b4bc e53a 8cbe
00000190: 28ad 8bbe 1f2e 453e 2ae5 9d3d 856d 57be
000001a0: 8844 ae3d cae4 6bbe 2e5b 1a3e e641 1abe
000001b0: 02d3 dcbd 2f06 513e f4bf 8abe 728f c43d
000001c0: 93fc 593e 92c5 1fbd 3f34 243e d5b6 8d3e
000001d0: fb77 bf3c 69a0 793d b25c 333e 5ce1 883e
000001e0: 5624 c43d b88d 543e beea 423e c6ba 7abe
000001f0: 88d5 1b3e 373a 63be 1892 7cbe d761 3dbe
00000200: 39b4 0b3e 5001 84be e6ec fa3d 2cdc 87be
00000210: a5b3 893d 8703 9d3e c8f4 98be 7769 9a3d
00000220: 5b1f 0d3e 0dce 22be 0062 39bd a69f 773e
00000230: e38b 1c3d 9fcf 503e d071 6cbd f6b1 6abe
00000240: 8a1a a93d 72be 6cbd f31f 6f3e b7a5 38be
00000250: b330 953e fd38 15be 43a0 5cbe 7f88 683e
00000260: 9851 18be c27f e33c 0781 883e 1eae d2bd
00000270: c99f 993e 92c3 38be 7a83 0bbe 1f04 87bd
00000280: f237 993e 180b 89bd e750 7ebe cdbd 553d
00000290: 50cb 9e3e 778c 913c b3e0 9abe bfa4 4e3e
000002a0: 351e 853e fd68 9dbe 487b 123e 1b69 92bc
000002b0: ea51 4fbe ff3d a03e cf49 cabd 6652 f73d
000002c0: 6818 80be 504c 44be 8945 c2bc 5aa6 983e
000002d0: fec3 3abe b778 90be 3d65 533e ff0d 9ebe
000002e0: 42f2 573e 7e1a 16be ab59 9a3a c900 13be
000002f0: dbab 4c3d 08c9 9d3e 5730 fbbd 4dc7 31be
00000300: 5ae5 3a3e 8fa0 b03d 8488 853b f894 9a3e
00000310: 8ef2 8cbe cd41 983e 22e5 4fbb b0dc 4cbe
00000320: a9da 7c3d 08ae 5a3d 1feb 28bc d39e 873e
00000330: 5a72 ab3d 3084 e73d 0674 32bd b722 2bbe
00000340: 395f 123d 7da1 823e b4ba 5b3e 8eb7 8f3d
00000350: fd59 d8bc 6fe6 9cbd d13d 483e 5e33 b63d
00000360: 5ad0 103e 122d d0bd 2f4e 4f3e d957 f43d
00000370: ad11 6dbd fb28 9b3e 25f2 673e ff6a 903e
00000380: d01a 9ebd 52c1 113e 9f73 64bd c1ab 5bbd
00000390: 69a9 01be 2e4d 7d3e 37ec 183e 561c e5bd
000003a0: c927 883e 6eea aa3d e265 253e 19fc 233c
000003b0: 068c 93be 42bd c3bd da55 8a3d 3b69 da3d
000003c0: fbb1 963e 0d70 4a3e bea9 803e 737e ae3c
000003d0: 7d6e 0f3e ada3 75be 39eb 02be 82dd 96bd
000003e0: 1b9a 65be d3c0 46be aeff b3bc 4407 0ebe
000003f0: 395c 74bd 3c94 cfbd ae42 8a3e 8566 52be
0.26420707 0.0068270066 0.15492451 -0.16054581 -0.14233866 0.28309667 0.20095186 -0.062150776
-0.14787753 -0.25935638 -0.20699914 0.19361329 -0.14690964 0.26963878 -0.19224304 0.08616392
0.13084379 -0.26358625 0.16218919 -0.13516732 0.15411894 -0.27951732 0.15853028 -0.23704216
0.27405336 -0.22617345 0.15620685 0.12279245 -0.2569759 0.14528583 -0.11172402 -0.23144472
-0.3140302 -0.033170674 0.054619364 -0.22541086 -0.22810724 -0.040207632 -0.21876934 0.17774944
-0.237292 -0.2843337 -0.29217514 0.30250004 0.019160958 0.20578559 0.013416409 -0.25279465
0.306408 -0.17793158 -0.1466011 -0.25446212 -0.09788083 -0.06577314 -0.16482891 0.08677782
-0.11917817 -0.024359314 0.12010657 -0.26273325 -0.23202157 -0.07388873 -0.15397808 0.096071385
-0.056249026 0.30032697 -6.0834464e-05 0.22195034 -0.14974765 -0.1728767 -0.19334254 -0.29730454
0.059381835 -0.0891027 -0.29926643 -0.054477282 -0.11681389 -0.18223655 -0.042271703 -0.10086609
0.27695152 -0.25714472 0.23416892 0.17744358 0.24142824 -0.17498422 -0.20315981 -0.15285559
-0.22988468 -0.24003442 0.16896603 0.07798417 0.27250987 0.2590037 -0.03912802 -0.27964061
-0.20800838 -0.24326043 -0.02199271 -0.27388683 -0.27280545 0.19255875 0.07709725 -0.21037872
0.08509165 -0.23036495 0.15073845 -0.15064201 -0.10782434 0.20412515 -0.27099574 0.095976725
0.21287756 -0.039006777 0.16035555 0.27678552 0.02337264 0.060943995 0.17515829 0.26734436
0.09577243 0.20757186 0.1903486 -0.24485311 0.15218174 -0.22190176 -0.24665105 -0.18494354
0.13642968 -0.2578225 0.12252216 -0.26535165 0.067237176 0.30666754 -0.29874253 0.07539647
0.13781492 -0.15898915 -0.045259476 0.24181995 0.038219344 0.20391701 -0.057725728 -0.22919449
0.08257015 -0.05779881 0.23352031 -0.18031965 0.29138717 -0.1457252 -0.2154551 0.22708319
-0.14874876 0.02777088 0.2666094 -0.102871165 0.3000472 -0.18043354 -0.13624373 -0.06592583
0.29925495 -0.06691569 -0.2483555 0.05218296 0.3101449 0.017767174 -0.30249557 0.20180033
0.2599961 -0.30744162 0.1430484 -0.017872384 -0.20246091 0.312973 -0.09877359 0.12076263
-0.2501862 -0.19169736 -0.023714798 0.29814416 -0.18238828 -0.28217098 0.20644088 -0.30870053
0.21088508 -0.14658543 0.0011775991 -0.14355768 0.04996858 0.30817437 -0.122650795 -0.17361183
0.18251553 0.08624374 0.004075112 0.3019178 -0.27528805 0.29737702 -0.0031722267 -0.2000606
0.061731968 0.053388625 -0.0103099635 0.2648836 0.0837142 0.1130451 -0.04356768 -0.16712461
0.035735343 0.2551383 0.2145794 0.07017432 -0.026410097 -0.07661139 0.19554831 0.08896516
0.1414198 -0.101648465 0.20244668 0.11930818 -0.057878185 0.30304703 0.22650965 0.28206632
-0.07719958 0.14233902 -0.055774327 -0.053630594 -0.12662281 0.24736473 0.14933859 -0.11187045
0.26592854 0.08345495 0.16152146 0.010008835 -0.28817767 -0.095575824 0.06754656 0.10664602
0.29432663 0.19769306 0.25129503 0.02130053 0.14006992 -0.23988219 -0.12785043 -0.07366468
-0.22422068 -0.19409494 -0.021972504 -0.13869959 -0.059658263 -0.10135695 0.27003998 -0.2054692

gru.weight_hh_l0 f4 [30, 10]
00000000: 029e 0b3e 8a6a 66be 77ef bbbc 502a 94be
00000010: acad 68be d3ca dfb8 0419 45be 037d 503e
00000020: f28e 37bd 1c00 233e a74a 5c3e d0dc f2bd
00000030: 446a 6c3e b0b7 b13d c0df 02be 0f6b b5bd
00000040: e8c1 8b3e cb2b 10be 73c6 cf3d c05a 20bd
00000050: b85f 9cbe 8060 72be adb5 5abe 3016 43be
00000060: dda3 be3d 3667 5d3e 91d0 313c cd79 fa3d
00000070: 5314 96be ea69 973e 9f01 e3bd 9f65 63be
00000080: 7148 e13d 3f3a 6cbe 35b6 5a3e 90fe acbd
00000090: 3134 ef3d 5df6 3dbe 427c 80be 805e 2dbe
000000a0: 5581 9fbe 7199 103e 402f 953e a5b5 833e
000000b0: c32a 63be 9d17 5dbe 00ba 963e f9e3 f63d
000000c0: 8bfb 5cbd c2bf 0c3d 9df7 923d 8805 5e3e
000000d0: 7d8d 863e 7ae4 8dbe 1376 58be 4530 4a3e
000000e0: 1b14 963e e000 f3bd 9f1f fbbd 26d2 273e
000000f0: 4b14 3dbe 131c 4dbe b558 75be fa19 0d3e
00000100: 3141 63bd 3bed 1dbd a5cc 20be 223a 0d3e
00000110: e28d 67be 6d00 cebd 7777 69be 5e00 7a3e
00000120: a04b d0bd a998 103d deed 323e 187b f63c
00000130: 4727 19bb 282d d3bd c5ac b83d 96b6 6dbe
00000140: 3847 af3c 0bdc 00be 6660 0e3d 1fe0 fb3d
00000150: 96c6 8bbe 3ddd 61be fef0 e43d 492e 703e
00000160: a1bb 8abd 85ba 913e 42a8 6a3e 1e91 8a3e
00000170: fa60 9b3e 6f7b 89be 2de4 5b3e 970a 18bc
00000180: 33b4 3b3e edea 1e3a 8562 9ebc 87f6 54be
00000190: 989d fe3d 5032 47be 2afb 04bd b70d 90be
000001a0: 387b 7e3e defa 8ebe 9c6c 803e 4efc de3c
000001b0: 825c 20be 8a34 a0be 6b79 75be 2e11 9dbe
000001c0: e466 0e3e 909c 8e3e c8fc 9e3e de12 0abd
000001d0: 779a d6bc d044 fc3d 4d13 52be abe7 9f3e
000001e0: 5a07 0d3c cc11 723d 935a 1bbc aca2 89be
000001f0: 7c1a 5a3e fae0 c43d 6793 9a3e 495f 40be
00000200: da91 8bbd 0fe8 ee3c 303f 883e 649e 38be
00000210: 2c3f c63d 36f8 e43c bbcd ddbd 8bdf 1f3d
00000220: 016d cbbd b11a a0bd f731 9dbe a4b8 3c3e
00000230: b45d 9b3e 6f3a 823d 8f3a 9abe dc4a b539
00000240: 78ab 0e3e a4eb 223e 65b5 683e 4558 90bb
00000250: bdda 983e dcf9 853e 6ec7 7ebe 5ac0 9d3d
00000260: d1a6 cbbd ced1 87be 4f2e 5a3d cc23 bbbd
00000270: aafc 873e 98e3 933d c5f3 a53d d44e f1bd
00000280: 781f 23bd cfbe 233e 111a 1cbe 03e3 8e3d
00000290: 8f32 583e 6c1a 83be cbac 803e 2127 eb3d
000002a0: a94b debc 2270 4ebe a6b4 e8bd 66b8 913d
000002b0: 503b a8bd 1e3d 023e f67c c13c bc88 403e
000002c0: 289c 493e f6d3 973e 28bd 18bd ee6d 65be
000002d0: b46f fbbd d89b 16be 9991 7dbe 9f18 3cbe
000002e0: b42f 853c 3356 45be 5818 ecba 1622 823d
000002f0: 4a62 1f3e c151 8dbe 6f3b 903e aa63 7dbe
00000300: 7675 88be 3a9f 293e 8563 f9bd 128b e8bd
00000310: 4e9d d43d 9b57 e4bd 4923 bfbd 4d48 17be
00000320: a9ef bcbd 754f 973d 0d8a 183d 5a9c 663e
00000330: 6fee 05be 28a8 963c 8623 8c3e 51ef ffbd
00000340: 4c0c 933d b61b 9d3d a1a7 8e3e 4a48 51bc
00000350: cca3 f43c e9b7 6c3e a2dc 953e 16a4 7fbe
00000360: ddda 3f3e 0a2b 8bbe 6b60 713e 0d0b 403d
00000370: b005 223e 428c c5bd 21ab ea3d 3143 54be
00000380: d83e 29be 2106 363d 0767 43be 179c d83d
00000390: 336c ccbd 5158 473e 8cdc 0ebe a8c7 d43d
000003a0: 3445 5c3e 7766 fb3d 347b e53d 98a6 9abe
000003b0: b41a 7abd 2a2f 493e 69fd 36bd 1204 063e
000003c0: cf64 11bd 609a 8abe 43cd c8bd 42bc 5e3e
000003d0: 243b fc3b 793f c6bd 6439 4f3e 5d96 58bd
000003e0: 0821 64be 3d6e 9dbe 8daa ad3d da5c 403e
000003f0: d2b2 b43d acb7 f83d 44fc e53d df8f 853e
0.13634494 -0.22501579 -0.022941334 -0.28938532 -0.227225 -0.000106712476 -0.19247824 0.20360188
-0.044814058 0.1591801 0.21512853 -0.11858523 0.23087412 0.08677614 -0.12780666 -0.088583104
0.27296376 -0.14079206 0.10145273 -0.039149046 -0.30541778 -0.23669624 -0.21358366 -0.19051433
0.09308598 0.21621403 0.010852949 0.12230263 -0.2931238 0.29572994 -0.110842936 -0.22206734
0.11000145 -0.23069094 0.21358569 -0.084469914 0.116798766 -0.18551011 -0.250948 -0.1693058
-0.3115336 0.14121033 0.2913761 0.2572452 -0.22184281 -0.21591039 0.29438782 0.12055201
-0.053950828 0.034362562 0.07176135 0.21681798 0.26279822 -0.27713376 -0.21138792 0.19744976
0.29312214 -0.11865401 -0.122618906 0.16388759 -0.18464772 -0.2003024 -0.2395962 0.1377944
-0.055482093 -0.03855632 -0.15703066 0.13791707 -0.22612718 -0.10058675 -0.22799478 0.24414203
-0.10170674 0.035301838 0.17473552 0.030087993 -0.0023369358 -0.10311347 0.09017328 -0.23214182
0.021396264 -0.1258394 0.0347599 0.12298607 -0.27299947 -0.22057052 0.11178778 0.23455156
-0.067740686 0.28462616 0.22915748 0.2706384 0.30347425 -0.26851985 0.21473761 -0.009279869
0.1833046 0.00060622283 -0.019334087 -0.20797168 0.12432402 -0.19452786 -0.03246609 -0.28135464
0.24851692 -0.2792577 0.25082862 0.027219918 -0.15660289 -0.31290084 -0.23972099 -0.3067717
0.13906437 0.27853823 0.31052232 -0.0337094 -0.026196701 0.123178124 -0.20515175 0.31231436
0.00860771 0.059099004 -0.009482044 -0.2688192 0.21299165 0.096132234 0.30190584 -0.18786348
-0.06814928 0.029163389 0.26610708 -0.18029171 0.09680018 0.027950387 -0.108302556 0.039031547
-0.099329 -0.07817591 -0.30702183 0.1842981 0.30344927 0.063588016 -0.30122802 0.00034578785
0.13932598 0.15910202 0.22725447 -0.004405054 0.29854384 0.2616719 -0.24880764 0.07702704
-0.09943927 -0.26527256 0.05326682 -0.09137687 0.26559955 0.072211444 0.08103136 -0.117826134
-0.039824933 0.15990756 -0.15244319 0.06976893 0.21113037 -0.25606096 0.2513183 0.114820726
-0.027135687 -0.20159963 -0.11362581 0.07115249 -0.08214438 0.12718627 0.023619156 0.1880216
0.19688475 0.296539 -0.03728977 -0.22405216 -0.12277165 -0.14707887 -0.24762572 -0.18368767
0.016258098 -0.19271164 -0.0018012626 0.063541576 0.15564838 -0.27601436 0.28170344 -0.2474505
-0.26652116 0.16564646 -0.12177185 -0.113546506 0.10381566 -0.11149522 -0.09332902 -0.14773674
-0.09225399 0.07388202 0.03724103 0.22520581 -0.13079236 0.01839073 0.27370852 -0.12496818
0.0718008 0.07671301 0.27862266 -0.012773583 0.02986326 0.23117031 0.29269892 -0.24964938
0.18735833 -0.27181274 0.23571937 0.04688554 0.15822482 -0.09645893 0.114584215 -0.20728756
-0.16527879 0.04443944 -0.1908227 0.10576647 -0.09981575 0.19467284 -0.1395132 0.10389644
0.21510774 0.12275403 0.1120514 -0.30205226 -0.061060622 0.19646898 -0.044675265 0.1308749
-0.03549653 -0.27070904 -0.098047756 0.21751502 0.00769748 -0.09680075 0.20236737 -0.052877773
-0.22278225 -0.30748168 0.084797956 0.1878542 0.0882317 0.12144408 0.112297565 0.26086327

gru.bias_ih_l0 f4 [30]
00000000: ca10 7d3e 9469 91be 0e97 7d3d 7db6 723e
00000010: f951 e13c 125c 713d c25c 733e 2259 e13d
00000020: 81fb 90be 9705 89be d72d 443e 8c06 73be
00000030: 6e55 5dbe aadc dbbd ab62 8d3e e537 983c
00000040: 62b1 c43d a45f 2d3e 8c1a 70be 7d6d c4bd
00000050: 1562 0cbe 6526 453e 32f8 a0be 759a 9ebe
00000060: e16e 22be d8ac 99be 0534 8d3e 8df7 9cbd
00000070: 13f4 22be 9340 013e
0.24713436 -0.28400862 0.061911635 0.23702426 0.027504908 0.058925696 0.23765853 0.11003329
-0.28316882 -0.26762077 0.19158112 -0.23732966 -0.2161462 -0.10735448 0.2761434 0.01858134
0.096041456 0.16931015 -0.23447627 -0.09591196 -0.1370929 0.19252928 -0.31439358 -0.30977216
-0.1586261 -0.30014682 0.2757875 -0.07664404 -0.1591342 0.1262229

gru.bias_hh_l0 f4 [30]
00000000: d79e 073c eb63 a13e 1cf3 bd3c 9608 bcbd
00000010: 8008 e53d 4789 90bd e06a fb3d 9bd8 76be
00000020: 6b09 803e 686d 833e 4b9b c4bd cb52 8c3e
00000030: e242 40be 048c dd3c e4b4 4dbe ec29 42be
00000040: c800 15bd a8bf 91be 0ab6 80be 46da b639
00000050: d41f 343d 2fd2 07be 9952 993e e882 7bbe
00000060: a712 703e 214c 8fbe e2a1 2dbd 5dba 093e
00000070: c380 6ebe 2111 90be
0.008277616 0.31521544 0.023187213 -0.09181325 0.11183262 -0.070574336 0.12276244 -0.24106066
0.25007185 0.25669408 -0.09599932 0.27406916 -0.18775514 0.027044304 -0.20088536 -0.18961304
-0.0363777 -0.28466535 -0.25138885 0.00034876372 0.043975666 -0.13263772 0.2994583 -0.24561656
0.23444615 -0.2798777 -0.04239071 0.13449998 -0.23291306 -0.28138068

set2set.lstm.weight_ih_l0 f4 [40, 20]
00000000: 2b42 59bd b741 bc3d dc52 273e 6571 773e
00000010: caa0 93be 2492 96be 1d0f 4fbe 6c50 ca3d
00000020: 2db7 983d 8887 4d3c 1730 893e 6ac7 5cbd
00000030: 4ed8 2f3d 738e 89be 4702 913e b465 663e
00000040: 40d9 113e 4d21 9ebe 9eee e2bd a777 903e
00000050: 3abe 40be 5b47 a1be 92f6 47be 9e56 833e
00000060: 87b2 dd3d b36e 5b3c 0cfe a83d 3746 4dbe
00000070: 74e3 d2bd 1a9c bebd e385 50be 50d4 8abe
00000080: 22ad 86be f817 8abd dccc 7fbe 9b31 83be
00000090: b73d d73d e1bd a03e 7a32 a1be 2368 cebd
000000a0: 811b 14be 4934 79be 4fa4 96bc 5008 703e
000000b0: e95c a0be 8737 8e3e c51b cd3d b998 40bc
000000c0: 4a9a 313e 2691 1cbe 2a0a 7f3d 5b1d a9bd
000000d0: d368 0fbe 069f 9abe d2ad 763e 217f bbbd
000000e0: e51e 72be a0c6 4b3e 4bb2 80bd 02ea 0c3e
000000f0: 6071 86be 9f39 383d de09 bd3c 158e 3a3e
00000100: 1474 1b3e 5b72 673e adfd ecbd 9300 8d3e
00000110: 8f1b 943d 0d4b eb3d ea2e 92bd 9396 fdbd
00000120: ea2e 25be edcb e23d 5de3 853e 73b0 163d
00000130: 1ac4 7abd ca08 92be 5d67 7b3c c269 0fbe
00000140: 6824 a53d 9427 c03d 75ac 11be e09c 1e3d
00000150: f4e0 843e 5243 753e 614c 0f3d ce95 39be
00000160: 7c47 84be 1683 7dbe a487 39bd fd33 953e
00000170: 2ff3 45be 00b1 66be 2851 773e a7dc f43d
00000180: a122 663e 4113 0b3e bace 593a 2733 6f3e
00000190: 39ac 3e3e 0928 d63d 1b68 11be 05e0 543d
000001a0: b3b3 103e f81c a03b 6f24 68be 2e58 89be
000001b0: aae7 babd debd 60be 7f6b 28be 3e05 6c3e
000001c0: 7e53 6fbe 3e56 843e 380e e1bb 4f24 febd
000001d0: fc08 753e 464e 263e e306 843d 6741 023e
000001e0: fb77 e2bd 4d06 23be 7a9f 073e 4ccb 9fbd
000001f0: 5feb 39bd 9c41 9fbe 093b 053e 47c1 8e3e
00000200: 7d1f 09be b157 54be ed22 8bbe 175d 36be
00000210: 3357 30be 1b5d aeba 23a8 953e 7d0f 66bc
00000220: 5024 5bbe 6292 18bc 405b 303e 432b 92be
00000230: bc70 37be a645 79bd 8b05 9f3e 6034 b63d
00000240: 298c fabd 4165 753d c07f 16be 7715 fa3d
00000250: def6 ae3d 5f92 05bd 248f 883e b9bb 00be
00000260: 0bea 1c3e dc82 603e 9701 453d 495c 463e
00000270: 2c7e 403e 216a 7d3e 7796 463e 50ff 4bb9
00000280: 33a4 253d 6ac5 50be 6359 9ebe a1dd 473d
00000290: 16c4 953d d7e8 8a3e 5b6d 3e3e 9a3b 983d
000002a0: 3e62 d43d 89b9 c0bd 9902 b3bd 0d70 ef3d
000002b0: 4679 8fbd f3a6 44be 8494 1c3e b4eb 95be
000002c0: 5d66 91be 382f 5d3d ff8e 8d3e d4ba 483d
000002d0: cf1c 75be 51e5 9c3e 3def 2bbe a1a2 50bc
000002e0: a00f 023e 8959 9dbe ac45 933e e97c 63be
000002f0: 8f19 373e 425e 923c 7023 88bd 6d79 28be
00000300: af8c 88be 6642 273d 4dbe 30be feb7 12be
00000310: 7d25 5c3e 1527 2b3e 7422 8c3e 9c0e c13d
00000320: 4231 74be 1e47 1abe 25de 8ebe 3fbd ff3d
00000330: d6c3 bf3d c005 8fbe 68d2 9f3e f66e a1be
00000340: 8014 eebd d1fa 733e 1521 07bd bc70 85be
00000350: 4d25 5c3e 0cfe 953d 83d6 893e defe 92be
00000360: 9996 223e 13a5 8d3e d361 8cbe 473c e43d
00000370: bcc7 943e 57a6 053e fde8 80be ebca 89be
00000380: de57 903e 4ccb 9a3e e6e7 e1bc 27be 9b3e
00000390: 4bdc c73d 54b8 4fbd 4229 00be 5b22 2c3e
000003a0: 83b3 c2bc 886d 09be 9c96 673e 6491 4a3e
000003b0: a64a 81bd 54a8 dc3d 040a 6d3e bcb8 1dbe
000003c0: e346 98bd 246e f43d 4b45 a0bd 0c8e 8e3e
000003d0: f40a 2e3c f33e f8bd 117b 81bd fba2 bfbc
000003e0: fd9b 2c3e e953 b4bc 375f 6cbe 3f3a 75be
000003f0: 468b 3abe 0040 fb3d 3ee7 a4bd 07e5 2dbe
-0.05304162 0.091922216 0.16340202 0.2416435 -0.2883361 -0.2940837 -0.20220609 0.098786205
0.07456813 0.01254452 0.26794502 -0.053901114 0.042930894 -0.26866493 0.2832205 0.22499734
0.1424303 -0.3088478 -0.11080669 0.28216287 -0.18822566 -0.31499752 -0.19527653 0.2565202
0.10825067 0.013393092 0.082515806 -0.20046316 -0.102972895 -0.09307118 -0.20363574 -0.27115107
-0.26303965 -0.06742853 -0.24980491 -0.25623783 0.10509818 0.31394866 -0.31483823 -0.10078456
-0.14463617 -0.24336351 -0.018388895 0.23440671 -0.31320885 0.2777674 0.10015062 -0.011755162
0.17344013 -0.15289745 0.062265553 -0.08257552 -0.14004831 -0.3019945 0.24089745 -0.09155107
-0.23644598 0.19899988 -0.06284007 0.13761142 -0.26258373 0.044976827 0.023075994 0.18218262
0.15180999 0.22602217 -0.11571822 0.275395 0.07231819 0.11488924 -0.071378544 -0.123822354
-0.16131178 0.11074052 0.26150027 0.03678937 -0.061222173 -0.2852233 0.015344468 -0.14005187
0.080635846 0.09382549 -0.14225943 0.038723826 0.25952876 0.23951462 0.03498495 -0.18123552
-0.25835788 -0.24757037 -0.045295373 0.29141226 -0.19331048 -0.22528458 0.24152052 0.119561486
0.22474147 0.13581564 0.0008308698 0.23359357 0.18620385 0.10456855 -0.1419987 0.051971454
0.1413105 0.004886266 -0.22670148 -0.26825088 -0.09126218 -0.21947429 -0.16447257 0.23048875
-0.23371693 0.25847048 -0.00686815 -0.12409269 0.23929209 0.16240796 0.06446626 0.12720262
-0.11058041 -0.15920372 0.13244429 -0.07802448 -0.045390483 -0.31104743 0.13010801 0.27881834
-0.13390918 -0.20736577 -0.27175084 -0.17808948 -0.17220764 -0.0013302894 0.2922984 -0.014041779
-0.21400571 -0.009312244 0.17222309 -0.2854863 -0.17914099 -0.060857438 0.31058916 0.088967085
-0.12233765 0.059911016 -0.1469717 0.12211125 0.0854318 -0.032610293 0.26671708 -0.1257161
0.15323655 0.21924919 0.04809722 0.19371141 0.18798131 0.24747516 0.19393335 -0.000194547
0.040439796 -0.20387807 -0.30927572 0.048795346 0.07312791 0.27130768 0.18596403 0.07433243
0.10370301 -0.09410388 -0.0874073 0.11691294 -0.07005553 -0.19204311 0.15291029 -0.2928139
-0.2839841 0.05400011 0.2764816 0.0490063 -0.23936771 0.30643705 -0.16790481 -0.012734086
0.12701273 -0.30732372 0.28764093 -0.22215618 0.17880844 0.017867211 -0.06647384 -0.1645257
-0.26669833 0.040834807 -0.17260094 -0.14328 0.21498676 0.16714127 0.27370036 0.09426615
-0.23846915 -0.15066192 -0.27903858 0.12487268 0.093635246 -0.27934074 0.31215215 -0.3152997
-0.11625004 0.23826148 -0.032990534 -0.26062572 0.21498604 0.07323846 0.26921472 -0.28710073
0.15877761 0.27665004 -0.27418384 0.111443095 0.29058635 0.13051735 -0.25177756 -0.26912627
0.28192037 0.30233228 -0.027576398 0.30418512 0.097588144 -0.0507129 -0.12515739 0.1680998
-0.023767238 -0.13420689 0.22616047 0.19782025 -0.06313066 0.107742935 0.23148352 -0.15402502
-0.074353956 0.1193507 -0.078257166 0.27842748 0.010622729 -0.121213816 -0.06322301 -0.023393145
0.1685638 -0.022012668 -0.23083197 -0.23948 -0.18217191 0.122680664 -0.080519184 -0.16981898
